…
I0522 21:55:20.070408 34682 net.cpp:51] Initializing net from parameters: 
name: "2018-05-22_AMImageCdata-b0.35s30_fc_0.35_112x96_b+FaceAdd_faceNet-20-light2s4-bn_zkx_train"
state {
  phase: TRAIN
  level: 0
  stage: ""
}
layer {
  name: "data"
  type: "ImageData"
  top: "data"
  top: "label"
  image_data_param {
    source: "/home/zkx/Data_sdb/TrainData/Data_sdc/Patches/MultiPatches/image_list/train_list/Combine_base_Cmul-Asia-beid-cap10-ZheD_list.txt_label.txt"
    batch_size: 64
    shuffle: true
    root_folder: "/home/zkx/Data_sdb/TrainData/Data_sdc/Patches/MultiPatches/fc_0.35_112x96/"
  }
}
layer {
  name: "conv1_1"
  type: "Convolution"
  bottom: "data"
  top: "conv1_1"
  param {
    lr_mult: 1
    decay_mult: 1
  }
  param {
    lr_mult: 2
    decay_mult: 0
  }
  convolution_param {
    num_output: 24
    pad: 1
    kernel_size: 3
    stride: 2
    weight_filler {
      type: "xavier"
    }
    bias_filler {
      type: "constant"
      value: 0
    }
  }
}
layer {
  name: "relu1_1"
  type: "PReLU"
  bottom: "conv1_1"
  top: "conv1_1"
  prelu_param {
    filler {
      type: "gaussian"
      std: 0.03
    }
  }
}
layer {
  name: "conv1_3"
  type: "Convolution"
  bottom: "conv1_1"
  top: "conv1_3"
  param {
    lr_mult: 1
    decay_mult: 1
  }
  param {
    lr_mult: 0
    decay_mult: 0
  }
  convolution_param {
    num_output: 24
    pad: 1
    kernel_size: 3
    stride: 1
    weight_filler {
      type: "gaussian"
      std: 0.01
    }
    bias_filler {
      type: "constant"
      value: 0
    }
  }
}
layer {
  name: "relu1_3"
  type: "PReLU"
  bottom: "conv1_3"
  top: "conv1_3"
  prelu_param {
    filler {
      type: "gaussian"
      std: 0.03
    }
  }
}
layer {
  name: "res1_3"
  type: "Eltwise"
  bottom: "conv1_1"
  bottom: "conv1_3"
  top: "res1_3"
  eltwise_param {
    operation: SUM
  }
}
layer {
  name: "res1_3_reduce"
  type: "Convolution"
  bottom: "res1_3"
  top: "res1_3_reduce"
  param {
    lr_mult: 1
    decay_mult: 1
  }
  param {
    lr_mult: 0
    decay_mult: 0
  }
  convolution_param {
    num_output: 48
    kernel_size: 1
    stride: 1
    weight_filler {
      type: "gaussian"
      std: 0.01
    }
    bias_filler {
      type: "constant"
      value: 0
    }
  }
}
layer {
  name: "pool1"
  type: "Pooling"
  bottom: "res1_3_reduce"
  top: "pool1"
  pooling_param {
    pool: MAX
    kernel_size: 2
    stride: 2
  }
}
layer {
  name: "conv2_1"
  type: "Convolution"
  bottom: "res1_3"
  top: "conv2_1"
  param {
    lr_mult: 1
    decay_mult: 1
  }
  param {
    lr_mult: 2
    decay_mult: 0
  }
  convolution_param {
    num_output: 48
    pad: 1
    kernel_size: 3
    stride: 2
    weight_filler {
      type: "xavier"
    }
    bias_filler {
      type: "constant"
      value: 0
    }
  }
}
layer {
  name: "relu2_1"
  type: "PReLU"
  bottom: "conv2_1"
  top: "conv2_1"
  prelu_param {
    filler {
      type: "gaussian"
      std: 0.03
    }
  }
}
layer {
  name: "res1_3_p"
  type: "Eltwise"
  bottom: "pool1"
  bottom: "conv2_1"
  top: "res1_3_p"
  eltwise_param {
    operation: SUM
  }
}
layer {
  name: "conv2_3"
  type: "Convolution"
  bottom: "res1_3_p"
  top: "conv2_3"
  param {
    lr_mult: 1
    decay_mult: 1
  }
  param {
    lr_mult: 0
    decay_mult: 0
  }
  convolution_param {
    num_output: 48
    pad: 1
    kernel_size: 3
    stride: 1
    weight_filler {
      type: "gaussian"
      std: 0.01
    }
    bias_filler {
      type: "constant"
      value: 0
    }
  }
}
layer {
  name: "relu2_3"
  type: "PReLU"
  bottom: "conv2_3"
  top: "conv2_3"
  prelu_param {
    filler {
      type: "gaussian"
      std: 0.03
    }
  }
}
layer {
  name: "res2_3"
  type: "Eltwise"
  bottom: "res1_3_p"
  bottom: "conv2_3"
  top: "res2_3"
  eltwise_param {
    operation: SUM
  }
}
layer {
  name: "conv2_5"
  type: "Convolution"
  bottom: "res2_3"
  top: "conv2_5"
  param {
    lr_mult: 1
    decay_mult: 1
  }
  param {
    lr_mult: 0
    decay_mult: 0
  }
  convolution_param {
    num_output: 48
    pad: 1
    kernel_size: 3
    stride: 1
    weight_filler {
      type: "gaussian"
      std: 0.01
    }
    bias_filler {
      type: "constant"
      value: 0
    }
  }
}
layer {
  name: "relu2_5"
  type: "PReLU"
  bottom: "conv2_5"
  top: "conv2_5"
  prelu_param {
    filler {
      type: "gaussian"
      std: 0.03
    }
  }
}
layer {
  name: "res2_5"
  type: "Eltwise"
  bottom: "res2_3"
  bottom: "conv2_5"
  top: "res2_5"
  eltwise_param {
    operation: SUM
  }
}
layer {
  name: "res2_5_reduce"
  type: "Convolution"
  bottom: "res2_5"
  top: "res2_5_reduce"
  param {
    lr_mult: 1
    decay_mult: 1
  }
  param {
    lr_mult: 0
    decay_mult: 0
  }
  convolution_param {
    num_output: 72
    kernel_size: 1
    stride: 1
    weight_filler {
      type: "gaussian"
      std: 0.01
    }
    bias_filler {
      type: "constant"
      value: 0
    }
  }
}
layer {
  name: "pool2"
  type: "Pooling"
  bottom: "res2_5_reduce"
  top: "pool2"
  pooling_param {
    pool: MAX
    kernel_size: 2
    stride: 2
  }
}
layer {
  name: "conv3_1"
  type: "Convolution"
  bottom: "res2_5"
  top: "conv3_1"
  param {
    lr_mult: 1
    decay_mult: 1
  }
  param {
    lr_mult: 2
    decay_mult: 0
  }
  convolution_param {
    num_output: 72
    pad: 1
    kernel_size: 3
    stride: 2
    weight_filler {
      type: "xavier"
    }
    bias_filler {
      type: "constant"
      value: 0
    }
  }
}
layer {
  name: "relu3_1"
  type: "PReLU"
  bottom: "conv3_1"
  top: "conv3_1"
  prelu_param {
    filler {
      type: "gaussian"
      std: 0.03
    }
  }
}
layer {
  name: "res2_5_p"
  type: "Eltwise"
  bottom: "pool2"
  bottom: "conv3_1"
  top: "res2_5_p"
  eltwise_param {
    operation: SUM
  }
}
layer {
  name: "conv3_3"
  type: "Convolution"
  bottom: "res2_5_p"
  top: "conv3_3"
  param {
    lr_mult: 1
    decay_mult: 1
  }
  param {
    lr_mult: 0
    decay_mult: 0
  }
  convolution_param {
    num_output: 72
    pad: 1
    kernel_size: 3
    stride: 1
    weight_filler {
      type: "gaussian"
      std: 0.01
    }
    bias_filler {
      type: "constant"
      value: 0
    }
  }
}
layer {
  name: "relu3_3"
  type: "PReLU"
  bottom: "conv3_3"
  top: "conv3_3"
  prelu_param {
    filler {
      type: "gaussian"
      std: 0.03
    }
  }
}
layer {
  name: "res3_3"
  type: "Eltwise"
  bottom: "res2_5_p"
  bottom: "conv3_3"
  top: "res3_3"
  eltwise_param {
    operation: SUM
  }
}
layer {
  name: "conv3_5"
  type: "Convolution"
  bottom: "res3_3"
  top: "conv3_5"
  param {
    lr_mult: 1
    decay_mult: 1
  }
  param {
    lr_mult: 0
    decay_mult: 0
  }
  convolution_param {
    num_output: 72
    pad: 1
    kernel_size: 3
    stride: 1
    weight_filler {
      type: "gaussian"
      std: 0.01
    }
    bias_filler {
      type: "constant"
      value: 0
    }
  }
}
layer {
  name: "relu3_5"
  type: "PReLU"
  bottom: "conv3_5"
  top: "conv3_5"
  prelu_param {
    filler {
      type: "gaussian"
      std: 0.03
    }
  }
}
layer {
  name: "res3_5"
  type: "Eltwise"
  bottom: "res3_3"
  bottom: "conv3_5"
  top: "res3_5"
  eltwise_param {
    operation: SUM
  }
}
layer {
  name: "res3_5_reduce"
  type: "Convolution"
  bottom: "res3_5"
  top: "res3_5_reduce"
  param {
    lr_mult: 1
    decay_mult: 1
  }
  param {
    lr_mult: 0
    decay_mult: 0
  }
  convolution_param {
    num_output: 144
    kernel_size: 1
    stride: 1
    weight_filler {
      type: "gaussian"
      std: 0.01
    }
    bias_filler {
      type: "constant"
      value: 0
    }
  }
}
layer {
  name: "pool3"
  type: "Pooling"
  bottom: "res3_5_reduce"
  top: "pool3"
  pooling_param {
    pool: MAX
    kernel_size: 2
    stride: 2
  }
}
layer {
  name: "conv4_1"
  type: "Convolution"
  bottom: "res3_5"
  top: "conv4_1"
  param {
    lr_mult: 1
    decay_mult: 1
  }
  param {
    lr_mult: 2
    decay_mult: 0
  }
  convolution_param {
    num_output: 144
    pad: 1
    kernel_size: 3
    stride: 2
    weight_filler {
      type: "xavier"
    }
    bias_filler {
      type: "constant"
      value: 0
    }
  }
}
layer {
  name: "relu4_1"
  type: "PReLU"
  bottom: "conv4_1"
  top: "conv4_1"
  prelu_param {
    filler {
      type: "gaussian"
      std: 0.03
    }
  }
}
layer {
  name: "res3_5_p"
  type: "Eltwise"
  bottom: "pool3"
  bottom: "conv4_1"
  top: "res3_5_p"
  eltwise_param {
    operation: SUM
  }
}
layer {
  name: "conv4_3"
  type: "Convolution"
  bottom: "res3_5_p"
  top: "conv4_3"
  param {
    lr_mult: 1
    decay_mult: 1
  }
  param {
    lr_mult: 0
    decay_mult: 0
  }
  convolution_param {
    num_output: 144
    pad: 1
    kernel_size: 3
    stride: 1
    weight_filler {
      type: "gaussian"
      std: 0.01
    }
    bias_filler {
      type: "constant"
      value: 0
    }
  }
}
layer {
  name: "relu4_3"
  type: "PReLU"
  bottom: "conv4_3"
  top: "conv4_3"
  prelu_param {
    filler {
      type: "gaussian"
      std: 0.03
    }
  }
}
layer {
  name: "res4_3"
  type: "Eltwise"
  bottom: "res3_5_p"
  bottom: "conv4_3"
  top: "res4_3"
  eltwise_param {
    operation: SUM
  }
}
layer {
  name: "fc5"
  type: "InnerProduct"
  bottom: "res4_3"
  top: "fc5"
  param {
    lr_mult: 1
    decay_mult: 1
  }
  param {
    lr_mult: 2
    decay_mult: 0
  }
  inner_product_param {
    num_output: 256
    weight_filler {
      type: "xavier"
    }
    bias_filler {
      type: "constant"
      value: 0
    }
  }
}
layer {
  name: "fc5_bn"
  type: "BatchNorm"
  bottom: "fc5"
  top: "fc5"
  batch_norm_param {
    use_global_stats: false
  }
}
layer {
  name: "norm1"
  type: "Normalize"
  bottom: "fc5"
  top: "norm1"
}
layer {
  name: "fc-6_l2"
  type: "InnerProduct"
  bottom: "norm1"
  top: "fc-6_l2"
  param {
    lr_mult: 1
  }
  inner_product_param {
    num_output: 54547
    bias_term: false
    weight_filler {
      type: "xavier"
    }
    normalize: true
  }
}
layer {
  name: "fc-6_margin"
  type: "LabelSpecificAdd"
  bottom: "fc-6_l2"
  bottom: "label"
  top: "fc-6_margin"
  label_specific_add_param {
    bias: -0.35
  }
}
layer {
  name: "fc-6_margin_scale"
  type: "Scale"
  bottom: "fc-6_margin"
  top: "fc-6_margin_scale"
  param {
    lr_mult: 0
    decay_mult: 0
  }
  scale_param {
    filler {
      type: "constant"
      value: 30
    }
  }
}
layer {
  name: "softmax_loss"
  type: "SoftmaxWithLoss"
  bottom: "fc-6_margin_scale"
  bottom: "label"
  top: "softmax_loss"
}
I0522 21:55:20.070750 34682 layer_factory.hpp:77] Creating layer data
I0522 21:55:20.070806 34682 net.cpp:84] Creating Layer data
I0522 21:55:20.070816 34682 net.cpp:380] data -> data
I0522 21:55:20.070839 34682 net.cpp:380] data -> label
I0522 21:55:20.070854 34682 image_data_layer.cpp:38] Opening file /home/zkx/Data_sdb/TrainData/Data_sdc/Patches/MultiPatches/image_list/train_list/Combine_base_Cmul-Asia-beid-cap10-ZheD_list.txt_label.txt
I0522 21:55:20.912896 34682 image_data_layer.cpp:53] Shuffling data
I0522 21:55:21.336107 34682 image_data_layer.cpp:63] A total of 2075438 images.
I0522 21:55:21.338205 34682 image_data_layer.cpp:90] output data size: 64,3,112,96
I0522 21:55:21.370313 34682 net.cpp:122] Setting up data
I0522 21:55:21.370365 34682 net.cpp:129] Top shape: 64 3 112 96 (2064384)
I0522 21:55:21.370373 34682 net.cpp:129] Top shape: 64 (64)
I0522 21:55:21.370375 34682 net.cpp:137] Memory required for data: 8257792
I0522 21:55:21.370383 34682 layer_factory.hpp:77] Creating layer label_data_1_split
I0522 21:55:21.370419 34682 net.cpp:84] Creating Layer label_data_1_split
I0522 21:55:21.370427 34682 net.cpp:406] label_data_1_split <- label
I0522 21:55:21.370455 34682 net.cpp:380] label_data_1_split -> label_data_1_split_0
I0522 21:55:21.370470 34682 net.cpp:380] label_data_1_split -> label_data_1_split_1
I0522 21:55:21.370550 34682 net.cpp:122] Setting up label_data_1_split
I0522 21:55:21.370559 34682 net.cpp:129] Top shape: 64 (64)
I0522 21:55:21.370564 34682 net.cpp:129] Top shape: 64 (64)
I0522 21:55:21.370568 34682 net.cpp:137] Memory required for data: 8258304
I0522 21:55:21.370570 34682 layer_factory.hpp:77] Creating layer conv1_1
I0522 21:55:21.370595 34682 net.cpp:84] Creating Layer conv1_1
I0522 21:55:21.370601 34682 net.cpp:406] conv1_1 <- data
I0522 21:55:21.370609 34682 net.cpp:380] conv1_1 -> conv1_1
I0522 21:55:21.943423 34682 net.cpp:122] Setting up conv1_1
I0522 21:55:21.943460 34682 net.cpp:129] Top shape: 64 24 56 48 (4128768)
I0522 21:55:21.943466 34682 net.cpp:137] Memory required for data: 24773376
I0522 21:55:21.943490 34682 layer_factory.hpp:77] Creating layer relu1_1
I0522 21:55:21.943511 34682 net.cpp:84] Creating Layer relu1_1
I0522 21:55:21.943516 34682 net.cpp:406] relu1_1 <- conv1_1
I0522 21:55:21.943523 34682 net.cpp:367] relu1_1 -> conv1_1 (in-place)
I0522 21:55:21.944955 34682 net.cpp:122] Setting up relu1_1
I0522 21:55:21.944972 34682 net.cpp:129] Top shape: 64 24 56 48 (4128768)
I0522 21:55:21.944977 34682 net.cpp:137] Memory required for data: 41288448
I0522 21:55:21.945000 34682 layer_factory.hpp:77] Creating layer conv1_1_relu1_1_0_split
I0522 21:55:21.945013 34682 net.cpp:84] Creating Layer conv1_1_relu1_1_0_split
I0522 21:55:21.945017 34682 net.cpp:406] conv1_1_relu1_1_0_split <- conv1_1
I0522 21:55:21.945024 34682 net.cpp:380] conv1_1_relu1_1_0_split -> conv1_1_relu1_1_0_split_0
I0522 21:55:21.945034 34682 net.cpp:380] conv1_1_relu1_1_0_split -> conv1_1_relu1_1_0_split_1
I0522 21:55:21.945078 34682 net.cpp:122] Setting up conv1_1_relu1_1_0_split
I0522 21:55:21.945085 34682 net.cpp:129] Top shape: 64 24 56 48 (4128768)
I0522 21:55:21.945089 34682 net.cpp:129] Top shape: 64 24 56 48 (4128768)
I0522 21:55:21.945092 34682 net.cpp:137] Memory required for data: 74318592
I0522 21:55:21.945096 34682 layer_factory.hpp:77] Creating layer conv1_3
I0522 21:55:21.945111 34682 net.cpp:84] Creating Layer conv1_3
I0522 21:55:21.945116 34682 net.cpp:406] conv1_3 <- conv1_1_relu1_1_0_split_0
I0522 21:55:21.945121 34682 net.cpp:380] conv1_3 -> conv1_3
I0522 21:55:21.947865 34682 net.cpp:122] Setting up conv1_3
I0522 21:55:21.947880 34682 net.cpp:129] Top shape: 64 24 56 48 (4128768)
I0522 21:55:21.947885 34682 net.cpp:137] Memory required for data: 90833664
I0522 21:55:21.947911 34682 layer_factory.hpp:77] Creating layer relu1_3
I0522 21:55:21.947934 34682 net.cpp:84] Creating Layer relu1_3
I0522 21:55:21.947940 34682 net.cpp:406] relu1_3 <- conv1_3
I0522 21:55:21.947947 34682 net.cpp:367] relu1_3 -> conv1_3 (in-place)
I0522 21:55:21.948081 34682 net.cpp:122] Setting up relu1_3
I0522 21:55:21.948088 34682 net.cpp:129] Top shape: 64 24 56 48 (4128768)
I0522 21:55:21.948092 34682 net.cpp:137] Memory required for data: 107348736
I0522 21:55:21.948097 34682 layer_factory.hpp:77] Creating layer res1_3
I0522 21:55:21.948104 34682 net.cpp:84] Creating Layer res1_3
I0522 21:55:21.948108 34682 net.cpp:406] res1_3 <- conv1_1_relu1_1_0_split_1
I0522 21:55:21.948112 34682 net.cpp:406] res1_3 <- conv1_3
I0522 21:55:21.948117 34682 net.cpp:380] res1_3 -> res1_3
I0522 21:55:21.948145 34682 net.cpp:122] Setting up res1_3
I0522 21:55:21.948168 34682 net.cpp:129] Top shape: 64 24 56 48 (4128768)
I0522 21:55:21.948173 34682 net.cpp:137] Memory required for data: 123863808
I0522 21:55:21.948177 34682 layer_factory.hpp:77] Creating layer res1_3_res1_3_0_split
I0522 21:55:21.948184 34682 net.cpp:84] Creating Layer res1_3_res1_3_0_split
I0522 21:55:21.948187 34682 net.cpp:406] res1_3_res1_3_0_split <- res1_3
I0522 21:55:21.948192 34682 net.cpp:380] res1_3_res1_3_0_split -> res1_3_res1_3_0_split_0
I0522 21:55:21.948199 34682 net.cpp:380] res1_3_res1_3_0_split -> res1_3_res1_3_0_split_1
I0522 21:55:21.948235 34682 net.cpp:122] Setting up res1_3_res1_3_0_split
I0522 21:55:21.948241 34682 net.cpp:129] Top shape: 64 24 56 48 (4128768)
I0522 21:55:21.948246 34682 net.cpp:129] Top shape: 64 24 56 48 (4128768)
I0522 21:55:21.948248 34682 net.cpp:137] Memory required for data: 156893952
I0522 21:55:21.948253 34682 layer_factory.hpp:77] Creating layer res1_3_reduce
I0522 21:55:21.948266 34682 net.cpp:84] Creating Layer res1_3_reduce
I0522 21:55:21.948271 34682 net.cpp:406] res1_3_reduce <- res1_3_res1_3_0_split_0
I0522 21:55:21.948276 34682 net.cpp:380] res1_3_reduce -> res1_3_reduce
I0522 21:55:21.949021 34682 net.cpp:122] Setting up res1_3_reduce
I0522 21:55:21.949034 34682 net.cpp:129] Top shape: 64 48 56 48 (8257536)
I0522 21:55:21.949039 34682 net.cpp:137] Memory required for data: 189924096
I0522 21:55:21.949046 34682 layer_factory.hpp:77] Creating layer pool1
I0522 21:55:21.949057 34682 net.cpp:84] Creating Layer pool1
I0522 21:55:21.949064 34682 net.cpp:406] pool1 <- res1_3_reduce
I0522 21:55:21.949069 34682 net.cpp:380] pool1 -> pool1
I0522 21:55:21.949121 34682 net.cpp:122] Setting up pool1
I0522 21:55:21.949128 34682 net.cpp:129] Top shape: 64 48 28 24 (2064384)
I0522 21:55:21.949132 34682 net.cpp:137] Memory required for data: 198181632
I0522 21:55:21.949136 34682 layer_factory.hpp:77] Creating layer conv2_1
I0522 21:55:21.949146 34682 net.cpp:84] Creating Layer conv2_1
I0522 21:55:21.949151 34682 net.cpp:406] conv2_1 <- res1_3_res1_3_0_split_1
I0522 21:55:21.949156 34682 net.cpp:380] conv2_1 -> conv2_1
I0522 21:55:21.950565 34682 net.cpp:122] Setting up conv2_1
I0522 21:55:21.950582 34682 net.cpp:129] Top shape: 64 48 28 24 (2064384)
I0522 21:55:21.950587 34682 net.cpp:137] Memory required for data: 206439168
I0522 21:55:21.950600 34682 layer_factory.hpp:77] Creating layer relu2_1
I0522 21:55:21.950609 34682 net.cpp:84] Creating Layer relu2_1
I0522 21:55:21.950614 34682 net.cpp:406] relu2_1 <- conv2_1
I0522 21:55:21.950623 34682 net.cpp:367] relu2_1 -> conv2_1 (in-place)
I0522 21:55:21.950757 34682 net.cpp:122] Setting up relu2_1
I0522 21:55:21.950767 34682 net.cpp:129] Top shape: 64 48 28 24 (2064384)
I0522 21:55:21.950769 34682 net.cpp:137] Memory required for data: 214696704
I0522 21:55:21.950774 34682 layer_factory.hpp:77] Creating layer res1_3_p
I0522 21:55:21.950780 34682 net.cpp:84] Creating Layer res1_3_p
I0522 21:55:21.950785 34682 net.cpp:406] res1_3_p <- pool1
I0522 21:55:21.950790 34682 net.cpp:406] res1_3_p <- conv2_1
I0522 21:55:21.950795 34682 net.cpp:380] res1_3_p -> res1_3_p
I0522 21:55:21.950820 34682 net.cpp:122] Setting up res1_3_p
I0522 21:55:21.950826 34682 net.cpp:129] Top shape: 64 48 28 24 (2064384)
I0522 21:55:21.950830 34682 net.cpp:137] Memory required for data: 222954240
I0522 21:55:21.950834 34682 layer_factory.hpp:77] Creating layer res1_3_p_res1_3_p_0_split
I0522 21:55:21.950839 34682 net.cpp:84] Creating Layer res1_3_p_res1_3_p_0_split
I0522 21:55:21.950841 34682 net.cpp:406] res1_3_p_res1_3_p_0_split <- res1_3_p
I0522 21:55:21.950846 34682 net.cpp:380] res1_3_p_res1_3_p_0_split -> res1_3_p_res1_3_p_0_split_0
I0522 21:55:21.950852 34682 net.cpp:380] res1_3_p_res1_3_p_0_split -> res1_3_p_res1_3_p_0_split_1
I0522 21:55:21.950884 34682 net.cpp:122] Setting up res1_3_p_res1_3_p_0_split
I0522 21:55:21.950891 34682 net.cpp:129] Top shape: 64 48 28 24 (2064384)
I0522 21:55:21.950896 34682 net.cpp:129] Top shape: 64 48 28 24 (2064384)
I0522 21:55:21.950898 34682 net.cpp:137] Memory required for data: 239469312
I0522 21:55:21.950913 34682 layer_factory.hpp:77] Creating layer conv2_3
I0522 21:55:21.950927 34682 net.cpp:84] Creating Layer conv2_3
I0522 21:55:21.950932 34682 net.cpp:406] conv2_3 <- res1_3_p_res1_3_p_0_split_0
I0522 21:55:21.950937 34682 net.cpp:380] conv2_3 -> conv2_3
I0522 21:55:21.952546 34682 net.cpp:122] Setting up conv2_3
I0522 21:55:21.952561 34682 net.cpp:129] Top shape: 64 48 28 24 (2064384)
I0522 21:55:21.952582 34682 net.cpp:137] Memory required for data: 247726848
I0522 21:55:21.952590 34682 layer_factory.hpp:77] Creating layer relu2_3
I0522 21:55:21.952600 34682 net.cpp:84] Creating Layer relu2_3
I0522 21:55:21.952605 34682 net.cpp:406] relu2_3 <- conv2_3
I0522 21:55:21.952613 34682 net.cpp:367] relu2_3 -> conv2_3 (in-place)
I0522 21:55:21.952734 34682 net.cpp:122] Setting up relu2_3
I0522 21:55:21.952742 34682 net.cpp:129] Top shape: 64 48 28 24 (2064384)
I0522 21:55:21.952746 34682 net.cpp:137] Memory required for data: 255984384
I0522 21:55:21.952751 34682 layer_factory.hpp:77] Creating layer res2_3
I0522 21:55:21.952759 34682 net.cpp:84] Creating Layer res2_3
I0522 21:55:21.952764 34682 net.cpp:406] res2_3 <- res1_3_p_res1_3_p_0_split_1
I0522 21:55:21.952769 34682 net.cpp:406] res2_3 <- conv2_3
I0522 21:55:21.952775 34682 net.cpp:380] res2_3 -> res2_3
I0522 21:55:21.952800 34682 net.cpp:122] Setting up res2_3
I0522 21:55:21.952807 34682 net.cpp:129] Top shape: 64 48 28 24 (2064384)
I0522 21:55:21.952811 34682 net.cpp:137] Memory required for data: 264241920
I0522 21:55:21.952813 34682 layer_factory.hpp:77] Creating layer res2_3_res2_3_0_split
I0522 21:55:21.952819 34682 net.cpp:84] Creating Layer res2_3_res2_3_0_split
I0522 21:55:21.952822 34682 net.cpp:406] res2_3_res2_3_0_split <- res2_3
I0522 21:55:21.952827 34682 net.cpp:380] res2_3_res2_3_0_split -> res2_3_res2_3_0_split_0
I0522 21:55:21.952833 34682 net.cpp:380] res2_3_res2_3_0_split -> res2_3_res2_3_0_split_1
I0522 21:55:21.952867 34682 net.cpp:122] Setting up res2_3_res2_3_0_split
I0522 21:55:21.952873 34682 net.cpp:129] Top shape: 64 48 28 24 (2064384)
I0522 21:55:21.952878 34682 net.cpp:129] Top shape: 64 48 28 24 (2064384)
I0522 21:55:21.952881 34682 net.cpp:137] Memory required for data: 280756992
I0522 21:55:21.952886 34682 layer_factory.hpp:77] Creating layer conv2_5
I0522 21:55:21.952898 34682 net.cpp:84] Creating Layer conv2_5
I0522 21:55:21.952903 34682 net.cpp:406] conv2_5 <- res2_3_res2_3_0_split_0
I0522 21:55:21.952911 34682 net.cpp:380] conv2_5 -> conv2_5
I0522 21:55:21.954268 34682 net.cpp:122] Setting up conv2_5
I0522 21:55:21.954283 34682 net.cpp:129] Top shape: 64 48 28 24 (2064384)
I0522 21:55:21.954289 34682 net.cpp:137] Memory required for data: 289014528
I0522 21:55:21.954296 34682 layer_factory.hpp:77] Creating layer relu2_5
I0522 21:55:21.954304 34682 net.cpp:84] Creating Layer relu2_5
I0522 21:55:21.954310 34682 net.cpp:406] relu2_5 <- conv2_5
I0522 21:55:21.954315 34682 net.cpp:367] relu2_5 -> conv2_5 (in-place)
I0522 21:55:21.954425 34682 net.cpp:122] Setting up relu2_5
I0522 21:55:21.954433 34682 net.cpp:129] Top shape: 64 48 28 24 (2064384)
I0522 21:55:21.954437 34682 net.cpp:137] Memory required for data: 297272064
I0522 21:55:21.954445 34682 layer_factory.hpp:77] Creating layer res2_5
I0522 21:55:21.954452 34682 net.cpp:84] Creating Layer res2_5
I0522 21:55:21.954457 34682 net.cpp:406] res2_5 <- res2_3_res2_3_0_split_1
I0522 21:55:21.954463 34682 net.cpp:406] res2_5 <- conv2_5
I0522 21:55:21.954468 34682 net.cpp:380] res2_5 -> res2_5
I0522 21:55:21.954490 34682 net.cpp:122] Setting up res2_5
I0522 21:55:21.954497 34682 net.cpp:129] Top shape: 64 48 28 24 (2064384)
I0522 21:55:21.954500 34682 net.cpp:137] Memory required for data: 305529600
I0522 21:55:21.954504 34682 layer_factory.hpp:77] Creating layer res2_5_res2_5_0_split
I0522 21:55:21.954509 34682 net.cpp:84] Creating Layer res2_5_res2_5_0_split
I0522 21:55:21.954512 34682 net.cpp:406] res2_5_res2_5_0_split <- res2_5
I0522 21:55:21.954517 34682 net.cpp:380] res2_5_res2_5_0_split -> res2_5_res2_5_0_split_0
I0522 21:55:21.954524 34682 net.cpp:380] res2_5_res2_5_0_split -> res2_5_res2_5_0_split_1
I0522 21:55:21.954568 34682 net.cpp:122] Setting up res2_5_res2_5_0_split
I0522 21:55:21.954576 34682 net.cpp:129] Top shape: 64 48 28 24 (2064384)
I0522 21:55:21.954581 34682 net.cpp:129] Top shape: 64 48 28 24 (2064384)
I0522 21:55:21.954583 34682 net.cpp:137] Memory required for data: 322044672
I0522 21:55:21.954588 34682 layer_factory.hpp:77] Creating layer res2_5_reduce
I0522 21:55:21.954601 34682 net.cpp:84] Creating Layer res2_5_reduce
I0522 21:55:21.954605 34682 net.cpp:406] res2_5_reduce <- res2_5_res2_5_0_split_0
I0522 21:55:21.954612 34682 net.cpp:380] res2_5_reduce -> res2_5_reduce
I0522 21:55:21.955718 34682 net.cpp:122] Setting up res2_5_reduce
I0522 21:55:21.955734 34682 net.cpp:129] Top shape: 64 72 28 24 (3096576)
I0522 21:55:21.955740 34682 net.cpp:137] Memory required for data: 334430976
I0522 21:55:21.955747 34682 layer_factory.hpp:77] Creating layer pool2
I0522 21:55:21.955756 34682 net.cpp:84] Creating Layer pool2
I0522 21:55:21.955762 34682 net.cpp:406] pool2 <- res2_5_reduce
I0522 21:55:21.955767 34682 net.cpp:380] pool2 -> pool2
I0522 21:55:21.955807 34682 net.cpp:122] Setting up pool2
I0522 21:55:21.955814 34682 net.cpp:129] Top shape: 64 72 14 12 (774144)
I0522 21:55:21.955818 34682 net.cpp:137] Memory required for data: 337527552
I0522 21:55:21.955821 34682 layer_factory.hpp:77] Creating layer conv3_1
I0522 21:55:21.955838 34682 net.cpp:84] Creating Layer conv3_1
I0522 21:55:21.955843 34682 net.cpp:406] conv3_1 <- res2_5_res2_5_0_split_1
I0522 21:55:21.955848 34682 net.cpp:380] conv3_1 -> conv3_1
I0522 21:55:21.957392 34682 net.cpp:122] Setting up conv3_1
I0522 21:55:21.957407 34682 net.cpp:129] Top shape: 64 72 14 12 (774144)
I0522 21:55:21.957412 34682 net.cpp:137] Memory required for data: 340624128
I0522 21:55:21.957437 34682 layer_factory.hpp:77] Creating layer relu3_1
I0522 21:55:21.957446 34682 net.cpp:84] Creating Layer relu3_1
I0522 21:55:21.957451 34682 net.cpp:406] relu3_1 <- conv3_1
I0522 21:55:21.957458 34682 net.cpp:367] relu3_1 -> conv3_1 (in-place)
I0522 21:55:21.957556 34682 net.cpp:122] Setting up relu3_1
I0522 21:55:21.957564 34682 net.cpp:129] Top shape: 64 72 14 12 (774144)
I0522 21:55:21.957567 34682 net.cpp:137] Memory required for data: 343720704
I0522 21:55:21.957573 34682 layer_factory.hpp:77] Creating layer res2_5_p
I0522 21:55:21.957581 34682 net.cpp:84] Creating Layer res2_5_p
I0522 21:55:21.957586 34682 net.cpp:406] res2_5_p <- pool2
I0522 21:55:21.957589 34682 net.cpp:406] res2_5_p <- conv3_1
I0522 21:55:21.957595 34682 net.cpp:380] res2_5_p -> res2_5_p
I0522 21:55:21.957619 34682 net.cpp:122] Setting up res2_5_p
I0522 21:55:21.957626 34682 net.cpp:129] Top shape: 64 72 14 12 (774144)
I0522 21:55:21.957629 34682 net.cpp:137] Memory required for data: 346817280
I0522 21:55:21.957633 34682 layer_factory.hpp:77] Creating layer res2_5_p_res2_5_p_0_split
I0522 21:55:21.957638 34682 net.cpp:84] Creating Layer res2_5_p_res2_5_p_0_split
I0522 21:55:21.957641 34682 net.cpp:406] res2_5_p_res2_5_p_0_split <- res2_5_p
I0522 21:55:21.957646 34682 net.cpp:380] res2_5_p_res2_5_p_0_split -> res2_5_p_res2_5_p_0_split_0
I0522 21:55:21.957653 34682 net.cpp:380] res2_5_p_res2_5_p_0_split -> res2_5_p_res2_5_p_0_split_1
I0522 21:55:21.957684 34682 net.cpp:122] Setting up res2_5_p_res2_5_p_0_split
I0522 21:55:21.957690 34682 net.cpp:129] Top shape: 64 72 14 12 (774144)
I0522 21:55:21.957695 34682 net.cpp:129] Top shape: 64 72 14 12 (774144)
I0522 21:55:21.957697 34682 net.cpp:137] Memory required for data: 353010432
I0522 21:55:21.957701 34682 layer_factory.hpp:77] Creating layer conv3_3
I0522 21:55:21.957712 34682 net.cpp:84] Creating Layer conv3_3
I0522 21:55:21.957717 34682 net.cpp:406] conv3_3 <- res2_5_p_res2_5_p_0_split_0
I0522 21:55:21.957723 34682 net.cpp:380] conv3_3 -> conv3_3
I0522 21:55:21.959717 34682 net.cpp:122] Setting up conv3_3
I0522 21:55:21.959733 34682 net.cpp:129] Top shape: 64 72 14 12 (774144)
I0522 21:55:21.959738 34682 net.cpp:137] Memory required for data: 356107008
I0522 21:55:21.959744 34682 layer_factory.hpp:77] Creating layer relu3_3
I0522 21:55:21.959764 34682 net.cpp:84] Creating Layer relu3_3
I0522 21:55:21.959770 34682 net.cpp:406] relu3_3 <- conv3_3
I0522 21:55:21.959776 34682 net.cpp:367] relu3_3 -> conv3_3 (in-place)
I0522 21:55:21.959880 34682 net.cpp:122] Setting up relu3_3
I0522 21:55:21.959888 34682 net.cpp:129] Top shape: 64 72 14 12 (774144)
I0522 21:55:21.959892 34682 net.cpp:137] Memory required for data: 359203584
I0522 21:55:21.959897 34682 layer_factory.hpp:77] Creating layer res3_3
I0522 21:55:21.959903 34682 net.cpp:84] Creating Layer res3_3
I0522 21:55:21.959906 34682 net.cpp:406] res3_3 <- res2_5_p_res2_5_p_0_split_1
I0522 21:55:21.959911 34682 net.cpp:406] res3_3 <- conv3_3
I0522 21:55:21.959916 34682 net.cpp:380] res3_3 -> res3_3
I0522 21:55:21.959941 34682 net.cpp:122] Setting up res3_3
I0522 21:55:21.959949 34682 net.cpp:129] Top shape: 64 72 14 12 (774144)
I0522 21:55:21.959952 34682 net.cpp:137] Memory required for data: 362300160
I0522 21:55:21.959955 34682 layer_factory.hpp:77] Creating layer res3_3_res3_3_0_split
I0522 21:55:21.959964 34682 net.cpp:84] Creating Layer res3_3_res3_3_0_split
I0522 21:55:21.959967 34682 net.cpp:406] res3_3_res3_3_0_split <- res3_3
I0522 21:55:21.959972 34682 net.cpp:380] res3_3_res3_3_0_split -> res3_3_res3_3_0_split_0
I0522 21:55:21.959978 34682 net.cpp:380] res3_3_res3_3_0_split -> res3_3_res3_3_0_split_1
I0522 21:55:21.960023 34682 net.cpp:122] Setting up res3_3_res3_3_0_split
I0522 21:55:21.960029 34682 net.cpp:129] Top shape: 64 72 14 12 (774144)
I0522 21:55:21.960034 34682 net.cpp:129] Top shape: 64 72 14 12 (774144)
I0522 21:55:21.960036 34682 net.cpp:137] Memory required for data: 368493312
I0522 21:55:21.960042 34682 layer_factory.hpp:77] Creating layer conv3_5
I0522 21:55:21.960052 34682 net.cpp:84] Creating Layer conv3_5
I0522 21:55:21.960057 34682 net.cpp:406] conv3_5 <- res3_3_res3_3_0_split_0
I0522 21:55:21.960062 34682 net.cpp:380] conv3_5 -> conv3_5
I0522 21:55:21.962051 34682 net.cpp:122] Setting up conv3_5
I0522 21:55:21.962067 34682 net.cpp:129] Top shape: 64 72 14 12 (774144)
I0522 21:55:21.962074 34682 net.cpp:137] Memory required for data: 371589888
I0522 21:55:21.962080 34682 layer_factory.hpp:77] Creating layer relu3_5
I0522 21:55:21.962090 34682 net.cpp:84] Creating Layer relu3_5
I0522 21:55:21.962095 34682 net.cpp:406] relu3_5 <- conv3_5
I0522 21:55:21.962100 34682 net.cpp:367] relu3_5 -> conv3_5 (in-place)
I0522 21:55:21.962216 34682 net.cpp:122] Setting up relu3_5
I0522 21:55:21.962224 34682 net.cpp:129] Top shape: 64 72 14 12 (774144)
I0522 21:55:21.962227 34682 net.cpp:137] Memory required for data: 374686464
I0522 21:55:21.962231 34682 layer_factory.hpp:77] Creating layer res3_5
I0522 21:55:21.962239 34682 net.cpp:84] Creating Layer res3_5
I0522 21:55:21.962242 34682 net.cpp:406] res3_5 <- res3_3_res3_3_0_split_1
I0522 21:55:21.962246 34682 net.cpp:406] res3_5 <- conv3_5
I0522 21:55:21.962251 34682 net.cpp:380] res3_5 -> res3_5
I0522 21:55:21.962273 34682 net.cpp:122] Setting up res3_5
I0522 21:55:21.962280 34682 net.cpp:129] Top shape: 64 72 14 12 (774144)
I0522 21:55:21.962283 34682 net.cpp:137] Memory required for data: 377783040
I0522 21:55:21.962286 34682 layer_factory.hpp:77] Creating layer res3_5_res3_5_0_split
I0522 21:55:21.962294 34682 net.cpp:84] Creating Layer res3_5_res3_5_0_split
I0522 21:55:21.962299 34682 net.cpp:406] res3_5_res3_5_0_split <- res3_5
I0522 21:55:21.962304 34682 net.cpp:380] res3_5_res3_5_0_split -> res3_5_res3_5_0_split_0
I0522 21:55:21.962311 34682 net.cpp:380] res3_5_res3_5_0_split -> res3_5_res3_5_0_split_1
I0522 21:55:21.962340 34682 net.cpp:122] Setting up res3_5_res3_5_0_split
I0522 21:55:21.962347 34682 net.cpp:129] Top shape: 64 72 14 12 (774144)
I0522 21:55:21.962350 34682 net.cpp:129] Top shape: 64 72 14 12 (774144)
I0522 21:55:21.962353 34682 net.cpp:137] Memory required for data: 383976192
I0522 21:55:21.962357 34682 layer_factory.hpp:77] Creating layer res3_5_reduce
I0522 21:55:21.962366 34682 net.cpp:84] Creating Layer res3_5_reduce
I0522 21:55:21.962371 34682 net.cpp:406] res3_5_reduce <- res3_5_res3_5_0_split_0
I0522 21:55:21.962388 34682 net.cpp:380] res3_5_reduce -> res3_5_reduce
I0522 21:55:21.963620 34682 net.cpp:122] Setting up res3_5_reduce
I0522 21:55:21.963636 34682 net.cpp:129] Top shape: 64 144 14 12 (1548288)
I0522 21:55:21.963640 34682 net.cpp:137] Memory required for data: 390169344
I0522 21:55:21.963647 34682 layer_factory.hpp:77] Creating layer pool3
I0522 21:55:21.963656 34682 net.cpp:84] Creating Layer pool3
I0522 21:55:21.963661 34682 net.cpp:406] pool3 <- res3_5_reduce
I0522 21:55:21.963667 34682 net.cpp:380] pool3 -> pool3
I0522 21:55:21.963706 34682 net.cpp:122] Setting up pool3
I0522 21:55:21.963713 34682 net.cpp:129] Top shape: 64 144 7 6 (387072)
I0522 21:55:21.963716 34682 net.cpp:137] Memory required for data: 391717632
I0522 21:55:21.963719 34682 layer_factory.hpp:77] Creating layer conv4_1
I0522 21:55:21.963728 34682 net.cpp:84] Creating Layer conv4_1
I0522 21:55:21.963733 34682 net.cpp:406] conv4_1 <- res3_5_res3_5_0_split_1
I0522 21:55:21.963739 34682 net.cpp:380] conv4_1 -> conv4_1
I0522 21:55:21.966558 34682 net.cpp:122] Setting up conv4_1
I0522 21:55:21.966573 34682 net.cpp:129] Top shape: 64 144 7 6 (387072)
I0522 21:55:21.966589 34682 net.cpp:137] Memory required for data: 393265920
I0522 21:55:21.966598 34682 layer_factory.hpp:77] Creating layer relu4_1
I0522 21:55:21.966620 34682 net.cpp:84] Creating Layer relu4_1
I0522 21:55:21.966626 34682 net.cpp:406] relu4_1 <- conv4_1
I0522 21:55:21.966631 34682 net.cpp:367] relu4_1 -> conv4_1 (in-place)
I0522 21:55:21.966747 34682 net.cpp:122] Setting up relu4_1
I0522 21:55:21.966755 34682 net.cpp:129] Top shape: 64 144 7 6 (387072)
I0522 21:55:21.966759 34682 net.cpp:137] Memory required for data: 394814208
I0522 21:55:21.966769 34682 layer_factory.hpp:77] Creating layer res3_5_p
I0522 21:55:21.966776 34682 net.cpp:84] Creating Layer res3_5_p
I0522 21:55:21.966780 34682 net.cpp:406] res3_5_p <- pool3
I0522 21:55:21.966785 34682 net.cpp:406] res3_5_p <- conv4_1
I0522 21:55:21.966790 34682 net.cpp:380] res3_5_p -> res3_5_p
I0522 21:55:21.966814 34682 net.cpp:122] Setting up res3_5_p
I0522 21:55:21.966821 34682 net.cpp:129] Top shape: 64 144 7 6 (387072)
I0522 21:55:21.966825 34682 net.cpp:137] Memory required for data: 396362496
I0522 21:55:21.966828 34682 layer_factory.hpp:77] Creating layer res3_5_p_res3_5_p_0_split
I0522 21:55:21.966835 34682 net.cpp:84] Creating Layer res3_5_p_res3_5_p_0_split
I0522 21:55:21.966837 34682 net.cpp:406] res3_5_p_res3_5_p_0_split <- res3_5_p
I0522 21:55:21.966842 34682 net.cpp:380] res3_5_p_res3_5_p_0_split -> res3_5_p_res3_5_p_0_split_0
I0522 21:55:21.966848 34682 net.cpp:380] res3_5_p_res3_5_p_0_split -> res3_5_p_res3_5_p_0_split_1
I0522 21:55:21.966881 34682 net.cpp:122] Setting up res3_5_p_res3_5_p_0_split
I0522 21:55:21.966887 34682 net.cpp:129] Top shape: 64 144 7 6 (387072)
I0522 21:55:21.966892 34682 net.cpp:129] Top shape: 64 144 7 6 (387072)
I0522 21:55:21.966894 34682 net.cpp:137] Memory required for data: 399459072
I0522 21:55:21.966897 34682 layer_factory.hpp:77] Creating layer conv4_3
I0522 21:55:21.966908 34682 net.cpp:84] Creating Layer conv4_3
I0522 21:55:21.966913 34682 net.cpp:406] conv4_3 <- res3_5_p_res3_5_p_0_split_0
I0522 21:55:21.966919 34682 net.cpp:380] conv4_3 -> conv4_3
I0522 21:55:21.970394 34682 net.cpp:122] Setting up conv4_3
I0522 21:55:21.970408 34682 net.cpp:129] Top shape: 64 144 7 6 (387072)
I0522 21:55:21.970424 34682 net.cpp:137] Memory required for data: 401007360
I0522 21:55:21.970433 34682 layer_factory.hpp:77] Creating layer relu4_3
I0522 21:55:21.970458 34682 net.cpp:84] Creating Layer relu4_3
I0522 21:55:21.970463 34682 net.cpp:406] relu4_3 <- conv4_3
I0522 21:55:21.970469 34682 net.cpp:367] relu4_3 -> conv4_3 (in-place)
I0522 21:55:21.970569 34682 net.cpp:122] Setting up relu4_3
I0522 21:55:21.970577 34682 net.cpp:129] Top shape: 64 144 7 6 (387072)
I0522 21:55:21.970580 34682 net.cpp:137] Memory required for data: 402555648
I0522 21:55:21.970584 34682 layer_factory.hpp:77] Creating layer res4_3
I0522 21:55:21.970590 34682 net.cpp:84] Creating Layer res4_3
I0522 21:55:21.970607 34682 net.cpp:406] res4_3 <- res3_5_p_res3_5_p_0_split_1
I0522 21:55:21.970613 34682 net.cpp:406] res4_3 <- conv4_3
I0522 21:55:21.970618 34682 net.cpp:380] res4_3 -> res4_3
I0522 21:55:21.970643 34682 net.cpp:122] Setting up res4_3
I0522 21:55:21.970649 34682 net.cpp:129] Top shape: 64 144 7 6 (387072)
I0522 21:55:21.970652 34682 net.cpp:137] Memory required for data: 404103936
I0522 21:55:21.970655 34682 layer_factory.hpp:77] Creating layer fc5
I0522 21:55:21.970664 34682 net.cpp:84] Creating Layer fc5
I0522 21:55:21.970667 34682 net.cpp:406] fc5 <- res4_3
I0522 21:55:21.970674 34682 net.cpp:380] fc5 -> fc5
I0522 21:55:21.982486 34682 net.cpp:122] Setting up fc5
I0522 21:55:21.982502 34682 net.cpp:129] Top shape: 64 256 (16384)
I0522 21:55:21.982506 34682 net.cpp:137] Memory required for data: 404169472
I0522 21:55:21.982530 34682 layer_factory.hpp:77] Creating layer fc5_bn
I0522 21:55:21.982558 34682 net.cpp:84] Creating Layer fc5_bn
I0522 21:55:21.982578 34682 net.cpp:406] fc5_bn <- fc5
I0522 21:55:21.982585 34682 net.cpp:367] fc5_bn -> fc5 (in-place)
I0522 21:55:21.982774 34682 net.cpp:122] Setting up fc5_bn
I0522 21:55:21.982782 34682 net.cpp:129] Top shape: 64 256 (16384)
I0522 21:55:21.982791 34682 net.cpp:137] Memory required for data: 404235008
I0522 21:55:21.982798 34682 layer_factory.hpp:77] Creating layer norm1
I0522 21:55:21.982810 34682 net.cpp:84] Creating Layer norm1
I0522 21:55:21.982815 34682 net.cpp:406] norm1 <- fc5
I0522 21:55:21.982821 34682 net.cpp:380] norm1 -> norm1
I0522 21:55:21.982872 34682 net.cpp:122] Setting up norm1
I0522 21:55:21.982878 34682 net.cpp:129] Top shape: 64 256 1 1 (16384)
I0522 21:55:21.982882 34682 net.cpp:137] Memory required for data: 404300544
I0522 21:55:21.982884 34682 layer_factory.hpp:77] Creating layer fc-6_l2
I0522 21:55:21.982892 34682 net.cpp:84] Creating Layer fc-6_l2
I0522 21:55:21.982897 34682 net.cpp:406] fc-6_l2 <- norm1
I0522 21:55:21.982903 34682 net.cpp:380] fc-6_l2 -> fc-6_l2
I0522 21:55:22.094566 34682 net.cpp:122] Setting up fc-6_l2
I0522 21:55:22.094606 34682 net.cpp:129] Top shape: 64 54547 (3491008)
I0522 21:55:22.094614 34682 net.cpp:137] Memory required for data: 418264576
I0522 21:55:22.094625 34682 layer_factory.hpp:77] Creating layer fc-6_margin
I0522 21:55:22.094656 34682 net.cpp:84] Creating Layer fc-6_margin
I0522 21:55:22.094722 34682 net.cpp:406] fc-6_margin <- fc-6_l2
I0522 21:55:22.094738 34682 net.cpp:406] fc-6_margin <- label_data_1_split_0
I0522 21:55:22.094782 34682 net.cpp:380] fc-6_margin -> fc-6_margin
I0522 21:55:22.094837 34682 net.cpp:122] Setting up fc-6_margin
I0522 21:55:22.094848 34682 net.cpp:129] Top shape: 64 54547 (3491008)
I0522 21:55:22.094853 34682 net.cpp:137] Memory required for data: 432228608
I0522 21:55:22.094888 34682 layer_factory.hpp:77] Creating layer fc-6_margin_scale
I0522 21:55:22.094905 34682 net.cpp:84] Creating Layer fc-6_margin_scale
I0522 21:55:22.094913 34682 net.cpp:406] fc-6_margin_scale <- fc-6_margin
I0522 21:55:22.094923 34682 net.cpp:380] fc-6_margin_scale -> fc-6_margin_scale
I0522 21:55:22.095104 34682 net.cpp:122] Setting up fc-6_margin_scale
I0522 21:55:22.095115 34682 net.cpp:129] Top shape: 64 54547 (3491008)
I0522 21:55:22.095120 34682 net.cpp:137] Memory required for data: 446192640
I0522 21:55:22.095140 34682 layer_factory.hpp:77] Creating layer softmax_loss
I0522 21:55:22.095152 34682 net.cpp:84] Creating Layer softmax_loss
I0522 21:55:22.095160 34682 net.cpp:406] softmax_loss <- fc-6_margin_scale
I0522 21:55:22.095175 34682 net.cpp:406] softmax_loss <- label_data_1_split_1
I0522 21:55:22.095187 34682 net.cpp:380] softmax_loss -> softmax_loss
…
