…
I0522 21:55:25.150984 34819 solver.cpp:102] Creating training net from net file: models/AMlmdbCdata/AMlmdbCdata-b0.35s30_fc_0.35_112x96_b+FaceAdd+encode_faceNet-20-light2s4-bn/train.prototxt
I0522 21:55:25.152549 34819 net.cpp:51] Initializing net from parameters: 
name: "2018-05-22_AMlmdbCdata-b0.35s30_fc_0.35_112x96_b+FaceAdd+encode_faceNet-20-light2s4-bn_zkx_train"
state {
  phase: TRAIN
  level: 0
  stage: ""
}
layer {
  name: "data"
  type: "Data"
  top: "data"
  top: "label"
  data_param {
    source: "/home/zkx/Data_sdb/TrainData/Data_sdc/Patches/lmdb/fc_0.35_112x96_base_ZheD_Cmul-beid_cap10_Asia-train-encode-shufflelmdb"
    batch_size: 64
    backend: LMDB
  }
}
layer {
  name: "conv1_1"
  type: "Convolution"
  bottom: "data"
  top: "conv1_1"
  param {
    lr_mult: 1
    decay_mult: 1
  }
  param {
    lr_mult: 2
    decay_mult: 0
  }
  convolution_param {
    num_output: 24
    pad: 1
    kernel_size: 3
    stride: 2
    weight_filler {
      type: "xavier"
    }
    bias_filler {
      type: "constant"
      value: 0
    }
  }
}
layer {
  name: "relu1_1"
  type: "PReLU"
  bottom: "conv1_1"
  top: "conv1_1"
  prelu_param {
    filler {
      type: "gaussian"
      std: 0.03
    }
  }
}
layer {
  name: "conv1_3"
  type: "Convolution"
  bottom: "conv1_1"
  top: "conv1_3"
  param {
    lr_mult: 1
    decay_mult: 1
  }
  param {
    lr_mult: 0
    decay_mult: 0
  }
  convolution_param {
    num_output: 24
    pad: 1
    kernel_size: 3
    stride: 1
    weight_filler {
      type: "gaussian"
      std: 0.01
    }
    bias_filler {
      type: "constant"
      value: 0
    }
  }
}
layer {
  name: "relu1_3"
  type: "PReLU"
  bottom: "conv1_3"
  top: "conv1_3"
  prelu_param {
    filler {
      type: "gaussian"
      std: 0.03
    }
  }
}
layer {
  name: "res1_3"
  type: "Eltwise"
  bottom: "conv1_1"
  bottom: "conv1_3"
  top: "res1_3"
  eltwise_param {
    operation: SUM
  }
}
layer {
  name: "res1_3_reduce"
  type: "Convolution"
  bottom: "res1_3"
  top: "res1_3_reduce"
  param {
    lr_mult: 1
    decay_mult: 1
  }
  param {
    lr_mult: 0
    decay_mult: 0
  }
  convolution_param {
    num_output: 48
    kernel_size: 1
    stride: 1
    weight_filler {
      type: "gaussian"
      std: 0.01
    }
    bias_filler {
      type: "constant"
      value: 0
    }
  }
}
layer {
  name: "pool1"
  type: "Pooling"
  bottom: "res1_3_reduce"
  top: "pool1"
  pooling_param {
    pool: MAX
    kernel_size: 2
    stride: 2
  }
}
layer {
  name: "conv2_1"
  type: "Convolution"
  bottom: "res1_3"
  top: "conv2_1"
  param {
    lr_mult: 1
    decay_mult: 1
  }
  param {
    lr_mult: 2
    decay_mult: 0
  }
  convolution_param {
    num_output: 48
    pad: 1
    kernel_size: 3
    stride: 2
    weight_filler {
      type: "xavier"
    }
    bias_filler {
      type: "constant"
      value: 0
    }
  }
}
layer {
  name: "relu2_1"
  type: "PReLU"
  bottom: "conv2_1"
  top: "conv2_1"
  prelu_param {
    filler {
      type: "gaussian"
      std: 0.03
    }
  }
}
layer {
  name: "res1_3_p"
  type: "Eltwise"
  bottom: "pool1"
  bottom: "conv2_1"
  top: "res1_3_p"
  eltwise_param {
    operation: SUM
  }
}
layer {
  name: "conv2_3"
  type: "Convolution"
  bottom: "res1_3_p"
  top: "conv2_3"
  param {
    lr_mult: 1
    decay_mult: 1
  }
  param {
    lr_mult: 0
    decay_mult: 0
  }
  convolution_param {
    num_output: 48
    pad: 1
    kernel_size: 3
    stride: 1
    weight_filler {
      type: "gaussian"
      std: 0.01
    }
    bias_filler {
      type: "constant"
      value: 0
    }
  }
}
layer {
  name: "relu2_3"
  type: "PReLU"
  bottom: "conv2_3"
  top: "conv2_3"
  prelu_param {
    filler {
      type: "gaussian"
      std: 0.03
    }
  }
}
layer {
  name: "res2_3"
  type: "Eltwise"
  bottom: "res1_3_p"
  bottom: "conv2_3"
  top: "res2_3"
  eltwise_param {
    operation: SUM
  }
}
layer {
  name: "conv2_5"
  type: "Convolution"
  bottom: "res2_3"
  top: "conv2_5"
  param {
    lr_mult: 1
    decay_mult: 1
  }
  param {
    lr_mult: 0
    decay_mult: 0
  }
  convolution_param {
    num_output: 48
    pad: 1
    kernel_size: 3
    stride: 1
    weight_filler {
      type: "gaussian"
      std: 0.01
    }
    bias_filler {
      type: "constant"
      value: 0
    }
  }
}
layer {
  name: "relu2_5"
  type: "PReLU"
  bottom: "conv2_5"
  top: "conv2_5"
  prelu_param {
    filler {
      type: "gaussian"
      std: 0.03
    }
  }
}
layer {
  name: "res2_5"
  type: "Eltwise"
  bottom: "res2_3"
  bottom: "conv2_5"
  top: "res2_5"
  eltwise_param {
    operation: SUM
  }
}
layer {
  name: "res2_5_reduce"
  type: "Convolution"
  bottom: "res2_5"
  top: "res2_5_reduce"
  param {
    lr_mult: 1
    decay_mult: 1
  }
  param {
    lr_mult: 0
    decay_mult: 0
  }
  convolution_param {
    num_output: 72
    kernel_size: 1
    stride: 1
    weight_filler {
      type: "gaussian"
      std: 0.01
    }
    bias_filler {
      type: "constant"
      value: 0
    }
  }
}
layer {
  name: "pool2"
  type: "Pooling"
  bottom: "res2_5_reduce"
  top: "pool2"
  pooling_param {
    pool: MAX
    kernel_size: 2
    stride: 2
  }
}
layer {
  name: "conv3_1"
  type: "Convolution"
  bottom: "res2_5"
  top: "conv3_1"
  param {
    lr_mult: 1
    decay_mult: 1
  }
  param {
    lr_mult: 2
    decay_mult: 0
  }
  convolution_param {
    num_output: 72
    pad: 1
    kernel_size: 3
    stride: 2
    weight_filler {
      type: "xavier"
    }
    bias_filler {
      type: "constant"
      value: 0
    }
  }
}
layer {
  name: "relu3_1"
  type: "PReLU"
  bottom: "conv3_1"
  top: "conv3_1"
  prelu_param {
    filler {
      type: "gaussian"
      std: 0.03
    }
  }
}
layer {
  name: "res2_5_p"
  type: "Eltwise"
  bottom: "pool2"
  bottom: "conv3_1"
  top: "res2_5_p"
  eltwise_param {
    operation: SUM
  }
}
layer {
  name: "conv3_3"
  type: "Convolution"
  bottom: "res2_5_p"
  top: "conv3_3"
  param {
    lr_mult: 1
    decay_mult: 1
  }
  param {
    lr_mult: 0
    decay_mult: 0
  }
  convolution_param {
    num_output: 72
    pad: 1
    kernel_size: 3
    stride: 1
    weight_filler {
      type: "gaussian"
      std: 0.01
    }
    bias_filler {
      type: "constant"
      value: 0
    }
  }
}
layer {
  name: "relu3_3"
  type: "PReLU"
  bottom: "conv3_3"
  top: "conv3_3"
  prelu_param {
    filler {
      type: "gaussian"
      std: 0.03
    }
  }
}
layer {
  name: "res3_3"
  type: "Eltwise"
  bottom: "res2_5_p"
  bottom: "conv3_3"
  top: "res3_3"
  eltwise_param {
    operation: SUM
  }
}
layer {
  name: "conv3_5"
  type: "Convolution"
  bottom: "res3_3"
  top: "conv3_5"
  param {
    lr_mult: 1
    decay_mult: 1
  }
  param {
    lr_mult: 0
    decay_mult: 0
  }
  convolution_param {
    num_output: 72
    pad: 1
    kernel_size: 3
    stride: 1
    weight_filler {
      type: "gaussian"
      std: 0.01
    }
    bias_filler {
      type: "constant"
      value: 0
    }
  }
}
layer {
  name: "relu3_5"
  type: "PReLU"
  bottom: "conv3_5"
  top: "conv3_5"
  prelu_param {
    filler {
      type: "gaussian"
      std: 0.03
    }
  }
}
layer {
  name: "res3_5"
  type: "Eltwise"
  bottom: "res3_3"
  bottom: "conv3_5"
  top: "res3_5"
  eltwise_param {
    operation: SUM
  }
}
layer {
  name: "res3_5_reduce"
  type: "Convolution"
  bottom: "res3_5"
  top: "res3_5_reduce"
  param {
    lr_mult: 1
    decay_mult: 1
  }
  param {
    lr_mult: 0
    decay_mult: 0
  }
  convolution_param {
    num_output: 144
    kernel_size: 1
    stride: 1
    weight_filler {
      type: "gaussian"
      std: 0.01
    }
    bias_filler {
      type: "constant"
      value: 0
    }
  }
}
layer {
  name: "pool3"
  type: "Pooling"
  bottom: "res3_5_reduce"
  top: "pool3"
  pooling_param {
    pool: MAX
    kernel_size: 2
    stride: 2
  }
}
layer {
  name: "conv4_1"
  type: "Convolution"
  bottom: "res3_5"
  top: "conv4_1"
  param {
    lr_mult: 1
    decay_mult: 1
  }
  param {
    lr_mult: 2
    decay_mult: 0
  }
  convolution_param {
    num_output: 144
    pad: 1
    kernel_size: 3
    stride: 2
    weight_filler {
      type: "xavier"
    }
    bias_filler {
      type: "constant"
      value: 0
    }
  }
}
layer {
  name: "relu4_1"
  type: "PReLU"
  bottom: "conv4_1"
  top: "conv4_1"
  prelu_param {
    filler {
      type: "gaussian"
      std: 0.03
    }
  }
}
layer {
  name: "res3_5_p"
  type: "Eltwise"
  bottom: "pool3"
  bottom: "conv4_1"
  top: "res3_5_p"
  eltwise_param {
    operation: SUM
  }
}
layer {
  name: "conv4_3"
  type: "Convolution"
  bottom: "res3_5_p"
  top: "conv4_3"
  param {
    lr_mult: 1
    decay_mult: 1
  }
  param {
    lr_mult: 0
    decay_mult: 0
  }
  convolution_param {
    num_output: 144
    pad: 1
    kernel_size: 3
    stride: 1
    weight_filler {
      type: "gaussian"
      std: 0.01
    }
    bias_filler {
      type: "constant"
      value: 0
    }
  }
}
layer {
  name: "relu4_3"
  type: "PReLU"
  bottom: "conv4_3"
  top: "conv4_3"
  prelu_param {
    filler {
      type: "gaussian"
      std: 0.03
    }
  }
}
layer {
  name: "res4_3"
  type: "Eltwise"
  bottom: "res3_5_p"
  bottom: "conv4_3"
  top: "res4_3"
  eltwise_param {
    operation: SUM
  }
}
layer {
  name: "fc5"
  type: "InnerProduct"
  bottom: "res4_3"
  top: "fc5"
  param {
    lr_mult: 1
    decay_mult: 1
  }
  param {
    lr_mult: 2
    decay_mult: 0
  }
  inner_product_param {
    num_output: 256
    weight_filler {
      type: "xavier"
    }
    bias_filler {
      type: "constant"
      value: 0
    }
  }
}
layer {
  name: "fc5_bn"
  type: "BatchNorm"
  bottom: "fc5"
  top: "fc5"
  batch_norm_param {
    use_global_stats: false
  }
}
layer {
  name: "norm1"
  type: "Normalize"
  bottom: "fc5"
  top: "norm1"
}
layer {
  name: "fc-6_l2"
  type: "InnerProduct"
  bottom: "norm1"
  top: "fc-6_l2"
  param {
    lr_mult: 1
  }
  inner_product_param {
    num_output: 54547
    bias_term: false
    weight_filler {
      type: "xavier"
    }
    normalize: true
  }
}
layer {
  name: "fc-6_margin"
  type: "LabelSpecificAdd"
  bottom: "fc-6_l2"
  bottom: "label"
  top: "fc-6_margin"
  label_specific_add_param {
    bias: -0.35
  }
}
layer {
  name: "fc-6_margin_scale"
  type: "Scale"
  bottom: "fc-6_margin"
  top: "fc-6_margin_scale"
  param {
    lr_mult: 0
    decay_mult: 0
  }
  scale_param {
    filler {
      type: "constant"
      value: 30
    }
  }
}
layer {
  name: "softmax_loss"
  type: "SoftmaxWithLoss"
  bottom: "fc-6_margin_scale"
  bottom: "label"
  top: "softmax_loss"
}
I0522 21:55:25.152890 34819 layer_factory.hpp:77] Creating layer data
I0522 21:55:25.153050 34819 db_lmdb.cpp:35] Opened lmdb /home/zkx/Data_sdb/TrainData/Data_sdc/Patches/lmdb/fc_0.35_112x96_base_ZheD_Cmul-beid_cap10_Asia-train-encode-shufflelmdb
I0522 21:55:25.153092 34819 net.cpp:84] Creating Layer data
I0522 21:55:25.153100 34819 net.cpp:380] data -> data
I0522 21:55:25.153120 34819 net.cpp:380] data -> label
I0522 21:55:25.155023 34819 data_layer.cpp:45] output data size: 64,3,112,96
I0522 21:55:25.184463 34819 net.cpp:122] Setting up data
I0522 21:55:25.184517 34819 net.cpp:129] Top shape: 64 3 112 96 (2064384)
I0522 21:55:25.184563 34819 net.cpp:129] Top shape: 64 (64)
I0522 21:55:25.184567 34819 net.cpp:137] Memory required for data: 8257792
I0522 21:55:25.184583 34819 layer_factory.hpp:77] Creating layer label_data_1_split
I0522 21:55:25.184608 34819 net.cpp:84] Creating Layer label_data_1_split
I0522 21:55:25.184617 34819 net.cpp:406] label_data_1_split <- label
I0522 21:55:25.184628 34819 net.cpp:380] label_data_1_split -> label_data_1_split_0
I0522 21:55:25.184641 34819 net.cpp:380] label_data_1_split -> label_data_1_split_1
I0522 21:55:25.184904 34819 net.cpp:122] Setting up label_data_1_split
I0522 21:55:25.185006 34819 net.cpp:129] Top shape: 64 (64)
I0522 21:55:25.185019 34819 net.cpp:129] Top shape: 64 (64)
I0522 21:55:25.185037 34819 net.cpp:137] Memory required for data: 8258304
I0522 21:55:25.185046 34819 layer_factory.hpp:77] Creating layer conv1_1
I0522 21:55:25.185101 34819 net.cpp:84] Creating Layer conv1_1
I0522 21:55:25.185117 34819 net.cpp:406] conv1_1 <- data
I0522 21:55:25.185139 34819 net.cpp:380] conv1_1 -> conv1_1
I0522 21:55:25.821107 34819 net.cpp:122] Setting up conv1_1
I0522 21:55:25.821158 34819 net.cpp:129] Top shape: 64 24 56 48 (4128768)
I0522 21:55:25.821164 34819 net.cpp:137] Memory required for data: 24773376
I0522 21:55:25.821192 34819 layer_factory.hpp:77] Creating layer relu1_1
I0522 21:55:25.821223 34819 net.cpp:84] Creating Layer relu1_1
I0522 21:55:25.821228 34819 net.cpp:406] relu1_1 <- conv1_1
I0522 21:55:25.821236 34819 net.cpp:367] relu1_1 -> conv1_1 (in-place)
I0522 21:55:25.822865 34819 net.cpp:122] Setting up relu1_1
I0522 21:55:25.822885 34819 net.cpp:129] Top shape: 64 24 56 48 (4128768)
I0522 21:55:25.822899 34819 net.cpp:137] Memory required for data: 41288448
I0522 21:55:25.822909 34819 layer_factory.hpp:77] Creating layer conv1_1_relu1_1_0_split
I0522 21:55:25.822921 34819 net.cpp:84] Creating Layer conv1_1_relu1_1_0_split
I0522 21:55:25.822932 34819 net.cpp:406] conv1_1_relu1_1_0_split <- conv1_1
I0522 21:55:25.822939 34819 net.cpp:380] conv1_1_relu1_1_0_split -> conv1_1_relu1_1_0_split_0
I0522 21:55:25.822948 34819 net.cpp:380] conv1_1_relu1_1_0_split -> conv1_1_relu1_1_0_split_1
I0522 21:55:25.823006 34819 net.cpp:122] Setting up conv1_1_relu1_1_0_split
I0522 21:55:25.823015 34819 net.cpp:129] Top shape: 64 24 56 48 (4128768)
I0522 21:55:25.823021 34819 net.cpp:129] Top shape: 64 24 56 48 (4128768)
I0522 21:55:25.823024 34819 net.cpp:137] Memory required for data: 74318592
I0522 21:55:25.823029 34819 layer_factory.hpp:77] Creating layer conv1_3
I0522 21:55:25.823043 34819 net.cpp:84] Creating Layer conv1_3
I0522 21:55:25.823050 34819 net.cpp:406] conv1_3 <- conv1_1_relu1_1_0_split_0
I0522 21:55:25.823056 34819 net.cpp:380] conv1_3 -> conv1_3
I0522 21:55:25.826083 34819 net.cpp:122] Setting up conv1_3
I0522 21:55:25.826103 34819 net.cpp:129] Top shape: 64 24 56 48 (4128768)
I0522 21:55:25.826118 34819 net.cpp:137] Memory required for data: 90833664
I0522 21:55:25.826129 34819 layer_factory.hpp:77] Creating layer relu1_3
I0522 21:55:25.826140 34819 net.cpp:84] Creating Layer relu1_3
I0522 21:55:25.826144 34819 net.cpp:406] relu1_3 <- conv1_3
I0522 21:55:25.826151 34819 net.cpp:367] relu1_3 -> conv1_3 (in-place)
I0522 21:55:25.826310 34819 net.cpp:122] Setting up relu1_3
I0522 21:55:25.826321 34819 net.cpp:129] Top shape: 64 24 56 48 (4128768)
I0522 21:55:25.826325 34819 net.cpp:137] Memory required for data: 107348736
I0522 21:55:25.826333 34819 layer_factory.hpp:77] Creating layer res1_3
I0522 21:55:25.826341 34819 net.cpp:84] Creating Layer res1_3
I0522 21:55:25.826346 34819 net.cpp:406] res1_3 <- conv1_1_relu1_1_0_split_1
I0522 21:55:25.826351 34819 net.cpp:406] res1_3 <- conv1_3
I0522 21:55:25.826357 34819 net.cpp:380] res1_3 -> res1_3
I0522 21:55:25.826390 34819 net.cpp:122] Setting up res1_3
I0522 21:55:25.826397 34819 net.cpp:129] Top shape: 64 24 56 48 (4128768)
I0522 21:55:25.826401 34819 net.cpp:137] Memory required for data: 123863808
I0522 21:55:25.826406 34819 layer_factory.hpp:77] Creating layer res1_3_res1_3_0_split
I0522 21:55:25.826437 34819 net.cpp:84] Creating Layer res1_3_res1_3_0_split
I0522 21:55:25.826445 34819 net.cpp:406] res1_3_res1_3_0_split <- res1_3
I0522 21:55:25.826452 34819 net.cpp:380] res1_3_res1_3_0_split -> res1_3_res1_3_0_split_0
I0522 21:55:25.826458 34819 net.cpp:380] res1_3_res1_3_0_split -> res1_3_res1_3_0_split_1
I0522 21:55:25.826495 34819 net.cpp:122] Setting up res1_3_res1_3_0_split
I0522 21:55:25.826503 34819 net.cpp:129] Top shape: 64 24 56 48 (4128768)
I0522 21:55:25.826508 34819 net.cpp:129] Top shape: 64 24 56 48 (4128768)
I0522 21:55:25.826511 34819 net.cpp:137] Memory required for data: 156893952
I0522 21:55:25.826515 34819 layer_factory.hpp:77] Creating layer res1_3_reduce
I0522 21:55:25.826526 34819 net.cpp:84] Creating Layer res1_3_reduce
I0522 21:55:25.826532 34819 net.cpp:406] res1_3_reduce <- res1_3_res1_3_0_split_0
I0522 21:55:25.826539 34819 net.cpp:380] res1_3_reduce -> res1_3_reduce
I0522 21:55:25.827390 34819 net.cpp:122] Setting up res1_3_reduce
I0522 21:55:25.827406 34819 net.cpp:129] Top shape: 64 48 56 48 (8257536)
I0522 21:55:25.827411 34819 net.cpp:137] Memory required for data: 189924096
I0522 21:55:25.827419 34819 layer_factory.hpp:77] Creating layer pool1
I0522 21:55:25.827431 34819 net.cpp:84] Creating Layer pool1
I0522 21:55:25.827436 34819 net.cpp:406] pool1 <- res1_3_reduce
I0522 21:55:25.827443 34819 net.cpp:380] pool1 -> pool1
I0522 21:55:25.827504 34819 net.cpp:122] Setting up pool1
I0522 21:55:25.827513 34819 net.cpp:129] Top shape: 64 48 28 24 (2064384)
I0522 21:55:25.827517 34819 net.cpp:137] Memory required for data: 198181632
I0522 21:55:25.827522 34819 layer_factory.hpp:77] Creating layer conv2_1
I0522 21:55:25.827533 34819 net.cpp:84] Creating Layer conv2_1
I0522 21:55:25.827538 34819 net.cpp:406] conv2_1 <- res1_3_res1_3_0_split_1
I0522 21:55:25.827545 34819 net.cpp:380] conv2_1 -> conv2_1
I0522 21:55:25.829159 34819 net.cpp:122] Setting up conv2_1
I0522 21:55:25.829177 34819 net.cpp:129] Top shape: 64 48 28 24 (2064384)
I0522 21:55:25.829182 34819 net.cpp:137] Memory required for data: 206439168
I0522 21:55:25.829195 34819 layer_factory.hpp:77] Creating layer relu2_1
I0522 21:55:25.829203 34819 net.cpp:84] Creating Layer relu2_1
I0522 21:55:25.829208 34819 net.cpp:406] relu2_1 <- conv2_1
I0522 21:55:25.829215 34819 net.cpp:367] relu2_1 -> conv2_1 (in-place)
I0522 21:55:25.829341 34819 net.cpp:122] Setting up relu2_1
I0522 21:55:25.829351 34819 net.cpp:129] Top shape: 64 48 28 24 (2064384)
I0522 21:55:25.829355 34819 net.cpp:137] Memory required for data: 214696704
I0522 21:55:25.829361 34819 layer_factory.hpp:77] Creating layer res1_3_p
I0522 21:55:25.829368 34819 net.cpp:84] Creating Layer res1_3_p
I0522 21:55:25.829372 34819 net.cpp:406] res1_3_p <- pool1
I0522 21:55:25.829377 34819 net.cpp:406] res1_3_p <- conv2_1
I0522 21:55:25.829383 34819 net.cpp:380] res1_3_p -> res1_3_p
I0522 21:55:25.829409 34819 net.cpp:122] Setting up res1_3_p
I0522 21:55:25.829417 34819 net.cpp:129] Top shape: 64 48 28 24 (2064384)
I0522 21:55:25.829421 34819 net.cpp:137] Memory required for data: 222954240
I0522 21:55:25.829425 34819 layer_factory.hpp:77] Creating layer res1_3_p_res1_3_p_0_split
I0522 21:55:25.829432 34819 net.cpp:84] Creating Layer res1_3_p_res1_3_p_0_split
I0522 21:55:25.829437 34819 net.cpp:406] res1_3_p_res1_3_p_0_split <- res1_3_p
I0522 21:55:25.829442 34819 net.cpp:380] res1_3_p_res1_3_p_0_split -> res1_3_p_res1_3_p_0_split_0
I0522 21:55:25.829449 34819 net.cpp:380] res1_3_p_res1_3_p_0_split -> res1_3_p_res1_3_p_0_split_1
I0522 21:55:25.829484 34819 net.cpp:122] Setting up res1_3_p_res1_3_p_0_split
I0522 21:55:25.829493 34819 net.cpp:129] Top shape: 64 48 28 24 (2064384)
I0522 21:55:25.829497 34819 net.cpp:129] Top shape: 64 48 28 24 (2064384)
I0522 21:55:25.829501 34819 net.cpp:137] Memory required for data: 239469312
I0522 21:55:25.829504 34819 layer_factory.hpp:77] Creating layer conv2_3
I0522 21:55:25.829515 34819 net.cpp:84] Creating Layer conv2_3
I0522 21:55:25.829519 34819 net.cpp:406] conv2_3 <- res1_3_p_res1_3_p_0_split_0
I0522 21:55:25.829526 34819 net.cpp:380] conv2_3 -> conv2_3
I0522 21:55:25.831401 34819 net.cpp:122] Setting up conv2_3
I0522 21:55:25.831420 34819 net.cpp:129] Top shape: 64 48 28 24 (2064384)
I0522 21:55:25.831429 34819 net.cpp:137] Memory required for data: 247726848
I0522 21:55:25.831437 34819 layer_factory.hpp:77] Creating layer relu2_3
I0522 21:55:25.831449 34819 net.cpp:84] Creating Layer relu2_3
I0522 21:55:25.831454 34819 net.cpp:406] relu2_3 <- conv2_3
I0522 21:55:25.831459 34819 net.cpp:367] relu2_3 -> conv2_3 (in-place)
I0522 21:55:25.831590 34819 net.cpp:122] Setting up relu2_3
I0522 21:55:25.831601 34819 net.cpp:129] Top shape: 64 48 28 24 (2064384)
I0522 21:55:25.831605 34819 net.cpp:137] Memory required for data: 255984384
I0522 21:55:25.831611 34819 layer_factory.hpp:77] Creating layer res2_3
I0522 21:55:25.831619 34819 net.cpp:84] Creating Layer res2_3
I0522 21:55:25.831622 34819 net.cpp:406] res2_3 <- res1_3_p_res1_3_p_0_split_1
I0522 21:55:25.831629 34819 net.cpp:406] res2_3 <- conv2_3
I0522 21:55:25.831634 34819 net.cpp:380] res2_3 -> res2_3
I0522 21:55:25.831660 34819 net.cpp:122] Setting up res2_3
I0522 21:55:25.831668 34819 net.cpp:129] Top shape: 64 48 28 24 (2064384)
I0522 21:55:25.831672 34819 net.cpp:137] Memory required for data: 264241920
I0522 21:55:25.831676 34819 layer_factory.hpp:77] Creating layer res2_3_res2_3_0_split
I0522 21:55:25.831681 34819 net.cpp:84] Creating Layer res2_3_res2_3_0_split
I0522 21:55:25.831686 34819 net.cpp:406] res2_3_res2_3_0_split <- res2_3
I0522 21:55:25.831691 34819 net.cpp:380] res2_3_res2_3_0_split -> res2_3_res2_3_0_split_0
I0522 21:55:25.831698 34819 net.cpp:380] res2_3_res2_3_0_split -> res2_3_res2_3_0_split_1
I0522 21:55:25.831733 34819 net.cpp:122] Setting up res2_3_res2_3_0_split
I0522 21:55:25.831742 34819 net.cpp:129] Top shape: 64 48 28 24 (2064384)
I0522 21:55:25.831746 34819 net.cpp:129] Top shape: 64 48 28 24 (2064384)
I0522 21:55:25.831749 34819 net.cpp:137] Memory required for data: 280756992
I0522 21:55:25.831753 34819 layer_factory.hpp:77] Creating layer conv2_5
I0522 21:55:25.831763 34819 net.cpp:84] Creating Layer conv2_5
I0522 21:55:25.831768 34819 net.cpp:406] conv2_5 <- res2_3_res2_3_0_split_0
I0522 21:55:25.831774 34819 net.cpp:380] conv2_5 -> conv2_5
I0522 21:55:25.833274 34819 net.cpp:122] Setting up conv2_5
I0522 21:55:25.833303 34819 net.cpp:129] Top shape: 64 48 28 24 (2064384)
I0522 21:55:25.833308 34819 net.cpp:137] Memory required for data: 289014528
I0522 21:55:25.833315 34819 layer_factory.hpp:77] Creating layer relu2_5
I0522 21:55:25.833323 34819 net.cpp:84] Creating Layer relu2_5
I0522 21:55:25.833328 34819 net.cpp:406] relu2_5 <- conv2_5
I0522 21:55:25.833335 34819 net.cpp:367] relu2_5 -> conv2_5 (in-place)
I0522 21:55:25.833456 34819 net.cpp:122] Setting up relu2_5
I0522 21:55:25.833467 34819 net.cpp:129] Top shape: 64 48 28 24 (2064384)
I0522 21:55:25.833470 34819 net.cpp:137] Memory required for data: 297272064
I0522 21:55:25.833480 34819 layer_factory.hpp:77] Creating layer res2_5
I0522 21:55:25.833489 34819 net.cpp:84] Creating Layer res2_5
I0522 21:55:25.833493 34819 net.cpp:406] res2_5 <- res2_3_res2_3_0_split_1
I0522 21:55:25.833498 34819 net.cpp:406] res2_5 <- conv2_5
I0522 21:55:25.833504 34819 net.cpp:380] res2_5 -> res2_5
I0522 21:55:25.833530 34819 net.cpp:122] Setting up res2_5
I0522 21:55:25.833539 34819 net.cpp:129] Top shape: 64 48 28 24 (2064384)
I0522 21:55:25.833542 34819 net.cpp:137] Memory required for data: 305529600
I0522 21:55:25.833545 34819 layer_factory.hpp:77] Creating layer res2_5_res2_5_0_split
I0522 21:55:25.833551 34819 net.cpp:84] Creating Layer res2_5_res2_5_0_split
I0522 21:55:25.833555 34819 net.cpp:406] res2_5_res2_5_0_split <- res2_5
I0522 21:55:25.833561 34819 net.cpp:380] res2_5_res2_5_0_split -> res2_5_res2_5_0_split_0
I0522 21:55:25.833567 34819 net.cpp:380] res2_5_res2_5_0_split -> res2_5_res2_5_0_split_1
I0522 21:55:25.833601 34819 net.cpp:122] Setting up res2_5_res2_5_0_split
I0522 21:55:25.833609 34819 net.cpp:129] Top shape: 64 48 28 24 (2064384)
I0522 21:55:25.833614 34819 net.cpp:129] Top shape: 64 48 28 24 (2064384)
I0522 21:55:25.833632 34819 net.cpp:137] Memory required for data: 322044672
I0522 21:55:25.833637 34819 layer_factory.hpp:77] Creating layer res2_5_reduce
I0522 21:55:25.833649 34819 net.cpp:84] Creating Layer res2_5_reduce
I0522 21:55:25.833655 34819 net.cpp:406] res2_5_reduce <- res2_5_res2_5_0_split_0
I0522 21:55:25.833662 34819 net.cpp:380] res2_5_reduce -> res2_5_reduce
I0522 21:55:25.834933 34819 net.cpp:122] Setting up res2_5_reduce
I0522 21:55:25.834951 34819 net.cpp:129] Top shape: 64 72 28 24 (3096576)
I0522 21:55:25.834956 34819 net.cpp:137] Memory required for data: 334430976
I0522 21:55:25.834964 34819 layer_factory.hpp:77] Creating layer pool2
I0522 21:55:25.834973 34819 net.cpp:84] Creating Layer pool2
I0522 21:55:25.834978 34819 net.cpp:406] pool2 <- res2_5_reduce
I0522 21:55:25.834985 34819 net.cpp:380] pool2 -> pool2
I0522 21:55:25.835029 34819 net.cpp:122] Setting up pool2
I0522 21:55:25.835047 34819 net.cpp:129] Top shape: 64 72 14 12 (774144)
I0522 21:55:25.835052 34819 net.cpp:137] Memory required for data: 337527552
I0522 21:55:25.835055 34819 layer_factory.hpp:77] Creating layer conv3_1
I0522 21:55:25.835067 34819 net.cpp:84] Creating Layer conv3_1
I0522 21:55:25.835072 34819 net.cpp:406] conv3_1 <- res2_5_res2_5_0_split_1
I0522 21:55:25.835079 34819 net.cpp:380] conv3_1 -> conv3_1
I0522 21:55:25.836851 34819 net.cpp:122] Setting up conv3_1
I0522 21:55:25.836870 34819 net.cpp:129] Top shape: 64 72 14 12 (774144)
I0522 21:55:25.836875 34819 net.cpp:137] Memory required for data: 340624128
I0522 21:55:25.836884 34819 layer_factory.hpp:77] Creating layer relu3_1
I0522 21:55:25.836892 34819 net.cpp:84] Creating Layer relu3_1
I0522 21:55:25.836899 34819 net.cpp:406] relu3_1 <- conv3_1
I0522 21:55:25.836906 34819 net.cpp:367] relu3_1 -> conv3_1 (in-place)
I0522 21:55:25.837018 34819 net.cpp:122] Setting up relu3_1
I0522 21:55:25.837026 34819 net.cpp:129] Top shape: 64 72 14 12 (774144)
I0522 21:55:25.837030 34819 net.cpp:137] Memory required for data: 343720704
I0522 21:55:25.837038 34819 layer_factory.hpp:77] Creating layer res2_5_p
I0522 21:55:25.837045 34819 net.cpp:84] Creating Layer res2_5_p
I0522 21:55:25.837049 34819 net.cpp:406] res2_5_p <- pool2
I0522 21:55:25.837054 34819 net.cpp:406] res2_5_p <- conv3_1
I0522 21:55:25.837060 34819 net.cpp:380] res2_5_p -> res2_5_p
I0522 21:55:25.837087 34819 net.cpp:122] Setting up res2_5_p
I0522 21:55:25.837095 34819 net.cpp:129] Top shape: 64 72 14 12 (774144)
I0522 21:55:25.837100 34819 net.cpp:137] Memory required for data: 346817280
I0522 21:55:25.837103 34819 layer_factory.hpp:77] Creating layer res2_5_p_res2_5_p_0_split
I0522 21:55:25.837110 34819 net.cpp:84] Creating Layer res2_5_p_res2_5_p_0_split
I0522 21:55:25.837115 34819 net.cpp:406] res2_5_p_res2_5_p_0_split <- res2_5_p
I0522 21:55:25.837121 34819 net.cpp:380] res2_5_p_res2_5_p_0_split -> res2_5_p_res2_5_p_0_split_0
I0522 21:55:25.837127 34819 net.cpp:380] res2_5_p_res2_5_p_0_split -> res2_5_p_res2_5_p_0_split_1
I0522 21:55:25.837162 34819 net.cpp:122] Setting up res2_5_p_res2_5_p_0_split
I0522 21:55:25.837169 34819 net.cpp:129] Top shape: 64 72 14 12 (774144)
I0522 21:55:25.837174 34819 net.cpp:129] Top shape: 64 72 14 12 (774144)
I0522 21:55:25.837178 34819 net.cpp:137] Memory required for data: 353010432
I0522 21:55:25.837182 34819 layer_factory.hpp:77] Creating layer conv3_3
I0522 21:55:25.837193 34819 net.cpp:84] Creating Layer conv3_3
I0522 21:55:25.837198 34819 net.cpp:406] conv3_3 <- res2_5_p_res2_5_p_0_split_0
I0522 21:55:25.837205 34819 net.cpp:380] conv3_3 -> conv3_3
I0522 21:55:25.839511 34819 net.cpp:122] Setting up conv3_3
I0522 21:55:25.839530 34819 net.cpp:129] Top shape: 64 72 14 12 (774144)
I0522 21:55:25.839536 34819 net.cpp:137] Memory required for data: 356107008
I0522 21:55:25.839545 34819 layer_factory.hpp:77] Creating layer relu3_3
I0522 21:55:25.839555 34819 net.cpp:84] Creating Layer relu3_3
I0522 21:55:25.839560 34819 net.cpp:406] relu3_3 <- conv3_3
I0522 21:55:25.839567 34819 net.cpp:367] relu3_3 -> conv3_3 (in-place)
I0522 21:55:25.839689 34819 net.cpp:122] Setting up relu3_3
I0522 21:55:25.839711 34819 net.cpp:129] Top shape: 64 72 14 12 (774144)
I0522 21:55:25.839717 34819 net.cpp:137] Memory required for data: 359203584
I0522 21:55:25.839723 34819 layer_factory.hpp:77] Creating layer res3_3
I0522 21:55:25.839731 34819 net.cpp:84] Creating Layer res3_3
I0522 21:55:25.839736 34819 net.cpp:406] res3_3 <- res2_5_p_res2_5_p_0_split_1
I0522 21:55:25.839741 34819 net.cpp:406] res3_3 <- conv3_3
I0522 21:55:25.839747 34819 net.cpp:380] res3_3 -> res3_3
I0522 21:55:25.839779 34819 net.cpp:122] Setting up res3_3
I0522 21:55:25.839788 34819 net.cpp:129] Top shape: 64 72 14 12 (774144)
I0522 21:55:25.839792 34819 net.cpp:137] Memory required for data: 362300160
I0522 21:55:25.839797 34819 layer_factory.hpp:77] Creating layer res3_3_res3_3_0_split
I0522 21:55:25.839805 34819 net.cpp:84] Creating Layer res3_3_res3_3_0_split
I0522 21:55:25.839812 34819 net.cpp:406] res3_3_res3_3_0_split <- res3_3
I0522 21:55:25.839818 34819 net.cpp:380] res3_3_res3_3_0_split -> res3_3_res3_3_0_split_0
I0522 21:55:25.839824 34819 net.cpp:380] res3_3_res3_3_0_split -> res3_3_res3_3_0_split_1
I0522 21:55:25.839861 34819 net.cpp:122] Setting up res3_3_res3_3_0_split
I0522 21:55:25.839869 34819 net.cpp:129] Top shape: 64 72 14 12 (774144)
I0522 21:55:25.839874 34819 net.cpp:129] Top shape: 64 72 14 12 (774144)
I0522 21:55:25.839877 34819 net.cpp:137] Memory required for data: 368493312
I0522 21:55:25.839881 34819 layer_factory.hpp:77] Creating layer conv3_5
I0522 21:55:25.839893 34819 net.cpp:84] Creating Layer conv3_5
I0522 21:55:25.839900 34819 net.cpp:406] conv3_5 <- res3_3_res3_3_0_split_0
I0522 21:55:25.839907 34819 net.cpp:380] conv3_5 -> conv3_5
I0522 21:55:25.842224 34819 net.cpp:122] Setting up conv3_5
I0522 21:55:25.842242 34819 net.cpp:129] Top shape: 64 72 14 12 (774144)
I0522 21:55:25.842247 34819 net.cpp:137] Memory required for data: 371589888
I0522 21:55:25.842257 34819 layer_factory.hpp:77] Creating layer relu3_5
I0522 21:55:25.842267 34819 net.cpp:84] Creating Layer relu3_5
I0522 21:55:25.842272 34819 net.cpp:406] relu3_5 <- conv3_5
I0522 21:55:25.842280 34819 net.cpp:367] relu3_5 -> conv3_5 (in-place)
I0522 21:55:25.842404 34819 net.cpp:122] Setting up relu3_5
I0522 21:55:25.842414 34819 net.cpp:129] Top shape: 64 72 14 12 (774144)
I0522 21:55:25.842418 34819 net.cpp:137] Memory required for data: 374686464
I0522 21:55:25.842424 34819 layer_factory.hpp:77] Creating layer res3_5
I0522 21:55:25.842432 34819 net.cpp:84] Creating Layer res3_5
I0522 21:55:25.842440 34819 net.cpp:406] res3_5 <- res3_3_res3_3_0_split_1
I0522 21:55:25.842447 34819 net.cpp:406] res3_5 <- conv3_5
I0522 21:55:25.842453 34819 net.cpp:380] res3_5 -> res3_5
I0522 21:55:25.842479 34819 net.cpp:122] Setting up res3_5
I0522 21:55:25.842489 34819 net.cpp:129] Top shape: 64 72 14 12 (774144)
I0522 21:55:25.842491 34819 net.cpp:137] Memory required for data: 377783040
I0522 21:55:25.842495 34819 layer_factory.hpp:77] Creating layer res3_5_res3_5_0_split
I0522 21:55:25.842502 34819 net.cpp:84] Creating Layer res3_5_res3_5_0_split
I0522 21:55:25.842506 34819 net.cpp:406] res3_5_res3_5_0_split <- res3_5
I0522 21:55:25.842512 34819 net.cpp:380] res3_5_res3_5_0_split -> res3_5_res3_5_0_split_0
I0522 21:55:25.842519 34819 net.cpp:380] res3_5_res3_5_0_split -> res3_5_res3_5_0_split_1
I0522 21:55:25.842556 34819 net.cpp:122] Setting up res3_5_res3_5_0_split
I0522 21:55:25.842563 34819 net.cpp:129] Top shape: 64 72 14 12 (774144)
I0522 21:55:25.842568 34819 net.cpp:129] Top shape: 64 72 14 12 (774144)
I0522 21:55:25.842572 34819 net.cpp:137] Memory required for data: 383976192
I0522 21:55:25.842576 34819 layer_factory.hpp:77] Creating layer res3_5_reduce
I0522 21:55:25.842588 34819 net.cpp:84] Creating Layer res3_5_reduce
I0522 21:55:25.842592 34819 net.cpp:406] res3_5_reduce <- res3_5_res3_5_0_split_0
I0522 21:55:25.842599 34819 net.cpp:380] res3_5_reduce -> res3_5_reduce
I0522 21:55:25.844048 34819 net.cpp:122] Setting up res3_5_reduce
I0522 21:55:25.844079 34819 net.cpp:129] Top shape: 64 144 14 12 (1548288)
I0522 21:55:25.844096 34819 net.cpp:137] Memory required for data: 390169344
I0522 21:55:25.844106 34819 layer_factory.hpp:77] Creating layer pool3
I0522 21:55:25.844116 34819 net.cpp:84] Creating Layer pool3
I0522 21:55:25.844121 34819 net.cpp:406] pool3 <- res3_5_reduce
I0522 21:55:25.844128 34819 net.cpp:380] pool3 -> pool3
I0522 21:55:25.844177 34819 net.cpp:122] Setting up pool3
I0522 21:55:25.844187 34819 net.cpp:129] Top shape: 64 144 7 6 (387072)
I0522 21:55:25.844190 34819 net.cpp:137] Memory required for data: 391717632
I0522 21:55:25.844194 34819 layer_factory.hpp:77] Creating layer conv4_1
I0522 21:55:25.844208 34819 net.cpp:84] Creating Layer conv4_1
I0522 21:55:25.844213 34819 net.cpp:406] conv4_1 <- res3_5_res3_5_0_split_1
I0522 21:55:25.844220 34819 net.cpp:380] conv4_1 -> conv4_1
I0522 21:55:25.847626 34819 net.cpp:122] Setting up conv4_1
I0522 21:55:25.847657 34819 net.cpp:129] Top shape: 64 144 7 6 (387072)
I0522 21:55:25.847662 34819 net.cpp:137] Memory required for data: 393265920
I0522 21:55:25.847671 34819 layer_factory.hpp:77] Creating layer relu4_1
I0522 21:55:25.847681 34819 net.cpp:84] Creating Layer relu4_1
I0522 21:55:25.847685 34819 net.cpp:406] relu4_1 <- conv4_1
I0522 21:55:25.847692 34819 net.cpp:367] relu4_1 -> conv4_1 (in-place)
I0522 21:55:25.847820 34819 net.cpp:122] Setting up relu4_1
I0522 21:55:25.847831 34819 net.cpp:129] Top shape: 64 144 7 6 (387072)
I0522 21:55:25.847834 34819 net.cpp:137] Memory required for data: 394814208
I0522 21:55:25.847847 34819 layer_factory.hpp:77] Creating layer res3_5_p
I0522 21:55:25.847856 34819 net.cpp:84] Creating Layer res3_5_p
I0522 21:55:25.847860 34819 net.cpp:406] res3_5_p <- pool3
I0522 21:55:25.847865 34819 net.cpp:406] res3_5_p <- conv4_1
I0522 21:55:25.847872 34819 net.cpp:380] res3_5_p -> res3_5_p
I0522 21:55:25.847901 34819 net.cpp:122] Setting up res3_5_p
I0522 21:55:25.847909 34819 net.cpp:129] Top shape: 64 144 7 6 (387072)
I0522 21:55:25.847913 34819 net.cpp:137] Memory required for data: 396362496
I0522 21:55:25.847918 34819 layer_factory.hpp:77] Creating layer res3_5_p_res3_5_p_0_split
I0522 21:55:25.847924 34819 net.cpp:84] Creating Layer res3_5_p_res3_5_p_0_split
I0522 21:55:25.847929 34819 net.cpp:406] res3_5_p_res3_5_p_0_split <- res3_5_p
I0522 21:55:25.847935 34819 net.cpp:380] res3_5_p_res3_5_p_0_split -> res3_5_p_res3_5_p_0_split_0
I0522 21:55:25.847942 34819 net.cpp:380] res3_5_p_res3_5_p_0_split -> res3_5_p_res3_5_p_0_split_1
I0522 21:55:25.847980 34819 net.cpp:122] Setting up res3_5_p_res3_5_p_0_split
I0522 21:55:25.847988 34819 net.cpp:129] Top shape: 64 144 7 6 (387072)
I0522 21:55:25.847993 34819 net.cpp:129] Top shape: 64 144 7 6 (387072)
I0522 21:55:25.847996 34819 net.cpp:137] Memory required for data: 399459072
I0522 21:55:25.848000 34819 layer_factory.hpp:77] Creating layer conv4_3
I0522 21:55:25.848011 34819 net.cpp:84] Creating Layer conv4_3
I0522 21:55:25.848017 34819 net.cpp:406] conv4_3 <- res3_5_p_res3_5_p_0_split_0
I0522 21:55:25.848026 34819 net.cpp:380] conv4_3 -> conv4_3
I0522 21:55:25.852720 34819 net.cpp:122] Setting up conv4_3
I0522 21:55:25.852751 34819 net.cpp:129] Top shape: 64 144 7 6 (387072)
I0522 21:55:25.852759 34819 net.cpp:137] Memory required for data: 401007360
I0522 21:55:25.852769 34819 layer_factory.hpp:77] Creating layer relu4_3
I0522 21:55:25.852783 34819 net.cpp:84] Creating Layer relu4_3
I0522 21:55:25.852788 34819 net.cpp:406] relu4_3 <- conv4_3
I0522 21:55:25.852808 34819 net.cpp:367] relu4_3 -> conv4_3 (in-place)
I0522 21:55:25.852955 34819 net.cpp:122] Setting up relu4_3
I0522 21:55:25.852965 34819 net.cpp:129] Top shape: 64 144 7 6 (387072)
I0522 21:55:25.852969 34819 net.cpp:137] Memory required for data: 402555648
I0522 21:55:25.852977 34819 layer_factory.hpp:77] Creating layer res4_3
I0522 21:55:25.852985 34819 net.cpp:84] Creating Layer res4_3
I0522 21:55:25.852993 34819 net.cpp:406] res4_3 <- res3_5_p_res3_5_p_0_split_1
I0522 21:55:25.852998 34819 net.cpp:406] res4_3 <- conv4_3
I0522 21:55:25.853004 34819 net.cpp:380] res4_3 -> res4_3
I0522 21:55:25.853036 34819 net.cpp:122] Setting up res4_3
I0522 21:55:25.853057 34819 net.cpp:129] Top shape: 64 144 7 6 (387072)
I0522 21:55:25.853062 34819 net.cpp:137] Memory required for data: 404103936
I0522 21:55:25.853066 34819 layer_factory.hpp:77] Creating layer fc5
I0522 21:55:25.853077 34819 net.cpp:84] Creating Layer fc5
I0522 21:55:25.853083 34819 net.cpp:406] fc5 <- res4_3
I0522 21:55:25.853091 34819 net.cpp:380] fc5 -> fc5
I0522 21:55:25.870092 34819 net.cpp:122] Setting up fc5
I0522 21:55:25.870134 34819 net.cpp:129] Top shape: 64 256 (16384)
I0522 21:55:25.870143 34819 net.cpp:137] Memory required for data: 404169472
I0522 21:55:25.870152 34819 layer_factory.hpp:77] Creating layer fc5_bn
I0522 21:55:25.870193 34819 net.cpp:84] Creating Layer fc5_bn
I0522 21:55:25.870206 34819 net.cpp:406] fc5_bn <- fc5
I0522 21:55:25.870214 34819 net.cpp:367] fc5_bn -> fc5 (in-place)
I0522 21:55:25.870543 34819 net.cpp:122] Setting up fc5_bn
I0522 21:55:25.870556 34819 net.cpp:129] Top shape: 64 256 (16384)
I0522 21:55:25.870560 34819 net.cpp:137] Memory required for data: 404235008
I0522 21:55:25.870584 34819 layer_factory.hpp:77] Creating layer norm1
I0522 21:55:25.870597 34819 net.cpp:84] Creating Layer norm1
I0522 21:55:25.870602 34819 net.cpp:406] norm1 <- fc5
I0522 21:55:25.870609 34819 net.cpp:380] norm1 -> norm1
I0522 21:55:25.870692 34819 net.cpp:122] Setting up norm1
I0522 21:55:25.870707 34819 net.cpp:129] Top shape: 64 256 1 1 (16384)
I0522 21:55:25.870712 34819 net.cpp:137] Memory required for data: 404300544
I0522 21:55:25.870717 34819 layer_factory.hpp:77] Creating layer fc-6_l2
I0522 21:55:25.870728 34819 net.cpp:84] Creating Layer fc-6_l2
I0522 21:55:25.870735 34819 net.cpp:406] fc-6_l2 <- norm1
I0522 21:55:25.870743 34819 net.cpp:380] fc-6_l2 -> fc-6_l2
I0522 21:55:26.012423 34819 net.cpp:122] Setting up fc-6_l2
I0522 21:55:26.012482 34819 net.cpp:129] Top shape: 64 54547 (3491008)
I0522 21:55:26.012487 34819 net.cpp:137] Memory required for data: 418264576
I0522 21:55:26.012497 34819 layer_factory.hpp:77] Creating layer fc-6_margin
I0522 21:55:26.012543 34819 net.cpp:84] Creating Layer fc-6_margin
I0522 21:55:26.012550 34819 net.cpp:406] fc-6_margin <- fc-6_l2
I0522 21:55:26.012557 34819 net.cpp:406] fc-6_margin <- label_data_1_split_0
I0522 21:55:26.012580 34819 net.cpp:380] fc-6_margin -> fc-6_margin
I0522 21:55:26.012624 34819 net.cpp:122] Setting up fc-6_margin
I0522 21:55:26.012634 34819 net.cpp:129] Top shape: 64 54547 (3491008)
I0522 21:55:26.012636 34819 net.cpp:137] Memory required for data: 432228608
I0522 21:55:26.012640 34819 layer_factory.hpp:77] Creating layer fc-6_margin_scale
I0522 21:55:26.012650 34819 net.cpp:84] Creating Layer fc-6_margin_scale
I0522 21:55:26.012655 34819 net.cpp:406] fc-6_margin_scale <- fc-6_margin
I0522 21:55:26.012661 34819 net.cpp:380] fc-6_margin_scale -> fc-6_margin_scale
I0522 21:55:26.012832 34819 net.cpp:122] Setting up fc-6_margin_scale
I0522 21:55:26.012841 34819 net.cpp:129] Top shape: 64 54547 (3491008)
I0522 21:55:26.012845 34819 net.cpp:137] Memory required for data: 446192640
I0522 21:55:26.012850 34819 layer_factory.hpp:77] Creating layer softmax_loss
I0522 21:55:26.012857 34819 net.cpp:84] Creating Layer softmax_loss
I0522 21:55:26.012861 34819 net.cpp:406] softmax_loss <- fc-6_margin_scale
I0522 21:55:26.012866 34819 net.cpp:406] softmax_loss <- label_data_1_split_1
I0522 21:55:26.012873 34819 net.cpp:380] softmax_loss -> softmax_loss
…
