…
name: "2018-05-23_AMImageMeanCdata-b0.3s30_fc_0.35_112x96_b+FaceAdd_MobileFaceNet_zkx_train"
state {
  phase: TRAIN
  level: 0
  stage: ""
}
layer {
  name: "data"
  type: "ImageData"
  top: "data"
  top: "label"
  transform_param {
    scale: 0.0078125
    mean_value: 127.5
    mean_value: 127.5
    mean_value: 127.5
  }
  image_data_param {
    source: "/home/zkx/Data_sdb/TrainData/Data_sdc/Patches/MultiPatches/image_list/train_list/Combine_base_Cmul-Asia-beid-cap10-ZheD_list.txt_label.txt"
    batch_size: 64
    shuffle: true
    root_folder: "/home/zkx/Data_sdb/TrainData/Data_sdc/Patches/MultiPatches/fc_0.35_112x96/"
  }
}
layer {
  name: "conv1"
  type: "Convolution"
  bottom: "data"
  top: "conv1"
  param {
    lr_mult: 1
    decay_mult: 1
  }
  convolution_param {
    num_output: 64
    bias_term: false
    pad: 1
    kernel_size: 3
    stride: 2
    weight_filler {
      type: "xavier"
    }
  }
}
layer {
  name: "conv1/bn"
  type: "BatchNorm"
  bottom: "conv1"
  top: "conv1"
  param {
    lr_mult: 0
    decay_mult: 0
  }
  param {
    lr_mult: 0
    decay_mult: 0
  }
  param {
    lr_mult: 0
    decay_mult: 0
  }
  batch_norm_param {
    use_global_stats: false
  }
}
layer {
  name: "conv1/scale"
  type: "Scale"
  bottom: "conv1"
  top: "conv1"
  param {
    lr_mult: 1
    decay_mult: 0
  }
  param {
    lr_mult: 1
    decay_mult: 0
  }
  scale_param {
    bias_term: true
  }
}
layer {
  name: "relu1"
  type: "PReLU"
  bottom: "conv1"
  top: "conv1"
}
layer {
  name: "conv1_dw"
  type: "DepthwiseConvolution"
  bottom: "conv1"
  top: "conv1_dw"
  param {
    lr_mult: 1
    decay_mult: 1
  }
  convolution_param {
    num_output: 64
    bias_term: false
    pad: 1
    kernel_size: 3
    group: 64
    stride: 1
    weight_filler {
      type: "xavier"
    }
  }
}
layer {
  name: "conv1_dw/bn"
  type: "BatchNorm"
  bottom: "conv1_dw"
  top: "conv1_dw"
  param {
    lr_mult: 0
    decay_mult: 0
  }
  param {
    lr_mult: 0
    decay_mult: 0
  }
  param {
    lr_mult: 0
    decay_mult: 0
  }
  batch_norm_param {
    use_global_stats: false
  }
}
layer {
  name: "conv1_dw/scale"
  type: "Scale"
  bottom: "conv1_dw"
  top: "conv1_dw"
  param {
    lr_mult: 1
    decay_mult: 0
  }
  param {
    lr_mult: 1
    decay_mult: 0
  }
  scale_param {
    bias_term: true
  }
}
layer {
  name: "relu1_dw"
  type: "PReLU"
  bottom: "conv1_dw"
  top: "conv1_dw"
}
layer {
  name: "conv2_ex"
  type: "Convolution"
  bottom: "conv1_dw"
  top: "conv2_ex"
  param {
    lr_mult: 1
    decay_mult: 1
  }
  convolution_param {
    num_output: 128
    bias_term: false
    pad: 0
    kernel_size: 1
    stride: 1
    weight_filler {
      type: "xavier"
    }
  }
}
layer {
  name: "conv2_ex/bn"
  type: "BatchNorm"
  bottom: "conv2_ex"
  top: "conv2_ex"
  param {
    lr_mult: 0
    decay_mult: 0
  }
  param {
    lr_mult: 0
    decay_mult: 0
  }
  param {
    lr_mult: 0
    decay_mult: 0
  }
  batch_norm_param {
    use_global_stats: false
  }
}
layer {
  name: "conv2_ex/scale"
  type: "Scale"
  bottom: "conv2_ex"
  top: "conv2_ex"
  param {
    lr_mult: 1
    decay_mult: 0
  }
  param {
    lr_mult: 1
    decay_mult: 0
  }
  scale_param {
    bias_term: true
  }
}
layer {
  name: "relu2_ex"
  type: "PReLU"
  bottom: "conv2_ex"
  top: "conv2_ex"
}
layer {
  name: "conv2_dw"
  type: "DepthwiseConvolution"
  bottom: "conv2_ex"
  top: "conv2_dw"
  param {
    lr_mult: 1
    decay_mult: 1
  }
  convolution_param {
    num_output: 128
    bias_term: false
    pad: 1
    kernel_size: 3
    group: 128
    stride: 2
    weight_filler {
      type: "xavier"
    }
    engine: CAFFE
  }
}
layer {
  name: "conv2_dw/bn"
  type: "BatchNorm"
  bottom: "conv2_dw"
  top: "conv2_dw"
  param {
    lr_mult: 0
    decay_mult: 0
  }
  param {
    lr_mult: 0
    decay_mult: 0
  }
  param {
    lr_mult: 0
    decay_mult: 0
  }
  batch_norm_param {
    use_global_stats: false
  }
}
layer {
  name: "conv2_dw/scale"
  type: "Scale"
  bottom: "conv2_dw"
  top: "conv2_dw"
  param {
    lr_mult: 1
    decay_mult: 0
  }
  param {
    lr_mult: 1
    decay_mult: 0
  }
  scale_param {
    bias_term: true
  }
}
layer {
  name: "relu2_dw"
  type: "PReLU"
  bottom: "conv2_dw"
  top: "conv2_dw"
}
layer {
  name: "conv2_em"
  type: "Convolution"
  bottom: "conv2_dw"
  top: "conv2_em"
  param {
    lr_mult: 1
    decay_mult: 1
  }
  convolution_param {
    num_output: 64
    bias_term: false
    pad: 0
    kernel_size: 1
    stride: 1
    weight_filler {
      type: "xavier"
    }
  }
}
layer {
  name: "conv2_em/bn"
  type: "BatchNorm"
  bottom: "conv2_em"
  top: "conv2_em"
  param {
    lr_mult: 0
    decay_mult: 0
  }
  param {
    lr_mult: 0
    decay_mult: 0
  }
  param {
    lr_mult: 0
    decay_mult: 0
  }
  batch_norm_param {
    use_global_stats: false
  }
}
layer {
  name: "conv2_em/scale"
  type: "Scale"
  bottom: "conv2_em"
  top: "conv2_em"
  param {
    lr_mult: 1
    decay_mult: 0
  }
  param {
    lr_mult: 1
    decay_mult: 0
  }
  scale_param {
    bias_term: true
  }
}
layer {
  name: "conv2_1_ex"
  type: "Convolution"
  bottom: "conv2_em"
  top: "conv2_1_ex"
  param {
    lr_mult: 1
    decay_mult: 1
  }
  convolution_param {
    num_output: 128
    bias_term: false
    pad: 0
    kernel_size: 1
    stride: 1
    weight_filler {
      type: "xavier"
    }
  }
}
layer {
  name: "conv2_1_ex/bn"
  type: "BatchNorm"
  bottom: "conv2_1_ex"
  top: "conv2_1_ex"
  param {
    lr_mult: 0
    decay_mult: 0
  }
  param {
    lr_mult: 0
    decay_mult: 0
  }
  param {
    lr_mult: 0
    decay_mult: 0
  }
  batch_norm_param {
    use_global_stats: false
  }
}
layer {
  name: "conv2_1_ex/scale"
  type: "Scale"
  bottom: "conv2_1_ex"
  top: "conv2_1_ex"
  param {
    lr_mult: 1
    decay_mult: 0
  }
  param {
    lr_mult: 1
    decay_mult: 0
  }
  scale_param {
    bias_term: true
  }
}
layer {
  name: "relu2_1_ex"
  type: "PReLU"
  bottom: "conv2_1_ex"
  top: "conv2_1_ex"
}
layer {
  name: "conv2_1_dw"
  type: "DepthwiseConvolution"
  bottom: "conv2_1_ex"
  top: "conv2_1_dw"
  param {
    lr_mult: 1
    decay_mult: 1
  }
  convolution_param {
    num_output: 128
    bias_term: false
    pad: 1
    kernel_size: 3
    group: 128
    stride: 1
    weight_filler {
      type: "xavier"
    }
    engine: CAFFE
  }
}
layer {
  name: "conv2_1_dw/bn"
  type: "BatchNorm"
  bottom: "conv2_1_dw"
  top: "conv2_1_dw"
  param {
    lr_mult: 0
    decay_mult: 0
  }
  param {
    lr_mult: 0
    decay_mult: 0
  }
  param {
    lr_mult: 0
    decay_mult: 0
  }
  batch_norm_param {
    use_global_stats: false
  }
}
layer {
  name: "conv2_1_dw/scale"
  type: "Scale"
  bottom: "conv2_1_dw"
  top: "conv2_1_dw"
  param {
    lr_mult: 1
    decay_mult: 0
  }
  param {
    lr_mult: 1
    decay_mult: 0
  }
  scale_param {
    bias_term: true
  }
}
layer {
  name: "relu2_1_dw"
  type: "PReLU"
  bottom: "conv2_1_dw"
  top: "conv2_1_dw"
}
layer {
  name: "conv2_1_em"
  type: "Convolution"
  bottom: "conv2_1_dw"
  top: "conv2_1_em"
  param {
    lr_mult: 1
    decay_mult: 1
  }
  convolution_param {
    num_output: 64
    bias_term: false
    pad: 0
    kernel_size: 1
    stride: 1
    weight_filler {
      type: "xavier"
    }
  }
}
layer {
  name: "conv2_1_em/bn"
  type: "BatchNorm"
  bottom: "conv2_1_em"
  top: "conv2_1_em"
  param {
    lr_mult: 0
    decay_mult: 0
  }
  param {
    lr_mult: 0
    decay_mult: 0
  }
  param {
    lr_mult: 0
    decay_mult: 0
  }
  batch_norm_param {
    use_global_stats: false
  }
}
layer {
  name: "conv2_1_em/scale"
  type: "Scale"
  bottom: "conv2_1_em"
  top: "conv2_1_em"
  param {
    lr_mult: 1
    decay_mult: 0
  }
  param {
    lr_mult: 1
    decay_mult: 0
  }
  scale_param {
    bias_term: true
  }
}
layer {
  name: "res2_1"
  type: "Eltwise"
  bottom: "conv2_em"
  bottom: "conv2_1_em"
  top: "res2_1"
}
layer {
  name: "conv2_2_ex"
  type: "Convolution"
  bottom: "res2_1"
  top: "conv2_2_ex"
  param {
    lr_mult: 1
    decay_mult: 1
  }
  convolution_param {
    num_output: 128
    bias_term: false
    pad: 0
    kernel_size: 1
    stride: 1
    weight_filler {
      type: "xavier"
    }
  }
}
layer {
  name: "conv2_2_ex/bn"
  type: "BatchNorm"
  bottom: "conv2_2_ex"
  top: "conv2_2_ex"
  param {
    lr_mult: 0
    decay_mult: 0
  }
  param {
    lr_mult: 0
    decay_mult: 0
  }
  param {
    lr_mult: 0
    decay_mult: 0
  }
  batch_norm_param {
    use_global_stats: false
  }
}
layer {
  name: "conv2_2_ex/scale"
  type: "Scale"
  bottom: "conv2_2_ex"
  top: "conv2_2_ex"
  param {
    lr_mult: 1
    decay_mult: 0
  }
  param {
    lr_mult: 1
    decay_mult: 0
  }
  scale_param {
    bias_term: true
  }
}
layer {
  name: "relu2_2_ex"
  type: "PReLU"
  bottom: "conv2_2_ex"
  top: "conv2_2_ex"
}
layer {
  name: "conv2_2_dw"
  type: "DepthwiseConvolution"
  bottom: "conv2_2_ex"
  top: "conv2_2_dw"
  param {
    lr_mult: 1
    decay_mult: 1
  }
  convolution_param {
    num_output: 128
    bias_term: false
    pad: 1
    kernel_size: 3
    group: 128
    stride: 1
    weight_filler {
      type: "xavier"
    }
    engine: CAFFE
  }
}
layer {
  name: "conv2_2_dw/bn"
  type: "BatchNorm"
  bottom: "conv2_2_dw"
  top: "conv2_2_dw"
  param {
    lr_mult: 0
    decay_mult: 0
  }
  param {
    lr_mult: 0
    decay_mult: 0
  }
  param {
    lr_mult: 0
    decay_mult: 0
  }
  batch_norm_param {
    use_global_stats: false
  }
}
layer {
  name: "conv2_2_dw/scale"
  type: "Scale"
  bottom: "conv2_2_dw"
  top: "conv2_2_dw"
  param {
    lr_mult: 1
    decay_mult: 0
  }
  param {
    lr_mult: 1
    decay_mult: 0
  }
  scale_param {
    bias_term: true
  }
}
layer {
  name: "relu2_2_dw"
  type: "PReLU"
  bottom: "conv2_2_dw"
  top: "conv2_2_dw"
}
layer {
  name: "conv2_2_em"
  type: "Convolution"
  bottom: "conv2_2_dw"
  top: "conv2_2_em"
  param {
    lr_mult: 1
    decay_mult: 1
  }
  convolution_param {
    num_output: 64
    bias_term: false
    pad: 0
    kernel_size: 1
    stride: 1
    weight_filler {
      type: "xavier"
    }
  }
}
layer {
  name: "conv2_2_em/bn"
  type: "BatchNorm"
  bottom: "conv2_2_em"
  top: "conv2_2_em"
  param {
    lr_mult: 0
    decay_mult: 0
  }
  param {
    lr_mult: 0
    decay_mult: 0
  }
  param {
    lr_mult: 0
    decay_mult: 0
  }
  batch_norm_param {
    use_global_stats: false
  }
}
layer {
  name: "conv2_2_em/scale"
  type: "Scale"
  bottom: "conv2_2_em"
  top: "conv2_2_em"
  param {
    lr_mult: 1
    decay_mult: 0
  }
  param {
    lr_mult: 1
    decay_mult: 0
  }
  scale_param {
    bias_term: true
  }
}
layer {
  name: "res2_2"
  type: "Eltwise"
  bottom: "res2_1"
  bottom: "conv2_2_em"
  top: "res2_2"
}
layer {
  name: "conv2_3_ex"
  type: "Convolution"
  bottom: "res2_2"
  top: "conv2_3_ex"
  param {
    lr_mult: 1
    decay_mult: 1
  }
  convolution_param {
    num_output: 128
    bias_term: false
    pad: 0
    kernel_size: 1
    stride: 1
    weight_filler {
      type: "xavier"
    }
  }
}
layer {
  name: "conv2_3_ex/bn"
  type: "BatchNorm"
  bottom: "conv2_3_ex"
  top: "conv2_3_ex"
  param {
    lr_mult: 0
    decay_mult: 0
  }
  param {
    lr_mult: 0
    decay_mult: 0
  }
  param {
    lr_mult: 0
    decay_mult: 0
  }
  batch_norm_param {
    use_global_stats: false
  }
}
layer {
  name: "conv2_3_ex/scale"
  type: "Scale"
  bottom: "conv2_3_ex"
  top: "conv2_3_ex"
  param {
    lr_mult: 1
    decay_mult: 0
  }
  param {
    lr_mult: 1
    decay_mult: 0
  }
  scale_param {
    bias_term: true
  }
}
layer {
  name: "relu2_3_ex"
  type: "PReLU"
  bottom: "conv2_3_ex"
  top: "conv2_3_ex"
}
layer {
  name: "conv2_3_dw"
  type: "DepthwiseConvolution"
  bottom: "conv2_3_ex"
  top: "conv2_3_dw"
  param {
    lr_mult: 1
    decay_mult: 1
  }
  convolution_param {
    num_output: 128
    bias_term: false
    pad: 1
    kernel_size: 3
    group: 128
    stride: 1
    weight_filler {
      type: "xavier"
    }
    engine: CAFFE
  }
}
layer {
  name: "conv2_3_dw/bn"
  type: "BatchNorm"
  bottom: "conv2_3_dw"
  top: "conv2_3_dw"
  param {
    lr_mult: 0
    decay_mult: 0
  }
  param {
    lr_mult: 0
    decay_mult: 0
  }
  param {
    lr_mult: 0
    decay_mult: 0
  }
  batch_norm_param {
    use_global_stats: false
  }
}
layer {
  name: "conv2_3_dw/scale"
  type: "Scale"
  bottom: "conv2_3_dw"
  top: "conv2_3_dw"
  param {
    lr_mult: 1
    decay_mult: 0
  }
  param {
    lr_mult: 1
    decay_mult: 0
  }
  scale_param {
    bias_term: true
  }
}
layer {
  name: "relu2_3_dw"
  type: "PReLU"
  bottom: "conv2_3_dw"
  top: "conv2_3_dw"
}
layer {
  name: "conv2_3_em"
  type: "Convolution"
  bottom: "conv2_3_dw"
  top: "conv2_3_em"
  param {
    lr_mult: 1
    decay_mult: 1
  }
  convolution_param {
    num_output: 64
    bias_term: false
    pad: 0
    kernel_size: 1
    stride: 1
    weight_filler {
      type: "xavier"
    }
  }
}
layer {
  name: "conv2_3_em/bn"
  type: "BatchNorm"
  bottom: "conv2_3_em"
  top: "conv2_3_em"
  param {
    lr_mult: 0
    decay_mult: 0
  }
  param {
    lr_mult: 0
    decay_mult: 0
  }
  param {
    lr_mult: 0
    decay_mult: 0
  }
  batch_norm_param {
    use_global_stats: false
  }
}
layer {
  name: "conv2_3_em/scale"
  type: "Scale"
  bottom: "conv2_3_em"
  top: "conv2_3_em"
  param {
    lr_mult: 1
    decay_mult: 0
  }
  param {
    lr_mult: 1
    decay_mult: 0
  }
  scale_param {
    bias_term: true
  }
}
layer {
  name: "res2_3"
  type: "Eltwise"
  bottom: "res2_2"
  bottom: "conv2_3_em"
  top: "res2_3"
}
layer {
  name: "conv2_4_ex"
  type: "Convolution"
  bottom: "res2_3"
  top: "conv2_4_ex"
  param {
    lr_mult: 1
    decay_mult: 1
  }
  convolution_param {
    num_output: 128
    bias_term: false
    pad: 0
    kernel_size: 1
    stride: 1
    weight_filler {
      type: "xavier"
    }
  }
}
layer {
  name: "conv2_4_ex/bn"
  type: "BatchNorm"
  bottom: "conv2_4_ex"
  top: "conv2_4_ex"
  param {
    lr_mult: 0
    decay_mult: 0
  }
  param {
    lr_mult: 0
    decay_mult: 0
  }
  param {
    lr_mult: 0
    decay_mult: 0
  }
  batch_norm_param {
    use_global_stats: false
  }
}
layer {
  name: "conv2_4_ex/scale"
  type: "Scale"
  bottom: "conv2_4_ex"
  top: "conv2_4_ex"
  param {
    lr_mult: 1
    decay_mult: 0
  }
  param {
    lr_mult: 1
    decay_mult: 0
  }
  scale_param {
    bias_term: true
  }
}
layer {
  name: "relu2_4_ex"
  type: "PReLU"
  bottom: "conv2_4_ex"
  top: "conv2_4_ex"
}
layer {
  name: "conv2_4_dw"
  type: "DepthwiseConvolution"
  bottom: "conv2_4_ex"
  top: "conv2_4_dw"
  param {
    lr_mult: 1
    decay_mult: 1
  }
  convolution_param {
    num_output: 128
    bias_term: false
    pad: 1
    kernel_size: 3
    group: 128
    stride: 1
    weight_filler {
      type: "xavier"
    }
    engine: CAFFE
  }
}
layer {
  name: "conv2_4_dw/bn"
  type: "BatchNorm"
  bottom: "conv2_4_dw"
  top: "conv2_4_dw"
  param {
    lr_mult: 0
    decay_mult: 0
  }
  param {
    lr_mult: 0
    decay_mult: 0
  }
  param {
    lr_mult: 0
    decay_mult: 0
  }
  batch_norm_param {
    use_global_stats: false
  }
}
layer {
  name: "conv2_4_dw/scale"
  type: "Scale"
  bottom: "conv2_4_dw"
  top: "conv2_4_dw"
  param {
    lr_mult: 1
    decay_mult: 0
  }
  param {
    lr_mult: 1
    decay_mult: 0
  }
  scale_param {
    bias_term: true
  }
}
layer {
  name: "relu2_4_dw"
  type: "PReLU"
  bottom: "conv2_4_dw"
  top: "conv2_4_dw"
}
layer {
  name: "conv2_4_em"
  type: "Convolution"
  bottom: "conv2_4_dw"
  top: "conv2_4_em"
  param {
    lr_mult: 1
    decay_mult: 1
  }
  convolution_param {
    num_output: 64
    bias_term: false
    pad: 0
    kernel_size: 1
    stride: 1
    weight_filler {
      type: "xavier"
    }
  }
}
layer {
  name: "conv2_4_em/bn"
  type: "BatchNorm"
  bottom: "conv2_4_em"
  top: "conv2_4_em"
  param {
    lr_mult: 0
    decay_mult: 0
  }
  param {
    lr_mult: 0
    decay_mult: 0
  }
  param {
    lr_mult: 0
    decay_mult: 0
  }
  batch_norm_param {
    use_global_stats: false
  }
}
layer {
  name: "conv2_4_em/scale"
  type: "Scale"
  bottom: "conv2_4_em"
  top: "conv2_4_em"
  param {
    lr_mult: 1
    decay_mult: 0
  }
  param {
    lr_mult: 1
    decay_mult: 0
  }
  scale_param {
    bias_term: true
  }
}
layer {
  name: "res2_4"
  type: "Eltwise"
  bottom: "res2_3"
  bottom: "conv2_4_em"
  top: "res2_4"
}
layer {
  name: "conv3_ex"
  type: "Convolution"
  bottom: "res2_4"
  top: "conv3_ex"
  param {
    lr_mult: 1
    decay_mult: 1
  }
  convolution_param {
    num_output: 256
    bias_term: false
    pad: 0
    kernel_size: 1
    stride: 1
    weight_filler {
      type: "xavier"
    }
  }
}
layer {
  name: "conv3_ex/bn"
  type: "BatchNorm"
  bottom: "conv3_ex"
  top: "conv3_ex"
  param {
    lr_mult: 0
    decay_mult: 0
  }
  param {
    lr_mult: 0
    decay_mult: 0
  }
  param {
    lr_mult: 0
    decay_mult: 0
  }
  batch_norm_param {
    use_global_stats: false
  }
}
layer {
  name: "conv3_ex/scale"
  type: "Scale"
  bottom: "conv3_ex"
  top: "conv3_ex"
  param {
    lr_mult: 1
    decay_mult: 0
  }
  param {
    lr_mult: 1
    decay_mult: 0
  }
  scale_param {
    bias_term: true
  }
}
layer {
  name: "relu3_ex"
  type: "PReLU"
  bottom: "conv3_ex"
  top: "conv3_ex"
}
layer {
  name: "conv3_dw"
  type: "DepthwiseConvolution"
  bottom: "conv3_ex"
  top: "conv3_dw"
  param {
    lr_mult: 1
    decay_mult: 1
  }
  convolution_param {
    num_output: 256
    bias_term: false
    pad: 1
    kernel_size: 3
    group: 256
    stride: 2
    weight_filler {
      type: "xavier"
    }
    engine: CAFFE
  }
}
layer {
  name: "conv3_dw/bn"
  type: "BatchNorm"
  bottom: "conv3_dw"
  top: "conv3_dw"
  param {
    lr_mult: 0
    decay_mult: 0
  }
  param {
    lr_mult: 0
    decay_mult: 0
  }
  param {
    lr_mult: 0
    decay_mult: 0
  }
  batch_norm_param {
    use_global_stats: false
  }
}
layer {
  name: "conv3_dw/scale"
  type: "Scale"
  bottom: "conv3_dw"
  top: "conv3_dw"
  param {
    lr_mult: 1
    decay_mult: 0
  }
  param {
    lr_mult: 1
    decay_mult: 0
  }
  scale_param {
    bias_term: true
  }
}
layer {
  name: "relu3_dw"
  type: "PReLU"
  bottom: "conv3_dw"
  top: "conv3_dw"
}
layer {
  name: "conv3_em"
  type: "Convolution"
  bottom: "conv3_dw"
  top: "conv3_em"
  param {
    lr_mult: 1
    decay_mult: 1
  }
  convolution_param {
    num_output: 128
    bias_term: false
    pad: 0
    kernel_size: 1
    stride: 1
    weight_filler {
      type: "xavier"
    }
  }
}
layer {
  name: "conv3_em/bn"
  type: "BatchNorm"
  bottom: "conv3_em"
  top: "conv3_em"
  param {
    lr_mult: 0
    decay_mult: 0
  }
  param {
    lr_mult: 0
    decay_mult: 0
  }
  param {
    lr_mult: 0
    decay_mult: 0
  }
  batch_norm_param {
    use_global_stats: false
  }
}
layer {
  name: "conv3_em/scale"
  type: "Scale"
  bottom: "conv3_em"
  top: "conv3_em"
  param {
    lr_mult: 1
    decay_mult: 0
  }
  param {
    lr_mult: 1
    decay_mult: 0
  }
  scale_param {
    bias_term: true
  }
}
layer {
  name: "conv3_1_ex"
  type: "Convolution"
  bottom: "conv3_em"
  top: "conv3_1_ex"
  param {
    lr_mult: 1
    decay_mult: 1
  }
  convolution_param {
    num_output: 256
    bias_term: false
    pad: 0
    kernel_size: 1
    stride: 1
    weight_filler {
      type: "xavier"
    }
  }
}
layer {
  name: "conv3_1_ex/bn"
  type: "BatchNorm"
  bottom: "conv3_1_ex"
  top: "conv3_1_ex"
  param {
    lr_mult: 0
    decay_mult: 0
  }
  param {
    lr_mult: 0
    decay_mult: 0
  }
  param {
    lr_mult: 0
    decay_mult: 0
  }
  batch_norm_param {
    use_global_stats: false
  }
}
layer {
  name: "conv3_1_ex/scale"
  type: "Scale"
  bottom: "conv3_1_ex"
  top: "conv3_1_ex"
  param {
    lr_mult: 1
    decay_mult: 0
  }
  param {
    lr_mult: 1
    decay_mult: 0
  }
  scale_param {
    bias_term: true
  }
}
layer {
  name: "relu3_1_ex"
  type: "PReLU"
  bottom: "conv3_1_ex"
  top: "conv3_1_ex"
}
layer {
  name: "conv3_1_dw"
  type: "DepthwiseConvolution"
  bottom: "conv3_1_ex"
  top: "conv3_1_dw"
  param {
    lr_mult: 1
    decay_mult: 1
  }
  convolution_param {
    num_output: 256
    bias_term: false
    pad: 1
    kernel_size: 3
    group: 256
    stride: 1
    weight_filler {
      type: "xavier"
    }
    engine: CAFFE
  }
}
layer {
  name: "conv3_1_dw/bn"
  type: "BatchNorm"
  bottom: "conv3_1_dw"
  top: "conv3_1_dw"
  param {
    lr_mult: 0
    decay_mult: 0
  }
  param {
    lr_mult: 0
    decay_mult: 0
  }
  param {
    lr_mult: 0
    decay_mult: 0
  }
  batch_norm_param {
    use_global_stats: false
  }
}
layer {
  name: "conv3_1_dw/scale"
  type: "Scale"
  bottom: "conv3_1_dw"
  top: "conv3_1_dw"
  param {
    lr_mult: 1
    decay_mult: 0
  }
  param {
    lr_mult: 1
    decay_mult: 0
  }
  scale_param {
    bias_term: true
  }
}
layer {
  name: "relu3_1_dw"
  type: "PReLU"
  bottom: "conv3_1_dw"
  top: "conv3_1_dw"
}
layer {
  name: "conv3_1_em"
  type: "Convolution"
  bottom: "conv3_1_dw"
  top: "conv3_1_em"
  param {
    lr_mult: 1
    decay_mult: 1
  }
  convolution_param {
    num_output: 128
    bias_term: false
    pad: 0
    kernel_size: 1
    stride: 1
    weight_filler {
      type: "xavier"
    }
  }
}
layer {
  name: "conv3_1_em/bn"
  type: "BatchNorm"
  bottom: "conv3_1_em"
  top: "conv3_1_em"
  param {
    lr_mult: 0
    decay_mult: 0
  }
  param {
    lr_mult: 0
    decay_mult: 0
  }
  param {
    lr_mult: 0
    decay_mult: 0
  }
  batch_norm_param {
    use_global_stats: false
  }
}
layer {
  name: "conv3_1_em/scale"
  type: "Scale"
  bottom: "conv3_1_em"
  top: "conv3_1_em"
  param {
    lr_mult: 1
    decay_mult: 0
  }
  param {
    lr_mult: 1
    decay_mult: 0
  }
  scale_param {
    bias_term: true
  }
}
layer {
  name: "res3_1"
  type: "Eltwise"
  bottom: "conv3_em"
  bottom: "conv3_1_em"
  top: "res3_1"
}
layer {
  name: "conv3_2_ex"
  type: "Convolution"
  bottom: "res3_1"
  top: "conv3_2_ex"
  param {
    lr_mult: 1
    decay_mult: 1
  }
  convolution_param {
    num_output: 256
    bias_term: false
    pad: 0
    kernel_size: 1
    stride: 1
    weight_filler {
      type: "xavier"
    }
  }
}
layer {
  name: "conv3_2_ex/bn"
  type: "BatchNorm"
  bottom: "conv3_2_ex"
  top: "conv3_2_ex"
  param {
    lr_mult: 0
    decay_mult: 0
  }
  param {
    lr_mult: 0
    decay_mult: 0
  }
  param {
    lr_mult: 0
    decay_mult: 0
  }
  batch_norm_param {
    use_global_stats: false
  }
}
layer {
  name: "conv3_2_ex/scale"
  type: "Scale"
  bottom: "conv3_2_ex"
  top: "conv3_2_ex"
  param {
    lr_mult: 1
    decay_mult: 0
  }
  param {
    lr_mult: 1
    decay_mult: 0
  }
  scale_param {
    bias_term: true
  }
}
layer {
  name: "relu3_2_ex"
  type: "PReLU"
  bottom: "conv3_2_ex"
  top: "conv3_2_ex"
}
layer {
  name: "conv3_2_dw"
  type: "DepthwiseConvolution"
  bottom: "conv3_2_ex"
  top: "conv3_2_dw"
  param {
    lr_mult: 1
    decay_mult: 1
  }
  convolution_param {
    num_output: 256
    bias_term: false
    pad: 1
    kernel_size: 3
    group: 256
    stride: 1
    weight_filler {
      type: "xavier"
    }
    engine: CAFFE
  }
}
layer {
  name: "conv3_2_dw/bn"
  type: "BatchNorm"
  bottom: "conv3_2_dw"
  top: "conv3_2_dw"
  param {
    lr_mult: 0
    decay_mult: 0
  }
  param {
    lr_mult: 0
    decay_mult: 0
  }
  param {
    lr_mult: 0
    decay_mult: 0
  }
  batch_norm_param {
    use_global_stats: false
  }
}
layer {
  name: "conv3_2_dw/scale"
  type: "Scale"
  bottom: "conv3_2_dw"
  top: "conv3_2_dw"
  param {
    lr_mult: 1
    decay_mult: 0
  }
  param {
    lr_mult: 1
    decay_mult: 0
  }
  scale_param {
    bias_term: true
  }
}
layer {
  name: "relu3_2_dw"
  type: "PReLU"
  bottom: "conv3_2_dw"
  top: "conv3_2_dw"
}
layer {
  name: "conv3_2_em"
  type: "Convolution"
  bottom: "conv3_2_dw"
  top: "conv3_2_em"
  param {
    lr_mult: 1
    decay_mult: 1
  }
  convolution_param {
    num_output: 128
    bias_term: false
    pad: 0
    kernel_size: 1
    stride: 1
    weight_filler {
      type: "xavier"
    }
  }
}
layer {
  name: "conv3_2_em/bn"
  type: "BatchNorm"
  bottom: "conv3_2_em"
  top: "conv3_2_em"
  param {
    lr_mult: 0
    decay_mult: 0
  }
  param {
    lr_mult: 0
    decay_mult: 0
  }
  param {
    lr_mult: 0
    decay_mult: 0
  }
  batch_norm_param {
    use_global_stats: false
  }
}
layer {
  name: "conv3_2_em/scale"
  type: "Scale"
  bottom: "conv3_2_em"
  top: "conv3_2_em"
  param {
    lr_mult: 1
    decay_mult: 0
  }
  param {
    lr_mult: 1
    decay_mult: 0
  }
  scale_param {
    bias_term: true
  }
}
layer {
  name: "res3_2"
  type: "Eltwise"
  bottom: "res3_1"
  bottom: "conv3_2_em"
  top: "res3_2"
}
layer {
  name: "conv3_3_ex"
  type: "Convolution"
  bottom: "res3_2"
  top: "conv3_3_ex"
  param {
    lr_mult: 1
    decay_mult: 1
  }
  convolution_param {
    num_output: 256
    bias_term: false
    pad: 0
    kernel_size: 1
    stride: 1
    weight_filler {
      type: "xavier"
    }
  }
}
layer {
  name: "conv3_3_ex/bn"
  type: "BatchNorm"
  bottom: "conv3_3_ex"
  top: "conv3_3_ex"
  param {
    lr_mult: 0
    decay_mult: 0
  }
  param {
    lr_mult: 0
    decay_mult: 0
  }
  param {
    lr_mult: 0
    decay_mult: 0
  }
  batch_norm_param {
    use_global_stats: false
  }
}
layer {
  name: "conv3_3_ex/scale"
  type: "Scale"
  bottom: "conv3_3_ex"
  top: "conv3_3_ex"
  param {
    lr_mult: 1
    decay_mult: 0
  }
  param {
    lr_mult: 1
    decay_mult: 0
  }
  scale_param {
    bias_term: true
  }
}
layer {
  name: "relu3_3_ex"
  type: "PReLU"
  bottom: "conv3_3_ex"
  top: "conv3_3_ex"
}
layer {
  name: "conv3_3_dw"
  type: "DepthwiseConvolution"
  bottom: "conv3_3_ex"
  top: "conv3_3_dw"
  param {
    lr_mult: 1
    decay_mult: 1
  }
  convolution_param {
    num_output: 256
    bias_term: false
    pad: 1
    kernel_size: 3
    group: 256
    stride: 1
    weight_filler {
      type: "xavier"
    }
    engine: CAFFE
  }
}
layer {
  name: "conv3_3_dw/bn"
  type: "BatchNorm"
  bottom: "conv3_3_dw"
  top: "conv3_3_dw"
  param {
    lr_mult: 0
    decay_mult: 0
  }
  param {
    lr_mult: 0
    decay_mult: 0
  }
  param {
    lr_mult: 0
    decay_mult: 0
  }
  batch_norm_param {
    use_global_stats: false
  }
}
layer {
  name: "conv3_3_dw/scale"
  type: "Scale"
  bottom: "conv3_3_dw"
  top: "conv3_3_dw"
  param {
    lr_mult: 1
    decay_mult: 0
  }
  param {
    lr_mult: 1
    decay_mult: 0
  }
  scale_param {
    bias_term: true
  }
}
layer {
  name: "relu3_3_dw"
  type: "PReLU"
  bottom: "conv3_3_dw"
  top: "conv3_3_dw"
}
layer {
  name: "conv3_3_em"
  type: "Convolution"
  bottom: "conv3_3_dw"
  top: "conv3_3_em"
  param {
    lr_mult: 1
    decay_mult: 1
  }
  convolution_param {
    num_output: 128
    bias_term: false
    pad: 0
    kernel_size: 1
    stride: 1
    weight_filler {
      type: "xavier"
    }
  }
}
layer {
  name: "conv3_3_em/bn"
  type: "BatchNorm"
  bottom: "conv3_3_em"
  top: "conv3_3_em"
  param {
    lr_mult: 0
    decay_mult: 0
  }
  param {
    lr_mult: 0
    decay_mult: 0
  }
  param {
    lr_mult: 0
    decay_mult: 0
  }
  batch_norm_param {
    use_global_stats: false
  }
}
layer {
  name: "conv3_3_em/scale"
  type: "Scale"
  bottom: "conv3_3_em"
  top: "conv3_3_em"
  param {
    lr_mult: 1
    decay_mult: 0
  }
  param {
    lr_mult: 1
    decay_mult: 0
  }
  scale_param {
    bias_term: true
  }
}
layer {
  name: "res3_3"
  type: "Eltwise"
  bottom: "res3_2"
  bottom: "conv3_3_em"
  top: "res3_3"
}
layer {
  name: "conv3_4_ex"
  type: "Convolution"
  bottom: "res3_3"
  top: "conv3_4_ex"
  param {
    lr_mult: 1
    decay_mult: 1
  }
  convolution_param {
    num_output: 256
    bias_term: false
    pad: 0
    kernel_size: 1
    stride: 1
    weight_filler {
      type: "xavier"
    }
  }
}
layer {
  name: "conv3_4_ex/bn"
  type: "BatchNorm"
  bottom: "conv3_4_ex"
  top: "conv3_4_ex"
  param {
    lr_mult: 0
    decay_mult: 0
  }
  param {
    lr_mult: 0
    decay_mult: 0
  }
  param {
    lr_mult: 0
    decay_mult: 0
  }
  batch_norm_param {
    use_global_stats: false
  }
}
layer {
  name: "conv3_4_ex/scale"
  type: "Scale"
  bottom: "conv3_4_ex"
  top: "conv3_4_ex"
  param {
    lr_mult: 1
    decay_mult: 0
  }
  param {
    lr_mult: 1
    decay_mult: 0
  }
  scale_param {
    bias_term: true
  }
}
layer {
  name: "relu3_4_ex"
  type: "PReLU"
  bottom: "conv3_4_ex"
  top: "conv3_4_ex"
}
layer {
  name: "conv3_4_dw"
  type: "DepthwiseConvolution"
  bottom: "conv3_4_ex"
  top: "conv3_4_dw"
  param {
    lr_mult: 1
    decay_mult: 1
  }
  convolution_param {
    num_output: 256
    bias_term: false
    pad: 1
    kernel_size: 3
    group: 256
    stride: 1
    weight_filler {
      type: "xavier"
    }
    engine: CAFFE
  }
}
layer {
  name: "conv3_4_dw/bn"
  type: "BatchNorm"
  bottom: "conv3_4_dw"
  top: "conv3_4_dw"
  param {
    lr_mult: 0
    decay_mult: 0
  }
  param {
    lr_mult: 0
    decay_mult: 0
  }
  param {
    lr_mult: 0
    decay_mult: 0
  }
  batch_norm_param {
    use_global_stats: false
  }
}
layer {
  name: "conv3_4_dw/scale"
  type: "Scale"
  bottom: "conv3_4_dw"
  top: "conv3_4_dw"
  param {
    lr_mult: 1
    decay_mult: 0
  }
  param {
    lr_mult: 1
    decay_mult: 0
  }
  scale_param {
    bias_term: true
  }
}
layer {
  name: "relu3_4_dw"
  type: "PReLU"
  bottom: "conv3_4_dw"
  top: "conv3_4_dw"
}
layer {
  name: "conv3_4_em"
  type: "Convolution"
  bottom: "conv3_4_dw"
  top: "conv3_4_em"
  param {
    lr_mult: 1
    decay_mult: 1
  }
  convolution_param {
    num_output: 128
    bias_term: false
    pad: 0
    kernel_size: 1
    stride: 1
    weight_filler {
      type: "xavier"
    }
  }
}
layer {
  name: "conv3_4_em/bn"
  type: "BatchNorm"
  bottom: "conv3_4_em"
  top: "conv3_4_em"
  param {
    lr_mult: 0
    decay_mult: 0
  }
  param {
    lr_mult: 0
    decay_mult: 0
  }
  param {
    lr_mult: 0
    decay_mult: 0
  }
  batch_norm_param {
    use_global_stats: false
  }
}
layer {
  name: "conv3_4_em/scale"
  type: "Scale"
  bottom: "conv3_4_em"
  top: "conv3_4_em"
  param {
    lr_mult: 1
    decay_mult: 0
  }
  param {
    lr_mult: 1
    decay_mult: 0
  }
  scale_param {
    bias_term: true
  }
}
layer {
  name: "res3_4"
  type: "Eltwise"
  bottom: "res3_3"
  bottom: "conv3_4_em"
  top: "
I0523 21:53:46.093322 11835 layer_factory.hpp:77] Creating layer data
I0523 21:53:46.093382 11835 net.cpp:84] Creating Layer data
I0523 21:53:46.093391 11835 net.cpp:380] data -> data
I0523 21:53:46.093422 11835 net.cpp:380] data -> label
I0523 21:53:46.093442 11835 image_data_layer.cpp:38] Opening file /home/zkx/Data_sdb/TrainData/Data_sdc/Patches/MultiPatches/image_list/train_list/Combine_base_Cmul-Asia-beid-cap10-ZheD_list.txt_label.txt
I0523 21:53:46.926336 11835 image_data_layer.cpp:53] Shuffling data
I0523 21:53:47.494565 11835 image_data_layer.cpp:63] A total of 2075438 images.
I0523 21:53:47.497694 11835 image_data_layer.cpp:90] output data size: 64,3,112,96
I0523 21:53:47.531455 11835 net.cpp:122] Setting up data
I0523 21:53:47.531508 11835 net.cpp:129] Top shape: 64 3 112 96 (2064384)
I0523 21:53:47.531518 11835 net.cpp:129] Top shape: 64 (64)
I0523 21:53:47.531549 11835 net.cpp:137] Memory required for data: 8257792
I0523 21:53:47.531596 11835 layer_factory.hpp:77] Creating layer label_data_1_split
I0523 21:53:47.531713 11835 net.cpp:84] Creating Layer label_data_1_split
I0523 21:53:47.531723 11835 net.cpp:406] label_data_1_split <- label
I0523 21:53:47.531772 11835 net.cpp:380] label_data_1_split -> label_data_1_split_0
I0523 21:53:47.531790 11835 net.cpp:380] label_data_1_split -> label_data_1_split_1
I0523 21:53:47.531874 11835 net.cpp:122] Setting up label_data_1_split
I0523 21:53:47.531884 11835 net.cpp:129] Top shape: 64 (64)
I0523 21:53:47.531890 11835 net.cpp:129] Top shape: 64 (64)
I0523 21:53:47.531893 11835 net.cpp:137] Memory required for data: 8258304
I0523 21:53:47.531898 11835 layer_factory.hpp:77] Creating layer conv1
I0523 21:53:47.531981 11835 net.cpp:84] Creating Layer conv1
I0523 21:53:47.531988 11835 net.cpp:406] conv1 <- data
I0523 21:53:47.532004 11835 net.cpp:380] conv1 -> conv1
I0523 21:53:48.256599 11835 net.cpp:122] Setting up conv1
I0523 21:53:48.256646 11835 net.cpp:129] Top shape: 64 64 56 48 (11010048)
I0523 21:53:48.256652 11835 net.cpp:137] Memory required for data: 52298496
I0523 21:53:48.256687 11835 layer_factory.hpp:77] Creating layer conv1/bn
I0523 21:53:48.256741 11835 net.cpp:84] Creating Layer conv1/bn
I0523 21:53:48.256748 11835 net.cpp:406] conv1/bn <- conv1
I0523 21:53:48.256758 11835 net.cpp:367] conv1/bn -> conv1 (in-place)
I0523 21:53:48.256974 11835 net.cpp:122] Setting up conv1/bn
I0523 21:53:48.256983 11835 net.cpp:129] Top shape: 64 64 56 48 (11010048)
I0523 21:53:48.256988 11835 net.cpp:137] Memory required for data: 96338688
I0523 21:53:48.257005 11835 layer_factory.hpp:77] Creating layer conv1/scale
I0523 21:53:48.257024 11835 net.cpp:84] Creating Layer conv1/scale
I0523 21:53:48.257028 11835 net.cpp:406] conv1/scale <- conv1
I0523 21:53:48.257035 11835 net.cpp:367] conv1/scale -> conv1 (in-place)
I0523 21:53:48.257084 11835 layer_factory.hpp:77] Creating layer conv1/scale
I0523 21:53:48.257205 11835 net.cpp:122] Setting up conv1/scale
I0523 21:53:48.257215 11835 net.cpp:129] Top shape: 64 64 56 48 (11010048)
I0523 21:53:48.257218 11835 net.cpp:137] Memory required for data: 140378880
I0523 21:53:48.257226 11835 layer_factory.hpp:77] Creating layer relu1
I0523 21:53:48.257238 11835 net.cpp:84] Creating Layer relu1
I0523 21:53:48.257244 11835 net.cpp:406] relu1 <- conv1
I0523 21:53:48.257249 11835 net.cpp:367] relu1 -> conv1 (in-place)
I0523 21:53:48.259124 11835 net.cpp:122] Setting up relu1
I0523 21:53:48.259142 11835 net.cpp:129] Top shape: 64 64 56 48 (11010048)
I0523 21:53:48.259147 11835 net.cpp:137] Memory required for data: 184419072
I0523 21:53:48.259153 11835 layer_factory.hpp:77] Creating layer conv1_dw
I0523 21:53:48.259179 11835 net.cpp:84] Creating Layer conv1_dw
I0523 21:53:48.259184 11835 net.cpp:406] conv1_dw <- conv1
I0523 21:53:48.259193 11835 net.cpp:380] conv1_dw -> conv1_dw
I0523 21:53:48.261234 11835 net.cpp:122] Setting up conv1_dw
I0523 21:53:48.261250 11835 net.cpp:129] Top shape: 64 64 56 48 (11010048)
I0523 21:53:48.261255 11835 net.cpp:137] Memory required for data: 228459264
I0523 21:53:48.261265 11835 layer_factory.hpp:77] Creating layer conv1_dw/bn
I0523 21:53:48.261273 11835 net.cpp:84] Creating Layer conv1_dw/bn
I0523 21:53:48.261278 11835 net.cpp:406] conv1_dw/bn <- conv1_dw
I0523 21:53:48.261284 11835 net.cpp:367] conv1_dw/bn -> conv1_dw (in-place)
I0523 21:53:48.261497 11835 net.cpp:122] Setting up conv1_dw/bn
I0523 21:53:48.261505 11835 net.cpp:129] Top shape: 64 64 56 48 (11010048)
I0523 21:53:48.261509 11835 net.cpp:137] Memory required for data: 272499456
I0523 21:53:48.261521 11835 layer_factory.hpp:77] Creating layer conv1_dw/scale
I0523 21:53:48.261531 11835 net.cpp:84] Creating Layer conv1_dw/scale
I0523 21:53:48.261536 11835 net.cpp:406] conv1_dw/scale <- conv1_dw
I0523 21:53:48.261541 11835 net.cpp:367] conv1_dw/scale -> conv1_dw (in-place)
I0523 21:53:48.261581 11835 layer_factory.hpp:77] Creating layer conv1_dw/scale
I0523 21:53:48.261698 11835 net.cpp:122] Setting up conv1_dw/scale
I0523 21:53:48.261724 11835 net.cpp:129] Top shape: 64 64 56 48 (11010048)
I0523 21:53:48.261729 11835 net.cpp:137] Memory required for data: 316539648
I0523 21:53:48.261735 11835 layer_factory.hpp:77] Creating layer relu1_dw
I0523 21:53:48.261745 11835 net.cpp:84] Creating Layer relu1_dw
I0523 21:53:48.261751 11835 net.cpp:406] relu1_dw <- conv1_dw
I0523 21:53:48.261756 11835 net.cpp:367] relu1_dw -> conv1_dw (in-place)
I0523 21:53:48.261981 11835 net.cpp:122] Setting up relu1_dw
I0523 21:53:48.261991 11835 net.cpp:129] Top shape: 64 64 56 48 (11010048)
I0523 21:53:48.261994 11835 net.cpp:137] Memory required for data: 360579840
I0523 21:53:48.262001 11835 layer_factory.hpp:77] Creating layer conv2_ex
I0523 21:53:48.262014 11835 net.cpp:84] Creating Layer conv2_ex
I0523 21:53:48.262019 11835 net.cpp:406] conv2_ex <- conv1_dw
I0523 21:53:48.262027 11835 net.cpp:380] conv2_ex -> conv2_ex
I0523 21:53:48.265230 11835 net.cpp:122] Setting up conv2_ex
I0523 21:53:48.265249 11835 net.cpp:129] Top shape: 64 128 56 48 (22020096)
I0523 21:53:48.265254 11835 net.cpp:137] Memory required for data: 448660224
I0523 21:53:48.265260 11835 layer_factory.hpp:77] Creating layer conv2_ex/bn
I0523 21:53:48.265270 11835 net.cpp:84] Creating Layer conv2_ex/bn
I0523 21:53:48.265275 11835 net.cpp:406] conv2_ex/bn <- conv2_ex
I0523 21:53:48.265281 11835 net.cpp:367] conv2_ex/bn -> conv2_ex (in-place)
I0523 21:53:48.265476 11835 net.cpp:122] Setting up conv2_ex/bn
I0523 21:53:48.265485 11835 net.cpp:129] Top shape: 64 128 56 48 (22020096)
I0523 21:53:48.265488 11835 net.cpp:137] Memory required for data: 536740608
I0523 21:53:48.265501 11835 layer_factory.hpp:77] Creating layer conv2_ex/scale
I0523 21:53:48.265516 11835 net.cpp:84] Creating Layer conv2_ex/scale
I0523 21:53:48.265522 11835 net.cpp:406] conv2_ex/scale <- conv2_ex
I0523 21:53:48.265527 11835 net.cpp:367] conv2_ex/scale -> conv2_ex (in-place)
I0523 21:53:48.265569 11835 layer_factory.hpp:77] Creating layer conv2_ex/scale
I0523 21:53:48.265679 11835 net.cpp:122] Setting up conv2_ex/scale
I0523 21:53:48.265688 11835 net.cpp:129] Top shape: 64 128 56 48 (22020096)
I0523 21:53:48.265692 11835 net.cpp:137] Memory required for data: 624820992
I0523 21:53:48.265698 11835 layer_factory.hpp:77] Creating layer relu2_ex
I0523 21:53:48.265705 11835 net.cpp:84] Creating Layer relu2_ex
I0523 21:53:48.265709 11835 net.cpp:406] relu2_ex <- conv2_ex
I0523 21:53:48.265714 11835 net.cpp:367] relu2_ex -> conv2_ex (in-place)
I0523 21:53:48.267628 11835 net.cpp:122] Setting up relu2_ex
I0523 21:53:48.267647 11835 net.cpp:129] Top shape: 64 128 56 48 (22020096)
I0523 21:53:48.267650 11835 net.cpp:137] Memory required for data: 712901376
I0523 21:53:48.267666 11835 layer_factory.hpp:77] Creating layer conv2_dw
I0523 21:53:48.267678 11835 net.cpp:84] Creating Layer conv2_dw
I0523 21:53:48.267683 11835 net.cpp:406] conv2_dw <- conv2_ex
I0523 21:53:48.267691 11835 net.cpp:380] conv2_dw -> conv2_dw
I0523 21:53:48.267897 11835 net.cpp:122] Setting up conv2_dw
I0523 21:53:48.267907 11835 net.cpp:129] Top shape: 64 128 28 24 (5505024)
I0523 21:53:48.267911 11835 net.cpp:137] Memory required for data: 734921472
I0523 21:53:48.267917 11835 layer_factory.hpp:77] Creating layer conv2_dw/bn
I0523 21:53:48.267925 11835 net.cpp:84] Creating Layer conv2_dw/bn
I0523 21:53:48.267928 11835 net.cpp:406] conv2_dw/bn <- conv2_dw
I0523 21:53:48.267935 11835 net.cpp:367] conv2_dw/bn -> conv2_dw (in-place)
I0523 21:53:48.268124 11835 net.cpp:122] Setting up conv2_dw/bn
I0523 21:53:48.268132 11835 net.cpp:129] Top shape: 64 128 28 24 (5505024)
I0523 21:53:48.268142 11835 net.cpp:137] Memory required for data: 756941568
I0523 21:53:48.268151 11835 layer_factory.hpp:77] Creating layer conv2_dw/scale
I0523 21:53:48.268163 11835 net.cpp:84] Creating Layer conv2_dw/scale
I0523 21:53:48.268167 11835 net.cpp:406] conv2_dw/scale <- conv2_dw
I0523 21:53:48.268172 11835 net.cpp:367] conv2_dw/scale -> conv2_dw (in-place)
I0523 21:53:48.268213 11835 layer_factory.hpp:77] Creating layer conv2_dw/scale
I0523 21:53:48.268344 11835 net.cpp:122] Setting up conv2_dw/scale
I0523 21:53:48.268353 11835 net.cpp:129] Top shape: 64 128 28 24 (5505024)
I0523 21:53:48.268357 11835 net.cpp:137] Memory required for data: 778961664
I0523 21:53:48.268363 11835 layer_factory.hpp:77] Creating layer relu2_dw
I0523 21:53:48.268373 11835 net.cpp:84] Creating Layer relu2_dw
I0523 21:53:48.268378 11835 net.cpp:406] relu2_dw <- conv2_dw
I0523 21:53:48.268383 11835 net.cpp:367] relu2_dw -> conv2_dw (in-place)
I0523 21:53:48.268534 11835 net.cpp:122] Setting up relu2_dw
I0523 21:53:48.268543 11835 net.cpp:129] Top shape: 64 128 28 24 (5505024)
I0523 21:53:48.268548 11835 net.cpp:137] Memory required for data: 800981760
I0523 21:53:48.268553 11835 layer_factory.hpp:77] Creating layer conv2_em
I0523 21:53:48.268566 11835 net.cpp:84] Creating Layer conv2_em
I0523 21:53:48.268571 11835 net.cpp:406] conv2_em <- conv2_dw
I0523 21:53:48.268580 11835 net.cpp:380] conv2_em -> conv2_em
I0523 21:53:48.270025 11835 net.cpp:122] Setting up conv2_em
I0523 21:53:48.270042 11835 net.cpp:129] Top shape: 64 64 28 24 (2752512)
I0523 21:53:48.270047 11835 net.cpp:137] Memory required for data: 811991808
I0523 21:53:48.270053 11835 layer_factory.hpp:77] Creating layer conv2_em/bn
I0523 21:53:48.270062 11835 net.cpp:84] Creating Layer conv2_em/bn
I0523 21:53:48.270066 11835 net.cpp:406] conv2_em/bn <- conv2_em
I0523 21:53:48.270073 11835 net.cpp:367] conv2_em/bn -> conv2_em (in-place)
I0523 21:53:48.270283 11835 net.cpp:122] Setting up conv2_em/bn
I0523 21:53:48.270292 11835 net.cpp:129] Top shape: 64 64 28 24 (2752512)
I0523 21:53:48.270296 11835 net.cpp:137] Memory required for data: 823001856
I0523 21:53:48.270304 11835 layer_factory.hpp:77] Creating layer conv2_em/scale
I0523 21:53:48.270314 11835 net.cpp:84] Creating Layer conv2_em/scale
I0523 21:53:48.270318 11835 net.cpp:406] conv2_em/scale <- conv2_em
I0523 21:53:48.270324 11835 net.cpp:367] conv2_em/scale -> conv2_em (in-place)
I0523 21:53:48.270364 11835 layer_factory.hpp:77] Creating layer conv2_em/scale
I0523 21:53:48.270486 11835 net.cpp:122] Setting up conv2_em/scale
I0523 21:53:48.270494 11835 net.cpp:129] Top shape: 64 64 28 24 (2752512)
I0523 21:53:48.270498 11835 net.cpp:137] Memory required for data: 834011904
I0523 21:53:48.270515 11835 layer_factory.hpp:77] Creating layer conv2_em_conv2_em/scale_0_split
I0523 21:53:48.270524 11835 net.cpp:84] Creating Layer conv2_em_conv2_em/scale_0_split
I0523 21:53:48.270529 11835 net.cpp:406] conv2_em_conv2_em/scale_0_split <- conv2_em
I0523 21:53:48.270534 11835 net.cpp:380] conv2_em_conv2_em/scale_0_split -> conv2_em_conv2_em/scale_0_split_0
I0523 21:53:48.270541 11835 net.cpp:380] conv2_em_conv2_em/scale_0_split -> conv2_em_conv2_em/scale_0_split_1
I0523 21:53:48.270582 11835 net.cpp:122] Setting up conv2_em_conv2_em/scale_0_split
I0523 21:53:48.270591 11835 net.cpp:129] Top shape: 64 64 28 24 (2752512)
I0523 21:53:48.270596 11835 net.cpp:129] Top shape: 64 64 28 24 (2752512)
I0523 21:53:48.270598 11835 net.cpp:137] Memory required for data: 856032000
I0523 21:53:48.270602 11835 layer_factory.hpp:77] Creating layer conv2_1_ex
I0523 21:53:48.270614 11835 net.cpp:84] Creating Layer conv2_1_ex
I0523 21:53:48.270620 11835 net.cpp:406] conv2_1_ex <- conv2_em_conv2_em/scale_0_split_0
I0523 21:53:48.270629 11835 net.cpp:380] conv2_1_ex -> conv2_1_ex
I0523 21:53:48.271921 11835 net.cpp:122] Setting up conv2_1_ex
I0523 21:53:48.271939 11835 net.cpp:129] Top shape: 64 128 28 24 (5505024)
I0523 21:53:48.271944 11835 net.cpp:137] Memory required for data: 878052096
I0523 21:53:48.271950 11835 layer_factory.hpp:77] Creating layer conv2_1_ex/bn
I0523 21:53:48.271970 11835 net.cpp:84] Creating Layer conv2_1_ex/bn
I0523 21:53:48.271976 11835 net.cpp:406] conv2_1_ex/bn <- conv2_1_ex
I0523 21:53:48.271983 11835 net.cpp:367] conv2_1_ex/bn -> conv2_1_ex (in-place)
I0523 21:53:48.272183 11835 net.cpp:122] Setting up conv2_1_ex/bn
I0523 21:53:48.272192 11835 net.cpp:129] Top shape: 64 128 28 24 (5505024)
I0523 21:53:48.272195 11835 net.cpp:137] Memory required for data: 900072192
I0523 21:53:48.272218 11835 layer_factory.hpp:77] Creating layer conv2_1_ex/scale
I0523 21:53:48.272228 11835 net.cpp:84] Creating Layer conv2_1_ex/scale
I0523 21:53:48.272234 11835 net.cpp:406] conv2_1_ex/scale <- conv2_1_ex
I0523 21:53:48.272244 11835 net.cpp:367] conv2_1_ex/scale -> conv2_1_ex (in-place)
I0523 21:53:48.272292 11835 layer_factory.hpp:77] Creating layer conv2_1_ex/scale
I0523 21:53:48.272408 11835 net.cpp:122] Setting up conv2_1_ex/scale
I0523 21:53:48.272415 11835 net.cpp:129] Top shape: 64 128 28 24 (5505024)
I0523 21:53:48.272419 11835 net.cpp:137] Memory required for data: 922092288
I0523 21:53:48.272429 11835 layer_factory.hpp:77] Creating layer relu2_1_ex
I0523 21:53:48.272439 11835 net.cpp:84] Creating Layer relu2_1_ex
I0523 21:53:48.272442 11835 net.cpp:406] relu2_1_ex <- conv2_1_ex
I0523 21:53:48.272449 11835 net.cpp:367] relu2_1_ex -> conv2_1_ex (in-place)
I0523 21:53:48.272601 11835 net.cpp:122] Setting up relu2_1_ex
I0523 21:53:48.272610 11835 net.cpp:129] Top shape: 64 128 28 24 (5505024)
I0523 21:53:48.272614 11835 net.cpp:137] Memory required for data: 944112384
I0523 21:53:48.272619 11835 layer_factory.hpp:77] Creating layer conv2_1_dw
I0523 21:53:48.272629 11835 net.cpp:84] Creating Layer conv2_1_dw
I0523 21:53:48.272634 11835 net.cpp:406] conv2_1_dw <- conv2_1_ex
I0523 21:53:48.272640 11835 net.cpp:380] conv2_1_dw -> conv2_1_dw
I0523 21:53:48.272846 11835 net.cpp:122] Setting up conv2_1_dw
I0523 21:53:48.272855 11835 net.cpp:129] Top shape: 64 128 28 24 (5505024)
I0523 21:53:48.272858 11835 net.cpp:137] Memory required for data: 966132480
I0523 21:53:48.272863 11835 layer_factory.hpp:77] Creating layer conv2_1_dw/bn
I0523 21:53:48.272871 11835 net.cpp:84] Creating Layer conv2_1_dw/bn
I0523 21:53:48.272876 11835 net.cpp:406] conv2_1_dw/bn <- conv2_1_dw
I0523 21:53:48.272881 11835 net.cpp:367] conv2_1_dw/bn -> conv2_1_dw (in-place)
I0523 21:53:48.273073 11835 net.cpp:122] Setting up conv2_1_dw/bn
I0523 21:53:48.273080 11835 net.cpp:129] Top shape: 64 128 28 24 (5505024)
I0523 21:53:48.273084 11835 net.cpp:137] Memory required for data: 988152576
I0523 21:53:48.273092 11835 layer_factory.hpp:77] Creating layer conv2_1_dw/scale
I0523 21:53:48.273104 11835 net.cpp:84] Creating Layer conv2_1_dw/scale
I0523 21:53:48.273108 11835 net.cpp:406] conv2_1_dw/scale <- conv2_1_dw
I0523 21:53:48.273114 11835 net.cpp:367] conv2_1_dw/scale -> conv2_1_dw (in-place)
I0523 21:53:48.273154 11835 layer_factory.hpp:77] Creating layer conv2_1_dw/scale
I0523 21:53:48.273265 11835 net.cpp:122] Setting up conv2_1_dw/scale
I0523 21:53:48.273273 11835 net.cpp:129] Top shape: 64 128 28 24 (5505024)
I0523 21:53:48.273277 11835 net.cpp:137] Memory required for data: 1010172672
I0523 21:53:48.273283 11835 layer_factory.hpp:77] Creating layer relu2_1_dw
I0523 21:53:48.273289 11835 net.cpp:84] Creating Layer relu2_1_dw
I0523 21:53:48.273293 11835 net.cpp:406] relu2_1_dw <- conv2_1_dw
I0523 21:53:48.273298 11835 net.cpp:367] relu2_1_dw -> conv2_1_dw (in-place)
I0523 21:53:48.273458 11835 net.cpp:122] Setting up relu2_1_dw
I0523 21:53:48.273466 11835 net.cpp:129] Top shape: 64 128 28 24 (5505024)
I0523 21:53:48.273469 11835 net.cpp:137] Memory required for data: 1032192768
I0523 21:53:48.273474 11835 layer_factory.hpp:77] Creating layer conv2_1_em
I0523 21:53:48.273484 11835 net.cpp:84] Creating Layer conv2_1_em
I0523 21:53:48.273490 11835 net.cpp:406] conv2_1_em <- conv2_1_dw
I0523 21:53:48.273496 11835 net.cpp:380] conv2_1_em -> conv2_1_em
I0523 21:53:48.274794 11835 net.cpp:122] Setting up conv2_1_em
I0523 21:53:48.274813 11835 net.cpp:129] Top shape: 64 64 28 24 (2752512)
I0523 21:53:48.274817 11835 net.cpp:137] Memory required for data: 1043202816
I0523 21:53:48.274823 11835 layer_factory.hpp:77] Creating layer conv2_1_em/bn
I0523 21:53:48.274838 11835 net.cpp:84] Creating Layer conv2_1_em/bn
I0523 21:53:48.274843 11835 net.cpp:406] conv2_1_em/bn <- conv2_1_em
I0523 21:53:48.274849 11835 net.cpp:367] conv2_1_em/bn -> conv2_1_em (in-place)
I0523 21:53:48.275058 11835 net.cpp:122] Setting up conv2_1_em/bn
I0523 21:53:48.275068 11835 net.cpp:129] Top shape: 64 64 28 24 (2752512)
I0523 21:53:48.275085 11835 net.cpp:137] Memory required for data: 1054212864
I0523 21:53:48.275096 11835 layer_factory.hpp:77] Creating layer conv2_1_em/scale
I0523 21:53:48.275110 11835 net.cpp:84] Creating Layer conv2_1_em/scale
I0523 21:53:48.275116 11835 net.cpp:406] conv2_1_em/scale <- conv2_1_em
I0523 21:53:48.275122 11835 net.cpp:367] conv2_1_em/scale -> conv2_1_em (in-place)
I0523 21:53:48.275166 11835 layer_factory.hpp:77] Creating layer conv2_1_em/scale
I0523 21:53:48.275286 11835 net.cpp:122] Setting up conv2_1_em/scale
I0523 21:53:48.275295 11835 net.cpp:129] Top shape: 64 64 28 24 (2752512)
I0523 21:53:48.275297 11835 net.cpp:137] Memory required for data: 1065222912
I0523 21:53:48.275305 11835 layer_factory.hpp:77] Creating layer res2_1
I0523 21:53:48.275311 11835 net.cpp:84] Creating Layer res2_1
I0523 21:53:48.275316 11835 net.cpp:406] res2_1 <- conv2_em_conv2_em/scale_0_split_1
I0523 21:53:48.275321 11835 net.cpp:406] res2_1 <- conv2_1_em
I0523 21:53:48.275326 11835 net.cpp:380] res2_1 -> res2_1
I0523 21:53:48.275355 11835 net.cpp:122] Setting up res2_1
I0523 21:53:48.275362 11835 net.cpp:129] Top shape: 64 64 28 24 (2752512)
I0523 21:53:48.275365 11835 net.cpp:137] Memory required for data: 1076232960
I0523 21:53:48.275369 11835 layer_factory.hpp:77] Creating layer res2_1_res2_1_0_split
I0523 21:53:48.275377 11835 net.cpp:84] Creating Layer res2_1_res2_1_0_split
I0523 21:53:48.275379 11835 net.cpp:406] res2_1_res2_1_0_split <- res2_1
I0523 21:53:48.275388 11835 net.cpp:380] res2_1_res2_1_0_split -> res2_1_res2_1_0_split_0
I0523 21:53:48.275396 11835 net.cpp:380] res2_1_res2_1_0_split -> res2_1_res2_1_0_split_1
I0523 21:53:48.275434 11835 net.cpp:122] Setting up res2_1_res2_1_0_split
I0523 21:53:48.275440 11835 net.cpp:129] Top shape: 64 64 28 24 (2752512)
I0523 21:53:48.275446 11835 net.cpp:129] Top shape: 64 64 28 24 (2752512)
I0523 21:53:48.275449 11835 net.cpp:137] Memory required for data: 1098253056
I0523 21:53:48.275454 11835 layer_factory.hpp:77] Creating layer conv2_2_ex
I0523 21:53:48.275467 11835 net.cpp:84] Creating Layer conv2_2_ex
I0523 21:53:48.275473 11835 net.cpp:406] conv2_2_ex <- res2_1_res2_1_0_split_0
I0523 21:53:48.275480 11835 net.cpp:380] conv2_2_ex -> conv2_2_ex
I0523 21:53:48.276803 11835 net.cpp:122] Setting up conv2_2_ex
I0523 21:53:48.276821 11835 net.cpp:129] Top shape: 64 128 28 24 (5505024)
I0523 21:53:48.276827 11835 net.cpp:137] Memory required for data: 1120273152
I0523 21:53:48.276834 11835 layer_factory.hpp:77] Creating layer conv2_2_ex/bn
I0523 21:53:48.276844 11835 net.cpp:84] Creating Layer conv2_2_ex/bn
I0523 21:53:48.276849 11835 net.cpp:406] conv2_2_ex/bn <- conv2_2_ex
I0523 21:53:48.276856 11835 net.cpp:367] conv2_2_ex/bn -> conv2_2_ex (in-place)
I0523 21:53:48.277056 11835 net.cpp:122] Setting up conv2_2_ex/bn
I0523 21:53:48.277065 11835 net.cpp:129] Top shape: 64 128 28 24 (5505024)
I0523 21:53:48.277068 11835 net.cpp:137] Memory required for data: 1142293248
I0523 21:53:48.277076 11835 layer_factory.hpp:77] Creating layer conv2_2_ex/scale
I0523 21:53:48.277086 11835 net.cpp:84] Creating Layer conv2_2_ex/scale
I0523 21:53:48.277091 11835 net.cpp:406] conv2_2_ex/scale <- conv2_2_ex
I0523 21:53:48.277096 11835 net.cpp:367] conv2_2_ex/scale -> conv2_2_ex (in-place)
I0523 21:53:48.277137 11835 layer_factory.hpp:77] Creating layer conv2_2_ex/scale
I0523 21:53:48.277251 11835 net.cpp:122] Setting up conv2_2_ex/scale
I0523 21:53:48.277259 11835 net.cpp:129] Top shape: 64 128 28 24 (5505024)
I0523 21:53:48.277262 11835 net.cpp:137] Memory required for data: 1164313344
I0523 21:53:48.277269 11835 layer_factory.hpp:77] Creating layer relu2_2_ex
I0523 21:53:48.277281 11835 net.cpp:84] Creating Layer relu2_2_ex
I0523 21:53:48.277284 11835 net.cpp:406] relu2_2_ex <- conv2_2_ex
I0523 21:53:48.277289 11835 net.cpp:367] relu2_2_ex -> conv2_2_ex (in-place)
I0523 21:53:48.277452 11835 net.cpp:122] Setting up relu2_2_ex
I0523 21:53:48.277462 11835 net.cpp:129] Top shape: 64 128 28 24 (5505024)
I0523 21:53:48.277465 11835 net.cpp:137] Memory required for data: 1186333440
I0523 21:53:48.277487 11835 layer_factory.hpp:77] Creating layer conv2_2_dw
I0523 21:53:48.277498 11835 net.cpp:84] Creating Layer conv2_2_dw
I0523 21:53:48.277503 11835 net.cpp:406] conv2_2_dw <- conv2_2_ex
I0523 21:53:48.277510 11835 net.cpp:380] conv2_2_dw -> conv2_2_dw
I0523 21:53:48.277719 11835 net.cpp:122] Setting up conv2_2_dw
I0523 21:53:48.277727 11835 net.cpp:129] Top shape: 64 128 28 24 (5505024)
I0523 21:53:48.277731 11835 net.cpp:137] Memory required for data: 1208353536
I0523 21:53:48.277736 11835 layer_factory.hpp:77] Creating layer conv2_2_dw/bn
I0523 21:53:48.277745 11835 net.cpp:84] Creating Layer conv2_2_dw/bn
I0523 21:53:48.277748 11835 net.cpp:406] conv2_2_dw/bn <- conv2_2_dw
I0523 21:53:48.277755 11835 net.cpp:367] conv2_2_dw/bn -> conv2_2_dw (in-place)
I0523 21:53:48.277947 11835 net.cpp:122] Setting up conv2_2_dw/bn
I0523 21:53:48.277956 11835 net.cpp:129] Top shape: 64 128 28 24 (5505024)
I0523 21:53:48.277959 11835 net.cpp:137] Memory required for data: 1230373632
I0523 21:53:48.277974 11835 layer_factory.hpp:77] Creating layer conv2_2_dw/scale
I0523 21:53:48.277987 11835 net.cpp:84] Creating Layer conv2_2_dw/scale
I0523 21:53:48.277992 11835 net.cpp:406] conv2_2_dw/scale <- conv2_2_dw
I0523 21:53:48.277998 11835 net.cpp:367] conv2_2_dw/scale -> conv2_2_dw (in-place)
I0523 21:53:48.278038 11835 layer_factory.hpp:77] Creating layer conv2_2_dw/scale
I0523 21:53:48.278151 11835 net.cpp:122] Setting up conv2_2_dw/scale
I0523 21:53:48.278158 11835 net.cpp:129] Top shape: 64 128 28 24 (5505024)
I0523 21:53:48.278162 11835 net.cpp:137] Memory required for data: 1252393728
I0523 21:53:48.278168 11835 layer_factory.hpp:77] Creating layer relu2_2_dw
I0523 21:53:48.278174 11835 net.cpp:84] Creating Layer relu2_2_dw
I0523 21:53:48.278178 11835 net.cpp:406] relu2_2_dw <- conv2_2_dw
I0523 21:53:48.278183 11835 net.cpp:367] relu2_2_dw -> conv2_2_dw (in-place)
I0523 21:53:48.280110 11835 net.cpp:122] Setting up relu2_2_dw
I0523 21:53:48.280128 11835 net.cpp:129] Top shape: 64 128 28 24 (5505024)
I0523 21:53:48.280134 11835 net.cpp:137] Memory required for data: 1274413824
I0523 21:53:48.280144 11835 layer_factory.hpp:77] Creating layer conv2_2_em
I0523 21:53:48.280159 11835 net.cpp:84] Creating Layer conv2_2_em
I0523 21:53:48.280166 11835 net.cpp:406] conv2_2_em <- conv2_2_dw
I0523 21:53:48.280174 11835 net.cpp:380] conv2_2_em -> conv2_2_em
I0523 21:53:48.281668 11835 net.cpp:122] Setting up conv2_2_em
I0523 21:53:48.281687 11835 net.cpp:129] Top shape: 64 64 28 24 (2752512)
I0523 21:53:48.281690 11835 net.cpp:137] Memory required for data: 1285423872
I0523 21:53:48.281697 11835 layer_factory.hpp:77] Creating layer conv2_2_em/bn
I0523 21:53:48.281713 11835 net.cpp:84] Creating Layer conv2_2_em/bn
I0523 21:53:48.281718 11835 net.cpp:406] conv2_2_em/bn <- conv2_2_em
I0523 21:53:48.281726 11835 net.cpp:367] conv2_2_em/bn -> conv2_2_em (in-place)
I0523 21:53:48.281952 11835 net.cpp:122] Setting up conv2_2_em/bn
I0523 21:53:48.281961 11835 net.cpp:129] Top shape: 64 64 28 24 (2752512)
I0523 21:53:48.281965 11835 net.cpp:137] Memory required for data: 1296433920
I0523 21:53:48.281973 11835 layer_factory.hpp:77] Creating layer conv2_2_em/scale
I0523 21:53:48.281981 11835 net.cpp:84] Creating Layer conv2_2_em/scale
I0523 21:53:48.281987 11835 net.cpp:406] conv2_2_em/scale <- conv2_2_em
I0523 21:53:48.281993 11835 net.cpp:367] conv2_2_em/scale -> conv2_2_em (in-place)
I0523 21:53:48.282035 11835 layer_factory.hpp:77] Creating layer conv2_2_em/scale
I0523 21:53:48.282161 11835 net.cpp:122] Setting up conv2_2_em/scale
I0523 21:53:48.282171 11835 net.cpp:129] Top shape: 64 64 28 24 (2752512)
I0523 21:53:48.282173 11835 net.cpp:137] Memory required for data: 1307443968
I0523 21:53:48.282179 11835 layer_factory.hpp:77] Creating layer res2_2
I0523 21:53:48.282189 11835 net.cpp:84] Creating Layer res2_2
I0523 21:53:48.282193 11835 net.cpp:406] res2_2 <- res2_1_res2_1_0_split_1
I0523 21:53:48.282199 11835 net.cpp:406] res2_2 <- conv2_2_em
I0523 21:53:48.282204 11835 net.cpp:380] res2_2 -> res2_2
I0523 21:53:48.282248 11835 net.cpp:122] Setting up res2_2
I0523 21:53:48.282256 11835 net.cpp:129] Top shape: 64 64 28 24 (2752512)
I0523 21:53:48.282260 11835 net.cpp:137] Memory required for data: 1318454016
I0523 21:53:48.282264 11835 layer_factory.hpp:77] Creating layer res2_2_res2_2_0_split
I0523 21:53:48.282271 11835 net.cpp:84] Creating Layer res2_2_res2_2_0_split
I0523 21:53:48.282276 11835 net.cpp:406] res2_2_res2_2_0_split <- res2_2
I0523 21:53:48.282284 11835 net.cpp:380] res2_2_res2_2_0_split -> res2_2_res2_2_0_split_0
I0523 21:53:48.282289 11835 net.cpp:380] res2_2_res2_2_0_split -> res2_2_res2_2_0_split_1
I0523 21:53:48.282327 11835 net.cpp:122] Setting up res2_2_res2_2_0_split
I0523 21:53:48.282333 11835 net.cpp:129] Top shape: 64 64 28 24 (2752512)
I0523 21:53:48.282338 11835 net.cpp:129] Top shape: 64 64 28 24 (2752512)
I0523 21:53:48.282341 11835 net.cpp:137] Memory required for data: 1340474112
I0523 21:53:48.282346 11835 layer_factory.hpp:77] Creating layer conv2_3_ex
I0523 21:53:48.282358 11835 net.cpp:84] Creating Layer conv2_3_ex
I0523 21:53:48.282363 11835 net.cpp:406] conv2_3_ex <- res2_2_res2_2_0_split_0
I0523 21:53:48.282371 11835 net.cpp:380] conv2_3_ex -> conv2_3_ex
I0523 21:53:48.283814 11835 net.cpp:122] Setting up conv2_3_ex
I0523 21:53:48.283833 11835 net.cpp:129] Top shape: 64 128 28 24 (5505024)
I0523 21:53:48.283838 11835 net.cpp:137] Memory required for data: 1362494208
I0523 21:53:48.283844 11835 layer_factory.hpp:77] Creating layer conv2_3_ex/bn
I0523 21:53:48.283854 11835 net.cpp:84] Creating Layer conv2_3_ex/bn
I0523 21:53:48.283860 11835 net.cpp:406] conv2_3_ex/bn <- conv2_3_ex
I0523 21:53:48.283867 11835 net.cpp:367] conv2_3_ex/bn -> conv2_3_ex (in-place)
I0523 21:53:48.284080 11835 net.cpp:122] Setting up conv2_3_ex/bn
I0523 21:53:48.284090 11835 net.cpp:129] Top shape: 64 128 28 24 (5505024)
I0523 21:53:48.284093 11835 net.cpp:137] Memory required for data: 1384514304
I0523 21:53:48.284106 11835 layer_factory.hpp:77] Creating layer conv2_3_ex/scale
I0523 21:53:48.284116 11835 net.cpp:84] Creating Layer conv2_3_ex/scale
I0523 21:53:48.284119 11835 net.cpp:406] conv2_3_ex/scale <- conv2_3_ex
I0523 21:53:48.284126 11835 net.cpp:367] conv2_3_ex/scale -> conv2_3_ex (in-place)
I0523 21:53:48.284169 11835 layer_factory.hpp:77] Creating layer conv2_3_ex/scale
I0523 21:53:48.284289 11835 net.cpp:122] Setting up conv2_3_ex/scale
I0523 21:53:48.284297 11835 net.cpp:129] Top shape: 64 128 28 24 (5505024)
I0523 21:53:48.284301 11835 net.cpp:137] Memory required for data: 1406534400
I0523 21:53:48.284307 11835 layer_factory.hpp:77] Creating layer relu2_3_ex
I0523 21:53:48.284314 11835 net.cpp:84] Creating Layer relu2_3_ex
I0523 21:53:48.284318 11835 net.cpp:406] relu2_3_ex <- conv2_3_ex
I0523 21:53:48.284323 11835 net.cpp:367] relu2_3_ex -> conv2_3_ex (in-place)
I0523 21:53:48.284482 11835 net.cpp:122] Setting up relu2_3_ex
I0523 21:53:48.284490 11835 net.cpp:129] Top shape: 64 128 28 24 (5505024)
I0523 21:53:48.284493 11835 net.cpp:137] Memory required for data: 1428554496
I0523 21:53:48.284499 11835 layer_factory.hpp:77] Creating layer conv2_3_dw
I0523 21:53:48.284512 11835 net.cpp:84] Creating Layer conv2_3_dw
I0523 21:53:48.284518 11835 net.cpp:406] conv2_3_dw <- conv2_3_ex
I0523 21:53:48.284524 11835 net.cpp:380] conv2_3_dw -> conv2_3_dw
I0523 21:53:48.284736 11835 net.cpp:122] Setting up conv2_3_dw
I0523 21:53:48.284744 11835 net.cpp:129] Top shape: 64 128 28 24 (5505024)
I0523 21:53:48.284749 11835 net.cpp:137] Memory required for data: 1450574592
I0523 21:53:48.284754 11835 layer_factory.hpp:77] Creating layer conv2_3_dw/bn
I0523 21:53:48.284762 11835 net.cpp:84] Creating Layer conv2_3_dw/bn
I0523 21:53:48.284766 11835 net.cpp:406] conv2_3_dw/bn <- conv2_3_dw
I0523 21:53:48.284772 11835 net.cpp:367] conv2_3_dw/bn -> conv2_3_dw (in-place)
I0523 21:53:48.284970 11835 net.cpp:122] Setting up conv2_3_dw/bn
I0523 21:53:48.284978 11835 net.cpp:129] Top shape: 64 128 28 24 (5505024)
I0523 21:53:48.284982 11835 net.cpp:137] Memory required for data: 1472594688
I0523 21:53:48.285010 11835 layer_factory.hpp:77] Creating layer conv2_3_dw/scale
I0523 21:53:48.285020 11835 net.cpp:84] Creating Layer conv2_3_dw/scale
I0523 21:53:48.285027 11835 net.cpp:406] conv2_3_dw/scale <- conv2_3_dw
I0523 21:53:48.285033 11835 net.cpp:367] conv2_3_dw/scale -> conv2_3_dw (in-place)
I0523 21:53:48.285076 11835 layer_factory.hpp:77] Creating layer conv2_3_dw/scale
I0523 21:53:48.285197 11835 net.cpp:122] Setting up conv2_3_dw/scale
I0523 21:53:48.285204 11835 net.cpp:129] Top shape: 64 128 28 24 (5505024)
I0523 21:53:48.285208 11835 net.cpp:137] Memory required for data: 1494614784
I0523 21:53:48.285214 11835 layer_factory.hpp:77] Creating layer relu2_3_dw
I0523 21:53:48.285223 11835 net.cpp:84] Creating Layer relu2_3_dw
I0523 21:53:48.285228 11835 net.cpp:406] relu2_3_dw <- conv2_3_dw
I0523 21:53:48.285233 11835 net.cpp:367] relu2_3_dw -> conv2_3_dw (in-place)
I0523 21:53:48.285388 11835 net.cpp:122] Setting up relu2_3_dw
I0523 21:53:48.285396 11835 net.cpp:129] Top shape: 64 128 28 24 (5505024)
I0523 21:53:48.285400 11835 net.cpp:137] Memory required for data: 1516634880
I0523 21:53:48.285405 11835 layer_factory.hpp:77] Creating layer conv2_3_em
I0523 21:53:48.285416 11835 net.cpp:84] Creating Layer conv2_3_em
I0523 21:53:48.285423 11835 net.cpp:406] conv2_3_em <- conv2_3_dw
I0523 21:53:48.285429 11835 net.cpp:380] conv2_3_em -> conv2_3_em
I0523 21:53:48.286839 11835 net.cpp:122] Setting up conv2_3_em
I0523 21:53:48.286857 11835 net.cpp:129] Top shape: 64 64 28 24 (2752512)
I0523 21:53:48.286864 11835 net.cpp:137] Memory required for data: 1527644928
I0523 21:53:48.286870 11835 layer_factory.hpp:77] Creating layer conv2_3_em/bn
I0523 21:53:48.286886 11835 net.cpp:84] Creating Layer conv2_3_em/bn
I0523 21:53:48.286892 11835 net.cpp:406] conv2_3_em/bn <- conv2_3_em
I0523 21:53:48.286900 11835 net.cpp:367] conv2_3_em/bn -> conv2_3_em (in-place)
I0523 21:53:48.287132 11835 net.cpp:122] Setting up conv2_3_em/bn
I0523 21:53:48.287140 11835 net.cpp:129] Top shape: 64 64 28 24 (2752512)
I0523 21:53:48.287144 11835 net.cpp:137] Memory required for data: 1538654976
I0523 21:53:48.287153 11835 layer_factory.hpp:77] Creating layer conv2_3_em/scale
I0523 21:53:48.287164 11835 net.cpp:84] Creating Layer conv2_3_em/scale
I0523 21:53:48.287171 11835 net.cpp:406] conv2_3_em/scale <- conv2_3_em
I0523 21:53:48.287178 11835 net.cpp:367] conv2_3_em/scale -> conv2_3_em (in-place)
I0523 21:53:48.287222 11835 layer_factory.hpp:77] Creating layer conv2_3_em/scale
I0523 21:53:48.287358 11835 net.cpp:122] Setting up conv2_3_em/scale
I0523 21:53:48.287367 11835 net.cpp:129] Top shape: 64 64 28 24 (2752512)
I0523 21:53:48.287370 11835 net.cpp:137] Memory required for data: 1549665024
I0523 21:53:48.287376 11835 layer_factory.hpp:77] Creating layer res2_3
I0523 21:53:48.287384 11835 net.cpp:84] Creating Layer res2_3
I0523 21:53:48.287387 11835 net.cpp:406] res2_3 <- res2_2_res2_2_0_split_1
I0523 21:53:48.287392 11835 net.cpp:406] res2_3 <- conv2_3_em
I0523 21:53:48.287398 11835 net.cpp:380] res2_3 -> res2_3
I0523 21:53:48.287423 11835 net.cpp:122] Setting up res2_3
I0523 21:53:48.287431 11835 net.cpp:129] Top shape: 64 64 28 24 (2752512)
I0523 21:53:48.287433 11835 net.cpp:137] Memory required for data: 1560675072
I0523 21:53:48.287437 11835 layer_factory.hpp:77] Creating layer res2_3_res2_3_0_split
I0523 21:53:48.287443 11835 net.cpp:84] Creating Layer res2_3_res2_3_0_split
I0523 21:53:48.287447 11835 net.cpp:406] res2_3_res2_3_0_split <- res2_3
I0523 21:53:48.287452 11835 net.cpp:380] res2_3_res2_3_0_split -> res2_3_res2_3_0_split_0
I0523 21:53:48.287458 11835 net.cpp:380] res2_3_res2_3_0_split -> res2_3_res2_3_0_split_1
I0523 21:53:48.287493 11835 net.cpp:122] Setting up res2_3_res2_3_0_split
I0523 21:53:48.287500 11835 net.cpp:129] Top shape: 64 64 28 24 (2752512)
I0523 21:53:48.287504 11835 net.cpp:129] Top shape: 64 64 28 24 (2752512)
I0523 21:53:48.287508 11835 net.cpp:137] Memory required for data: 1582695168
I0523 21:53:48.287514 11835 layer_factory.hpp:77] Creating layer conv2_4_ex
I0523 21:53:48.287528 11835 net.cpp:84] Creating Layer conv2_4_ex
I0523 21:53:48.287546 11835 net.cpp:406] conv2_4_ex <- res2_3_res2_3_0_split_0
I0523 21:53:48.287554 11835 net.cpp:380] conv2_4_ex -> conv2_4_ex
I0523 21:53:48.289036 11835 net.cpp:122] Setting up conv2_4_ex
I0523 21:53:48.289053 11835 net.cpp:129] Top shape: 64 128 28 24 (5505024)
I0523 21:53:48.289059 11835 net.cpp:137] Memory required for data: 1604715264
I0523 21:53:48.289067 11835 layer_factory.hpp:77] Creating layer conv2_4_ex/bn
I0523 21:53:48.289075 11835 net.cpp:84] Creating Layer conv2_4_ex/bn
I0523 21:53:48.289081 11835 net.cpp:406] conv2_4_ex/bn <- conv2_4_ex
I0523 21:53:48.289088 11835 net.cpp:367] conv2_4_ex/bn -> conv2_4_ex (in-place)
I0523 21:53:48.289296 11835 net.cpp:122] Setting up conv2_4_ex/bn
I0523 21:53:48.289304 11835 net.cpp:129] Top shape: 64 128 28 24 (5505024)
I0523 21:53:48.289309 11835 net.cpp:137] Memory required for data: 1626735360
I0523 21:53:48.289316 11835 layer_factory.hpp:77] Creating layer conv2_4_ex/scale
I0523 21:53:48.289324 11835 net.cpp:84] Creating Layer conv2_4_ex/scale
I0523 21:53:48.289330 11835 net.cpp:406] conv2_4_ex/scale <- conv2_4_ex
I0523 21:53:48.289336 11835 net.cpp:367] conv2_4_ex/scale -> conv2_4_ex (in-place)
I0523 21:53:48.289377 11835 layer_factory.hpp:77] Creating layer conv2_4_ex/scale
I0523 21:53:48.289500 11835 net.cpp:122] Setting up conv2_4_ex/scale
I0523 21:53:48.289507 11835 net.cpp:129] Top shape: 64 128 28 24 (5505024)
I0523 21:53:48.289511 11835 net.cpp:137] Memory required for data: 1648755456
I0523 21:53:48.289517 11835 layer_factory.hpp:77] Creating layer relu2_4_ex
I0523 21:53:48.289537 11835 net.cpp:84] Creating Layer relu2_4_ex
I0523 21:53:48.289543 11835 net.cpp:406] relu2_4_ex <- conv2_4_ex
I0523 21:53:48.289548 11835 net.cpp:367] relu2_4_ex -> conv2_4_ex (in-place)
I0523 21:53:48.289705 11835 net.cpp:122] Setting up relu2_4_ex
I0523 21:53:48.289713 11835 net.cpp:129] Top shape: 64 128 28 24 (5505024)
I0523 21:53:48.289716 11835 net.cpp:137] Memory required for data: 1670775552
I0523 21:53:48.289727 11835 layer_factory.hpp:77] Creating layer conv2_4_dw
I0523 21:53:48.289741 11835 net.cpp:84] Creating Layer conv2_4_dw
I0523 21:53:48.289746 11835 net.cpp:406] conv2_4_dw <- conv2_4_ex
I0523 21:53:48.289752 11835 net.cpp:380] conv2_4_dw -> conv2_4_dw
I0523 21:53:48.289965 11835 net.cpp:122] Setting up conv2_4_dw
I0523 21:53:48.289973 11835 net.cpp:129] Top shape: 64 128 28 24 (5505024)
I0523 21:53:48.289976 11835 net.cpp:137] Memory required for data: 1692795648
I0523 21:53:48.289981 11835 layer_factory.hpp:77] Creating layer conv2_4_dw/bn
I0523 21:53:48.289989 11835 net.cpp:84] Creating Layer conv2_4_dw/bn
I0523 21:53:48.289994 11835 net.cpp:406] conv2_4_dw/bn <- conv2_4_dw
I0523 21:53:48.290002 11835 net.cpp:367] conv2_4_dw/bn -> conv2_4_dw (in-place)
I0523 21:53:48.290199 11835 net.cpp:122] Setting up conv2_4_dw/bn
I0523 21:53:48.290207 11835 net.cpp:129] Top shape: 64 128 28 24 (5505024)
I0523 21:53:48.290211 11835 net.cpp:137] Memory required for data: 1714815744
I0523 21:53:48.290220 11835 layer_factory.hpp:77] Creating layer conv2_4_dw/scale
I0523 21:53:48.290227 11835 net.cpp:84] Creating Layer conv2_4_dw/scale
I0523 21:53:48.290232 11835 net.cpp:406] conv2_4_dw/scale <- conv2_4_dw
I0523 21:53:48.290237 11835 net.cpp:367] conv2_4_dw/scale -> conv2_4_dw (in-place)
I0523 21:53:48.290275 11835 layer_factory.hpp:77] Creating layer conv2_4_dw/scale
I0523 21:53:48.290390 11835 net.cpp:122] Setting up conv2_4_dw/scale
I0523 21:53:48.290397 11835 net.cpp:129] Top shape: 64 128 28 24 (5505024)
I0523 21:53:48.290401 11835 net.cpp:137] Memory required for data: 1736835840
I0523 21:53:48.290407 11835 layer_factory.hpp:77] Creating layer relu2_4_dw
I0523 21:53:48.290416 11835 net.cpp:84] Creating Layer relu2_4_dw
I0523 21:53:48.290419 11835 net.cpp:406] relu2_4_dw <- conv2_4_dw
I0523 21:53:48.290424 11835 net.cpp:367] relu2_4_dw -> conv2_4_dw (in-place)
I0523 21:53:48.290580 11835 net.cpp:122] Setting up relu2_4_dw
I0523 21:53:48.290587 11835 net.cpp:129] Top shape: 64 128 28 24 (5505024)
I0523 21:53:48.290591 11835 net.cpp:137] Memory required for data: 1758855936
I0523 21:53:48.290612 11835 layer_factory.hpp:77] Creating layer conv2_4_em
I0523 21:53:48.290624 11835 net.cpp:84] Creating Layer conv2_4_em
I0523 21:53:48.290630 11835 net.cpp:406] conv2_4_em <- conv2_4_dw
I0523 21:53:48.290637 11835 net.cpp:380] conv2_4_em -> conv2_4_em
I0523 21:53:48.291970 11835 net.cpp:122] Setting up conv2_4_em
I0523 21:53:48.291987 11835 net.cpp:129] Top shape: 64 64 28 24 (2752512)
I0523 21:53:48.291993 11835 net.cpp:137] Memory required for data: 1769865984
I0523 21:53:48.292009 11835 layer_factory.hpp:77] Creating layer conv2_4_em/bn
I0523 21:53:48.292019 11835 net.cpp:84] Creating Layer conv2_4_em/bn
I0523 21:53:48.292024 11835 net.cpp:406] conv2_4_em/bn <- conv2_4_em
I0523 21:53:48.292032 11835 net.cpp:367] conv2_4_em/bn -> conv2_4_em (in-place)
I0523 21:53:48.292253 11835 net.cpp:122] Setting up conv2_4_em/bn
I0523 21:53:48.292260 11835 net.cpp:129] Top shape: 64 64 28 24 (2752512)
I0523 21:53:48.292264 11835 net.cpp:137] Memory required for data: 1780876032
I0523 21:53:48.292273 11835 layer_factory.hpp:77] Creating layer conv2_4_em/scale
I0523 21:53:48.292286 11835 net.cpp:84] Creating Layer conv2_4_em/scale
I0523 21:53:48.292291 11835 net.cpp:406] conv2_4_em/scale <- conv2_4_em
I0523 21:53:48.292299 11835 net.cpp:367] conv2_4_em/scale -> conv2_4_em (in-place)
I0523 21:53:48.292342 11835 layer_factory.hpp:77] Creating layer conv2_4_em/scale
I0523 21:53:48.292471 11835 net.cpp:122] Setting up conv2_4_em/scale
I0523 21:53:48.292479 11835 net.cpp:129] Top shape: 64 64 28 24 (2752512)
I0523 21:53:48.292482 11835 net.cpp:137] Memory required for data: 1791886080
I0523 21:53:48.292490 11835 layer_factory.hpp:77] Creating layer res2_4
I0523 21:53:48.292497 11835 net.cpp:84] Creating Layer res2_4
I0523 21:53:48.292503 11835 net.cpp:406] res2_4 <- res2_3_res2_3_0_split_1
I0523 21:53:48.292508 11835 net.cpp:406] res2_4 <- conv2_4_em
I0523 21:53:48.292515 11835 net.cpp:380] res2_4 -> res2_4
I0523 21:53:48.292542 11835 net.cpp:122] Setting up res2_4
I0523 21:53:48.292551 11835 net.cpp:129] Top shape: 64 64 28 24 (2752512)
I0523 21:53:48.292553 11835 net.cpp:137] Memory required for data: 1802896128
I0523 21:53:48.292557 11835 layer_factory.hpp:77] Creating layer conv3_ex
I0523 21:53:48.292569 11835 net.cpp:84] Creating Layer conv3_ex
I0523 21:53:48.292575 11835 net.cpp:406] conv3_ex <- res2_4
I0523 21:53:48.292582 11835 net.cpp:380] conv3_ex -> conv3_ex
I0523 21:53:48.294059 11835 net.cpp:122] Setting up conv3_ex
I0523 21:53:48.294076 11835 net.cpp:129] Top shape: 64 256 28 24 (11010048)
I0523 21:53:48.294081 11835 net.cpp:137] Memory required for data: 1846936320
I0523 21:53:48.294088 11835 layer_factory.hpp:77] Creating layer conv3_ex/bn
I0523 21:53:48.294097 11835 net.cpp:84] Creating Layer conv3_ex/bn
I0523 21:53:48.294102 11835 net.cpp:406] conv3_ex/bn <- conv3_ex
I0523 21:53:48.294109 11835 net.cpp:367] conv3_ex/bn -> conv3_ex (in-place)
I0523 21:53:48.294322 11835 net.cpp:122] Setting up conv3_ex/bn
I0523 21:53:48.294329 11835 net.cpp:129] Top shape: 64 256 28 24 (11010048)
I0523 21:53:48.294333 11835 net.cpp:137] Memory required for data: 1890976512
I0523 21:53:48.294342 11835 layer_factory.hpp:77] Creating layer conv3_ex/scale
I0523 21:53:48.294349 11835 net.cpp:84] Creating Layer conv3_ex/scale
I0523 21:53:48.294354 11835 net.cpp:406] conv3_ex/scale <- conv3_ex
I0523 21:53:48.294360 11835 net.cpp:367] conv3_ex/scale -> conv3_ex (in-place)
I0523 21:53:48.294401 11835 layer_factory.hpp:77] Creating layer conv3_ex/scale
I0523 21:53:48.294522 11835 net.cpp:122] Setting up conv3_ex/scale
I0523 21:53:48.294528 11835 net.cpp:129] Top shape: 64 256 28 24 (11010048)
I0523 21:53:48.294533 11835 net.cpp:137] Memory required for data: 1935016704
I0523 21:53:48.294543 11835 layer_factory.hpp:77] Creating layer relu3_ex
I0523 21:53:48.294549 11835 net.cpp:84] Creating Layer relu3_ex
I0523 21:53:48.294553 11835 net.cpp:406] relu3_ex <- conv3_ex
I0523 21:53:48.294559 11835 net.cpp:367] relu3_ex -> conv3_ex (in-place)
I0523 21:53:48.296789 11835 net.cpp:122] Setting up relu3_ex
I0523 21:53:48.296821 11835 net.cpp:129] Top shape: 64 256 28 24 (11010048)
I0523 21:53:48.296825 11835 net.cpp:137] Memory required for data: 1979056896
I0523 21:53:48.296833 11835 layer_factory.hpp:77] Creating layer conv3_dw
I0523 21:53:48.296847 11835 net.cpp:84] Creating Layer conv3_dw
I0523 21:53:48.296852 11835 net.cpp:406] conv3_dw <- conv3_ex
I0523 21:53:48.296871 11835 net.cpp:380] conv3_dw -> conv3_dw
I0523 21:53:48.297107 11835 net.cpp:122] Setting up conv3_dw
I0523 21:53:48.297116 11835 net.cpp:129] Top shape: 64 256 14 12 (2752512)
I0523 21:53:48.297121 11835 net.cpp:137] Memory required for data: 1990066944
I0523 21:53:48.297125 11835 layer_factory.hpp:77] Creating layer conv3_dw/bn
I0523 21:53:48.297133 11835 net.cpp:84] Creating Layer conv3_dw/bn
I0523 21:53:48.297137 11835 net.cpp:406] conv3_dw/bn <- conv3_dw
I0523 21:53:48.297143 11835 net.cpp:367] conv3_dw/bn -> conv3_dw (in-place)
I0523 21:53:48.297344 11835 net.cpp:122] Setting up conv3_dw/bn
I0523 21:53:48.297351 11835 net.cpp:129] Top shape: 64 256 14 12 (2752512)
I0523 21:53:48.297355 11835 net.cpp:137] Memory required for data: 2001076992
I0523 21:53:48.297363 11835 layer_factory.hpp:77] Creating layer conv3_dw/scale
I0523 21:53:48.297376 11835 net.cpp:84] Creating Layer conv3_dw/scale
I0523 21:53:48.297381 11835 net.cpp:406] conv3_dw/scale <- conv3_dw
I0523 21:53:48.297387 11835 net.cpp:367] conv3_dw/scale -> conv3_dw (in-place)
I0523 21:53:48.297430 11835 layer_factory.hpp:77] Creating layer conv3_dw/scale
I0523 21:53:48.297545 11835 net.cpp:122] Setting up conv3_dw/scale
I0523 21:53:48.297552 11835 net.cpp:129] Top shape: 64 256 14 12 (2752512)
I0523 21:53:48.297556 11835 net.cpp:137] Memory required for data: 2012087040
I0523 21:53:48.297562 11835 layer_factory.hpp:77] Creating layer relu3_dw
I0523 21:53:48.297571 11835 net.cpp:84] Creating Layer relu3_dw
I0523 21:53:48.297576 11835 net.cpp:406] relu3_dw <- conv3_dw
I0523 21:53:48.297582 11835 net.cpp:367] relu3_dw -> conv3_dw (in-place)
I0523 21:53:48.299299 11835 net.cpp:122] Setting up relu3_dw
I0523 21:53:48.299315 11835 net.cpp:129] Top shape: 64 256 14 12 (2752512)
I0523 21:53:48.299320 11835 net.cpp:137] Memory required for data: 2023097088
I0523 21:53:48.299326 11835 layer_factory.hpp:77] Creating layer conv3_em
I0523 21:53:48.299340 11835 net.cpp:84] Creating Layer conv3_em
I0523 21:53:48.299345 11835 net.cpp:406] conv3_em <- conv3_dw
I0523 21:53:48.299353 11835 net.cpp:380] conv3_em -> conv3_em
I0523 21:53:48.300843 11835 net.cpp:122] Setting up conv3_em
I0523 21:53:48.300856 11835 net.cpp:129] Top shape: 64 128 14 12 (1376256)
I0523 21:53:48.300860 11835 net.cpp:137] Memory required for data: 2028602112
I0523 21:53:48.300884 11835 layer_factory.hpp:77] Creating layer conv3_em/bn
I0523 21:53:48.300901 11835 net.cpp:84] Creating Layer conv3_em/bn
I0523 21:53:48.300906 11835 net.cpp:406] conv3_em/bn <- conv3_em
I0523 21:53:48.300920 11835 net.cpp:367] conv3_em/bn -> conv3_em (in-place)
I0523 21:53:48.301134 11835 net.cpp:122] Setting up conv3_em/bn
I0523 21:53:48.301142 11835 net.cpp:129] Top shape: 64 128 14 12 (1376256)
I0523 21:53:48.301146 11835 net.cpp:137] Memory required for data: 2034107136
I0523 21:53:48.301158 11835 layer_factory.hpp:77] Creating layer conv3_em/scale
I0523 21:53:48.301170 11835 net.cpp:84] Creating Layer conv3_em/scale
I0523 21:53:48.301177 11835 net.cpp:406] conv3_em/scale <- conv3_em
I0523 21:53:48.301182 11835 net.cpp:367] conv3_em/scale -> conv3_em (in-place)
I0523 21:53:48.301226 11835 layer_factory.hpp:77] Creating layer conv3_em/scale
I0523 21:53:48.301349 11835 net.cpp:122] Setting up conv3_em/scale
I0523 21:53:48.301357 11835 net.cpp:129] Top shape: 64 128 14 12 (1376256)
I0523 21:53:48.301360 11835 net.cpp:137] Memory required for data: 2039612160
I0523 21:53:48.301367 11835 layer_factory.hpp:77] Creating layer conv3_em_conv3_em/scale_0_split
I0523 21:53:48.301375 11835 net.cpp:84] Creating Layer conv3_em_conv3_em/scale_0_split
I0523 21:53:48.301379 11835 net.cpp:406] conv3_em_conv3_em/scale_0_split <- conv3_em
I0523 21:53:48.301385 11835 net.cpp:380] conv3_em_conv3_em/scale_0_split -> conv3_em_conv3_em/scale_0_split_0
I0523 21:53:48.301407 11835 net.cpp:380] conv3_em_conv3_em/scale_0_split -> conv3_em_conv3_em/scale_0_split_1
I0523 21:53:48.301456 11835 net.cpp:122] Setting up conv3_em_conv3_em/scale_0_split
I0523 21:53:48.301465 11835 net.cpp:129] Top shape: 64 128 14 12 (1376256)
I0523 21:53:48.301468 11835 net.cpp:129] Top shape: 64 128 14 12 (1376256)
I0523 21:53:48.301472 11835 net.cpp:137] Memory required for data: 2050622208
I0523 21:53:48.301476 11835 layer_factory.hpp:77] Creating layer conv3_1_ex
I0523 21:53:48.301486 11835 net.cpp:84] Creating Layer conv3_1_ex
I0523 21:53:48.301491 11835 net.cpp:406] conv3_1_ex <- conv3_em_conv3_em/scale_0_split_0
I0523 21:53:48.301501 11835 net.cpp:380] conv3_1_ex -> conv3_1_ex
I0523 21:53:48.303071 11835 net.cpp:122] Setting up conv3_1_ex
I0523 21:53:48.303089 11835 net.cpp:129] Top shape: 64 256 14 12 (2752512)
I0523 21:53:48.303093 11835 net.cpp:137] Memory required for data: 2061632256
I0523 21:53:48.303099 11835 layer_factory.hpp:77] Creating layer conv3_1_ex/bn
I0523 21:53:48.303110 11835 net.cpp:84] Creating Layer conv3_1_ex/bn
I0523 21:53:48.303117 11835 net.cpp:406] conv3_1_ex/bn <- conv3_1_ex
I0523 21:53:48.303125 11835 net.cpp:367] conv3_1_ex/bn -> conv3_1_ex (in-place)
I0523 21:53:48.303359 11835 net.cpp:122] Setting up conv3_1_ex/bn
I0523 21:53:48.303366 11835 net.cpp:129] Top shape: 64 256 14 12 (2752512)
I0523 21:53:48.303370 11835 net.cpp:137] Memory required for data: 2072642304
I0523 21:53:48.303380 11835 layer_factory.hpp:77] Creating layer conv3_1_ex/scale
I0523 21:53:48.303393 11835 net.cpp:84] Creating Layer conv3_1_ex/scale
I0523 21:53:48.303400 11835 net.cpp:406] conv3_1_ex/scale <- conv3_1_ex
I0523 21:53:48.303405 11835 net.cpp:367] conv3_1_ex/scale -> conv3_1_ex (in-place)
I0523 21:53:48.303452 11835 layer_factory.hpp:77] Creating layer conv3_1_ex/scale
I0523 21:53:48.303586 11835 net.cpp:122] Setting up conv3_1_ex/scale
I0523 21:53:48.303594 11835 net.cpp:129] Top shape: 64 256 14 12 (2752512)
I0523 21:53:48.303597 11835 net.cpp:137] Memory required for data: 2083652352
I0523 21:53:48.303604 11835 layer_factory.hpp:77] Creating layer relu3_1_ex
I0523 21:53:48.303611 11835 net.cpp:84] Creating Layer relu3_1_ex
I0523 21:53:48.303614 11835 net.cpp:406] relu3_1_ex <- conv3_1_ex
I0523 21:53:48.303622 11835 net.cpp:367] relu3_1_ex -> conv3_1_ex (in-place)
I0523 21:53:48.303747 11835 net.cpp:122] Setting up relu3_1_ex
I0523 21:53:48.303755 11835 net.cpp:129] Top shape: 64 256 14 12 (2752512)
I0523 21:53:48.303759 11835 net.cpp:137] Memory required for data: 2094662400
I0523 21:53:48.303764 11835 layer_factory.hpp:77] Creating layer conv3_1_dw
I0523 21:53:48.303774 11835 net.cpp:84] Creating Layer conv3_1_dw
I0523 21:53:48.303781 11835 net.cpp:406] conv3_1_dw <- conv3_1_ex
I0523 21:53:48.303788 11835 net.cpp:380] conv3_1_dw -> conv3_1_dw
I0523 21:53:48.304025 11835 net.cpp:122] Setting up conv3_1_dw
I0523 21:53:48.304034 11835 net.cpp:129] Top shape: 64 256 14 12 (2752512)
I0523 21:53:48.304038 11835 net.cpp:137] Memory required for data: 2105672448
I0523 21:53:48.304045 11835 layer_factory.hpp:77] Creating layer conv3_1_dw/bn
I0523 21:53:48.304054 11835 net.cpp:84] Creating Layer conv3_1_dw/bn
I0523 21:53:48.304059 11835 net.cpp:406] conv3_1_dw/bn <- conv3_1_dw
I0523 21:53:48.304064 11835 net.cpp:367] conv3_1_dw/bn -> conv3_1_dw (in-place)
I0523 21:53:48.304281 11835 net.cpp:122] Setting up conv3_1_dw/bn
I0523 21:53:48.304289 11835 net.cpp:129] Top shape: 64 256 14 12 (2752512)
I0523 21:53:48.304293 11835 net.cpp:137] Memory required for data: 2116682496
I0523 21:53:48.304302 11835 layer_factory.hpp:77] Creating layer conv3_1_dw/scale
I0523 21:53:48.304311 11835 net.cpp:84] Creating Layer conv3_1_dw/scale
I0523 21:53:48.304316 11835 net.cpp:406] conv3_1_dw/scale <- conv3_1_dw
I0523 21:53:48.304320 11835 net.cpp:367] conv3_1_dw/scale -> conv3_1_dw (in-place)
I0523 21:53:48.304365 11835 layer_factory.hpp:77] Creating layer conv3_1_dw/scale
I0523 21:53:48.304492 11835 net.cpp:122] Setting up conv3_1_dw/scale
I0523 21:53:48.304514 11835 net.cpp:129] Top shape: 64 256 14 12 (2752512)
I0523 21:53:48.304518 11835 net.cpp:137] Memory required for data: 2127692544
I0523 21:53:48.304524 11835 layer_factory.hpp:77] Creating layer relu3_1_dw
I0523 21:53:48.304531 11835 net.cpp:84] Creating Layer relu3_1_dw
I0523 21:53:48.304535 11835 net.cpp:406] relu3_1_dw <- conv3_1_dw
I0523 21:53:48.304543 11835 net.cpp:367] relu3_1_dw -> conv3_1_dw (in-place)
I0523 21:53:48.304669 11835 net.cpp:122] Setting up relu3_1_dw
I0523 21:53:48.304677 11835 net.cpp:129] Top shape: 64 256 14 12 (2752512)
I0523 21:53:48.304682 11835 net.cpp:137] Memory required for data: 2138702592
I0523 21:53:48.304687 11835 layer_factory.hpp:77] Creating layer conv3_1_em
I0523 21:53:48.304700 11835 net.cpp:84] Creating Layer conv3_1_em
I0523 21:53:48.304706 11835 net.cpp:406] conv3_1_em <- conv3_1_dw
I0523 21:53:48.304713 11835 net.cpp:380] conv3_1_em -> conv3_1_em
I0523 21:53:48.306411 11835 net.cpp:122] Setting up conv3_1_em
I0523 21:53:48.306432 11835 net.cpp:129] Top shape: 64 128 14 12 (1376256)
I0523 21:53:48.306435 11835 net.cpp:137] Memory required for data: 2144207616
I0523 21:53:48.306444 11835 layer_factory.hpp:77] Creating layer conv3_1_em/bn
I0523 21:53:48.306454 11835 net.cpp:84] Creating Layer conv3_1_em/bn
I0523 21:53:48.306459 11835 net.cpp:406] conv3_1_em/bn <- conv3_1_em
I0523 21:53:48.306473 11835 net.cpp:367] conv3_1_em/bn -> conv3_1_em (in-place)
I0523 21:53:48.306726 11835 net.cpp:122] Setting up conv3_1_em/bn
I0523 21:53:48.306747 11835 net.cpp:129] Top shape: 64 128 14 12 (1376256)
I0523 21:53:48.306751 11835 net.cpp:137] Memory required for data: 2149712640
I0523 21:53:48.306758 11835 layer_factory.hpp:77] Creating layer conv3_1_em/scale
I0523 21:53:48.306766 11835 net.cpp:84] Creating Layer conv3_1_em/scale
I0523 21:53:48.306771 11835 net.cpp:406] conv3_1_em/scale <- conv3_1_em
I0523 21:53:48.306777 11835 net.cpp:367] conv3_1_em/scale -> conv3_1_em (in-place)
I0523 21:53:48.306830 11835 layer_factory.hpp:77] Creating layer conv3_1_em/scale
I0523 21:53:48.306962 11835 net.cpp:122] Setting up conv3_1_em/scale
I0523 21:53:48.306972 11835 net.cpp:129] Top shape: 64 128 14 12 (1376256)
I0523 21:53:48.306977 11835 net.cpp:137] Memory required for data: 2155217664
I0523 21:53:48.306982 11835 layer_factory.hpp:77] Creating layer res3_1
I0523 21:53:48.306991 11835 net.cpp:84] Creating Layer res3_1
I0523 21:53:48.306998 11835 net.cpp:406] res3_1 <- conv3_em_conv3_em/scale_0_split_1
I0523 21:53:48.307003 11835 net.cpp:406] res3_1 <- conv3_1_em
I0523 21:53:48.307008 11835 net.cpp:380] res3_1 -> res3_1
I0523 21:53:48.307036 11835 net.cpp:122] Setting up res3_1
I0523 21:53:48.307044 11835 net.cpp:129] Top shape: 64 128 14 12 (1376256)
I0523 21:53:48.307047 11835 net.cpp:137] Memory required for data: 2160722688
I0523 21:53:48.307051 11835 layer_factory.hpp:77] Creating layer res3_1_res3_1_0_split
I0523 21:53:48.307060 11835 net.cpp:84] Creating Layer res3_1_res3_1_0_split
I0523 21:53:48.307063 11835 net.cpp:406] res3_1_res3_1_0_split <- res3_1
I0523 21:53:48.307071 11835 net.cpp:380] res3_1_res3_1_0_split -> res3_1_res3_1_0_split_0
I0523 21:53:48.307077 11835 net.cpp:380] res3_1_res3_1_0_split -> res3_1_res3_1_0_split_1
I0523 21:53:48.307116 11835 net.cpp:122] Setting up res3_1_res3_1_0_split
I0523 21:53:48.307122 11835 net.cpp:129] Top shape: 64 128 14 12 (1376256)
I0523 21:53:48.307127 11835 net.cpp:129] Top shape: 64 128 14 12 (1376256)
I0523 21:53:48.307130 11835 net.cpp:137] Memory required for data: 2171732736
I0523 21:53:48.307133 11835 layer_factory.hpp:77] Creating layer conv3_2_ex
I0523 21:53:48.307145 11835 net.cpp:84] Creating Layer conv3_2_ex
I0523 21:53:48.307152 11835 net.cpp:406] conv3_2_ex <- res3_1_res3_1_0_split_0
I0523 21:53:48.307158 11835 net.cpp:380] conv3_2_ex -> conv3_2_ex
I0523 21:53:48.309022 11835 net.cpp:122] Setting up conv3_2_ex
I0523 21:53:48.309041 11835 net.cpp:129] Top shape: 64 256 14 12 (2752512)
I0523 21:53:48.309046 11835 net.cpp:137] Memory required for data: 2182742784
I0523 21:53:48.309052 11835 layer_factory.hpp:77] Creating layer conv3_2_ex/bn
I0523 21:53:48.309080 11835 net.cpp:84] Creating Layer conv3_2_ex/bn
I0523 21:53:48.309087 11835 net.cpp:406] conv3_2_ex/bn <- conv3_2_ex
I0523 21:53:48.309093 11835 net.cpp:367] conv3_2_ex/bn -> conv3_2_ex (in-place)
I0523 21:53:48.309325 11835 net.cpp:122] Setting up conv3_2_ex/bn
I0523 21:53:48.309334 11835 net.cpp:129] Top shape: 64 256 14 12 (2752512)
I0523 21:53:48.309337 11835 net.cpp:137] Memory required for data: 2193752832
I0523 21:53:48.309346 11835 layer_factory.hpp:77] Creating layer conv3_2_ex/scale
I0523 21:53:48.309360 11835 net.cpp:84] Creating Layer conv3_2_ex/scale
I0523 21:53:48.309365 11835 net.cpp:406] conv3_2_ex/scale <- conv3_2_ex
I0523 21:53:48.309370 11835 net.cpp:367] conv3_2_ex/scale -> conv3_2_ex (in-place)
I0523 21:53:48.309419 11835 layer_factory.hpp:77] Creating layer conv3_2_ex/scale
I0523 21:53:48.309554 11835 net.cpp:122] Setting up conv3_2_ex/scale
I0523 21:53:48.309562 11835 net.cpp:129] Top shape: 64 256 14 12 (2752512)
I0523 21:53:48.309566 11835 net.cpp:137] Memory required for data: 2204762880
I0523 21:53:48.309574 11835 layer_factory.hpp:77] Creating layer relu3_2_ex
I0523 21:53:48.309582 11835 net.cpp:84] Creating Layer relu3_2_ex
I0523 21:53:48.309587 11835 net.cpp:406] relu3_2_ex <- conv3_2_ex
I0523 21:53:48.309594 11835 net.cpp:367] relu3_2_ex -> conv3_2_ex (in-place)
I0523 21:53:48.309720 11835 net.cpp:122] Setting up relu3_2_ex
I0523 21:53:48.309728 11835 net.cpp:129] Top shape: 64 256 14 12 (2752512)
I0523 21:53:48.309732 11835 net.cpp:137] Memory required for data: 2215772928
I0523 21:53:48.309737 11835 layer_factory.hpp:77] Creating layer conv3_2_dw
I0523 21:53:48.309748 11835 net.cpp:84] Creating Layer conv3_2_dw
I0523 21:53:48.309754 11835 net.cpp:406] conv3_2_dw <- conv3_2_ex
I0523 21:53:48.309761 11835 net.cpp:380] conv3_2_dw -> conv3_2_dw
I0523 21:53:48.309999 11835 net.cpp:122] Setting up conv3_2_dw
I0523 21:53:48.310009 11835 net.cpp:129] Top shape: 64 256 14 12 (2752512)
I0523 21:53:48.310011 11835 net.cpp:137] Memory required for data: 2226782976
I0523 21:53:48.310016 11835 layer_factory.hpp:77] Creating layer conv3_2_dw/bn
I0523 21:53:48.310024 11835 net.cpp:84] Creating Layer conv3_2_dw/bn
I0523 21:53:48.310029 11835 net.cpp:406] conv3_2_dw/bn <- conv3_2_dw
I0523 21:53:48.310035 11835 net.cpp:367] conv3_2_dw/bn -> conv3_2_dw (in-place)
I0523 21:53:48.310253 11835 net.cpp:122] Setting up conv3_2_dw/bn
I0523 21:53:48.310261 11835 net.cpp:129] Top shape: 64 256 14 12 (2752512)
I0523 21:53:48.310266 11835 net.cpp:137] Memory required for data: 2237793024
I0523 21:53:48.310273 11835 layer_factory.hpp:77] Creating layer conv3_2_dw/scale
I0523 21:53:48.310284 11835 net.cpp:84] Creating Layer conv3_2_dw/scale
I0523 21:53:48.310290 11835 net.cpp:406] conv3_2_dw/scale <- conv3_2_dw
I0523 21:53:48.310298 11835 net.cpp:367] conv3_2_dw/scale -> conv3_2_dw (in-place)
I0523 21:53:48.310339 11835 layer_factory.hpp:77] Creating layer conv3_2_dw/scale
I0523 21:53:48.310465 11835 net.cpp:122] Setting up conv3_2_dw/scale
I0523 21:53:48.310475 11835 net.cpp:129] Top shape: 64 256 14 12 (2752512)
I0523 21:53:48.310482 11835 net.cpp:137] Memory required for data: 2248803072
I0523 21:53:48.310489 11835 layer_factory.hpp:77] Creating layer relu3_2_dw
I0523 21:53:48.310497 11835 net.cpp:84] Creating Layer relu3_2_dw
I0523 21:53:48.310501 11835 net.cpp:406] relu3_2_dw <- conv3_2_dw
I0523 21:53:48.310506 11835 net.cpp:367] relu3_2_dw -> conv3_2_dw (in-place)
I0523 21:53:48.310632 11835 net.cpp:122] Setting up relu3_2_dw
I0523 21:53:48.310642 11835 net.cpp:129] Top shape: 64 256 14 12 (2752512)
I0523 21:53:48.310644 11835 net.cpp:137] Memory required for data: 2259813120
I0523 21:53:48.310649 11835 layer_factory.hpp:77] Creating layer conv3_2_em
I0523 21:53:48.310662 11835 net.cpp:84] Creating Layer conv3_2_em
I0523 21:53:48.310668 11835 net.cpp:406] conv3_2_em <- conv3_2_dw
I0523 21:53:48.310678 11835 net.cpp:380] conv3_2_em -> conv3_2_em
I0523 21:53:48.312343 11835 net.cpp:122] Setting up conv3_2_em
I0523 21:53:48.312361 11835 net.cpp:129] Top shape: 64 128 14 12 (1376256)
I0523 21:53:48.312381 11835 net.cpp:137] Memory required for data: 2265318144
I0523 21:53:48.312388 11835 layer_factory.hpp:77] Creating layer conv3_2_em/bn
I0523 21:53:48.312402 11835 net.cpp:84] Creating Layer conv3_2_em/bn
I0523 21:53:48.312407 11835 net.cpp:406] conv3_2_em/bn <- conv3_2_em
I0523 21:53:48.312417 11835 net.cpp:367] conv3_2_em/bn -> conv3_2_em (in-place)
I0523 21:53:48.312651 11835 net.cpp:122] Setting up conv3_2_em/bn
I0523 21:53:48.312660 11835 net.cpp:129] Top shape: 64 128 14 12 (1376256)
I0523 21:53:48.312664 11835 net.cpp:137] Memory required for data: 2270823168
I0523 21:53:48.312671 11835 layer_factory.hpp:77] Creating layer conv3_2_em/scale
I0523 21:53:48.312687 11835 net.cpp:84] Creating Layer conv3_2_em/scale
I0523 21:53:48.312693 11835 net.cpp:406] conv3_2_em/scale <- conv3_2_em
I0523 21:53:48.312700 11835 net.cpp:367] conv3_2_em/scale -> conv3_2_em (in-place)
I0523 21:53:48.312747 11835 layer_factory.hpp:77] Creating layer conv3_2_em/scale
I0523 21:53:48.312882 11835 net.cpp:122] Setting up conv3_2_em/scale
I0523 21:53:48.312891 11835 net.cpp:129] Top shape: 64 128 14 12 (1376256)
I0523 21:53:48.312894 11835 net.cpp:137] Memory required for data: 2276328192
I0523 21:53:48.312901 11835 layer_factory.hpp:77] Creating layer res3_2
I0523 21:53:48.312909 11835 net.cpp:84] Creating Layer res3_2
I0523 21:53:48.312916 11835 net.cpp:406] res3_2 <- res3_1_res3_1_0_split_1
I0523 21:53:48.312921 11835 net.cpp:406] res3_2 <- conv3_2_em
I0523 21:53:48.312927 11835 net.cpp:380] res3_2 -> res3_2
I0523 21:53:48.312958 11835 net.cpp:122] Setting up res3_2
I0523 21:53:48.312965 11835 net.cpp:129] Top shape: 64 128 14 12 (1376256)
I0523 21:53:48.312968 11835 net.cpp:137] Memory required for data: 2281833216
I0523 21:53:48.312973 11835 layer_factory.hpp:77] Creating layer res3_2_res3_2_0_split
I0523 21:53:48.312978 11835 net.cpp:84] Creating Layer res3_2_res3_2_0_split
I0523 21:53:48.312981 11835 net.cpp:406] res3_2_res3_2_0_split <- res3_2
I0523 21:53:48.312988 11835 net.cpp:380] res3_2_res3_2_0_split -> res3_2_res3_2_0_split_0
I0523 21:53:48.312994 11835 net.cpp:380] res3_2_res3_2_0_split -> res3_2_res3_2_0_split_1
I0523 21:53:48.313036 11835 net.cpp:122] Setting up res3_2_res3_2_0_split
I0523 21:53:48.313043 11835 net.cpp:129] Top shape: 64 128 14 12 (1376256)
I0523 21:53:48.313048 11835 net.cpp:129] Top shape: 64 128 14 12 (1376256)
I0523 21:53:48.313051 11835 net.cpp:137] Memory required for data: 2292843264
I0523 21:53:48.313055 11835 layer_factory.hpp:77] Creating layer conv3_3_ex
I0523 21:53:48.313067 11835 net.cpp:84] Creating Layer conv3_3_ex
I0523 21:53:48.313072 11835 net.cpp:406] conv3_3_ex <- res3_2_res3_2_0_split_0
I0523 21:53:48.313079 11835 net.cpp:380] conv3_3_ex -> conv3_3_ex
I0523 21:53:48.314826 11835 net.cpp:122] Setting up conv3_3_ex
I0523 21:53:48.314846 11835 net.cpp:129] Top shape: 64 256 14 12 (2752512)
I0523 21:53:48.314852 11835 net.cpp:137] Memory required for data: 2303853312
I0523 21:53:48.314862 11835 layer_factory.hpp:77] Creating layer conv3_3_ex/bn
I0523 21:53:48.314872 11835 net.cpp:84] Creating Layer conv3_3_ex/bn
I0523 21:53:48.314878 11835 net.cpp:406] conv3_3_ex/bn <- conv3_3_ex
I0523 21:53:48.314896 11835 net.cpp:367] conv3_3_ex/bn -> conv3_3_ex (in-place)
I0523 21:53:48.315136 11835 net.cpp:122] Setting up conv3_3_ex/bn
I0523 21:53:48.315145 11835 net.cpp:129] Top shape: 64 256 14 12 (2752512)
I0523 21:53:48.315150 11835 net.cpp:137] Memory required for data: 2314863360
I0523 21:53:48.315157 11835 layer_factory.hpp:77] Creating layer conv3_3_ex/scale
I0523 21:53:48.315166 11835 net.cpp:84] Creating Layer conv3_3_ex/scale
I0523 21:53:48.315172 11835 net.cpp:406] conv3_3_ex/scale <- conv3_3_ex
I0523 21:53:48.315178 11835 net.cpp:367] conv3_3_ex/scale -> conv3_3_ex (in-place)
I0523 21:53:48.315223 11835 layer_factory.hpp:77] Creating layer conv3_3_ex/scale
I0523 21:53:48.315362 11835 net.cpp:122] Setting up conv3_3_ex/scale
I0523 21:53:48.315372 11835 net.cpp:129] Top shape: 64 256 14 12 (2752512)
I0523 21:53:48.315377 11835 net.cpp:137] Memory required for data: 2325873408
I0523 21:53:48.315398 11835 layer_factory.hpp:77] Creating layer relu3_3_ex
I0523 21:53:48.315410 11835 net.cpp:84] Creating Layer relu3_3_ex
I0523 21:53:48.315415 11835 net.cpp:406] relu3_3_ex <- conv3_3_ex
I0523 21:53:48.315420 11835 net.cpp:367] relu3_3_ex -> conv3_3_ex (in-place)
I0523 21:53:48.315559 11835 net.cpp:122] Setting up relu3_3_ex
I0523 21:53:48.315567 11835 net.cpp:129] Top shape: 64 256 14 12 (2752512)
I0523 21:53:48.315572 11835 net.cpp:137] Memory required for data: 2336883456
I0523 21:53:48.315577 11835 layer_factory.hpp:77] Creating layer conv3_3_dw
I0523 21:53:48.315585 11835 net.cpp:84] Creating Layer conv3_3_dw
I0523 21:53:48.315591 11835 net.cpp:406] conv3_3_dw <- conv3_3_ex
I0523 21:53:48.315598 11835 net.cpp:380] conv3_3_dw -> conv3_3_dw
I0523 21:53:48.315843 11835 net.cpp:122] Setting up conv3_3_dw
I0523 21:53:48.315852 11835 net.cpp:129] Top shape: 64 256 14 12 (2752512)
I0523 21:53:48.315855 11835 net.cpp:137] Memory required for data: 2347893504
I0523 21:53:48.315863 11835 layer_factory.hpp:77] Creating layer conv3_3_dw/bn
I0523 21:53:48.315872 11835 net.cpp:84] Creating Layer conv3_3_dw/bn
I0523 21:53:48.315877 11835 net.cpp:406] conv3_3_dw/bn <- conv3_3_dw
I0523 21:53:48.315883 11835 net.cpp:367] conv3_3_dw/bn -> conv3_3_dw (in-place)
I0523 21:53:48.316109 11835 net.cpp:122] Setting up conv3_3_dw/bn
I0523 21:53:48.316117 11835 net.cpp:129] Top shape: 64 256 14 12 (2752512)
I0523 21:53:48.316120 11835 net.cpp:137] Memory required for data: 2358903552
I0523 21:53:48.316128 11835 layer_factory.hpp:77] Creating layer conv3_3_dw/scale
I0523 21:53:48.316141 11835 net.cpp:84] Creating Layer conv3_3_dw/scale
I0523 21:53:48.316146 11835 net.cpp:406] conv3_3_dw/scale <- conv3_3_dw
I0523 21:53:48.316153 11835 net.cpp:367] conv3_3_dw/scale -> conv3_3_dw (in-place)
I0523 21:53:48.316197 11835 layer_factory.hpp:77] Creating layer conv3_3_dw/scale
I0523 21:53:48.316329 11835 net.cpp:122] Setting up conv3_3_dw/scale
I0523 21:53:48.316336 11835 net.cpp:129] Top shape: 64 256 14 12 (2752512)
I0523 21:53:48.316339 11835 net.cpp:137] Memory required for data: 2369913600
I0523 21:53:48.316345 11835 layer_factory.hpp:77] Creating layer relu3_3_dw
I0523 21:53:48.316351 11835 net.cpp:84] Creating Layer relu3_3_dw
I0523 21:53:48.316355 11835 net.cpp:406] relu3_3_dw <- conv3_3_dw
I0523 21:53:48.316362 11835 net.cpp:367] relu3_3_dw -> conv3_3_dw (in-place)
I0523 21:53:48.316493 11835 net.cpp:122] Setting up relu3_3_dw
I0523 21:53:48.316501 11835 net.cpp:129] Top shape: 64 256 14 12 (2752512)
I0523 21:53:48.316504 11835 net.cpp:137] Memory required for data: 2380923648
I0523 21:53:48.316509 11835 layer_factory.hpp:77] Creating layer conv3_3_em
I0523 21:53:48.316529 11835 net.cpp:84] Creating Layer conv3_3_em
I0523 21:53:48.316534 11835 net.cpp:406] conv3_3_em <- conv3_3_dw
I0523 21:53:48.316541 11835 net.cpp:380] conv3_3_em -> conv3_3_em
I0523 21:53:48.319730 11835 net.cpp:122] Setting up conv3_3_em
I0523 21:53:48.319749 11835 net.cpp:129] Top shape: 64 128 14 12 (1376256)
I0523 21:53:48.319756 11835 net.cpp:137] Memory required for data: 2386428672
I0523 21:53:48.319762 11835 layer_factory.hpp:77] Creating layer conv3_3_em/bn
I0523 21:53:48.319775 11835 net.cpp:84] Creating Layer conv3_3_em/bn
I0523 21:53:48.319782 11835 net.cpp:406] conv3_3_em/bn <- conv3_3_em
I0523 21:53:48.319787 11835 net.cpp:367] conv3_3_em/bn -> conv3_3_em (in-place)
I0523 21:53:48.320034 11835 net.cpp:122] Setting up conv3_3_em/bn
I0523 21:53:48.320041 11835 net.cpp:129] Top shape: 64 128 14 12 (1376256)
I0523 21:53:48.320045 11835 net.cpp:137] Memory required for data: 2391933696
I0523 21:53:48.320052 11835 layer_factory.hpp:77] Creating layer conv3_3_em/scale
I0523 21:53:48.320061 11835 net.cpp:84] Creating Layer conv3_3_em/scale
I0523 21:53:48.320065 11835 net.cpp:406] conv3_3_em/scale <- conv3_3_em
I0523 21:53:48.320073 11835 net.cpp:367] conv3_3_em/scale -> conv3_3_em (in-place)
I0523 21:53:48.320121 11835 layer_factory.hpp:77] Creating layer conv3_3_em/scale
I0523 21:53:48.320256 11835 net.cpp:122] Setting up conv3_3_em/scale
I0523 21:53:48.320278 11835 net.cpp:129] Top shape: 64 128 14 12 (1376256)
I0523 21:53:48.320282 11835 net.cpp:137] Memory required for data: 2397438720
I0523 21:53:48.320288 11835 layer_factory.hpp:77] Creating layer res3_3
I0523 21:53:48.320298 11835 net.cpp:84] Creating Layer res3_3
I0523 21:53:48.320304 11835 net.cpp:406] res3_3 <- res3_2_res3_2_0_split_1
I0523 21:53:48.320309 11835 net.cpp:406] res3_3 <- conv3_3_em
I0523 21:53:48.320318 11835 net.cpp:380] res3_3 -> res3_3
I0523 21:53:48.320348 11835 net.cpp:122] Setting up res3_3
I0523 21:53:48.320358 11835 net.cpp:129] Top shape: 64 128 14 12 (1376256)
I0523 21:53:48.320363 11835 net.cpp:137] Memory required for data: 2402943744
I0523 21:53:48.320367 11835 layer_factory.hpp:77] Creating layer res3_3_res3_3_0_split
I0523 21:53:48.320376 11835 net.cpp:84] Creating Layer res3_3_res3_3_0_split
I0523 21:53:48.320380 11835 net.cpp:406] res3_3_res3_3_0_split <- res3_3
I0523 21:53:48.320385 11835 net.cpp:380] res3_3_res3_3_0_split -> res3_3_res3_3_0_split_0
I0523 21:53:48.320392 11835 net.cpp:380] res3_3_res3_3_0_split -> res3_3_res3_3_0_split_1
I0523 21:53:48.320436 11835 net.cpp:122] Setting up res3_3_res3_3_0_split
I0523 21:53:48.320442 11835 net.cpp:129] Top shape: 64 128 14 12 (1376256)
I0523 21:53:48.320446 11835 net.cpp:129] Top shape: 64 128 14 12 (1376256)
I0523 21:53:48.320451 11835 net.cpp:137] Memory required for data: 2413953792
I0523 21:53:48.320454 11835 layer_factory.hpp:77] Creating layer conv3_4_ex
I0523 21:53:48.320466 11835 net.cpp:84] Creating Layer conv3_4_ex
I0523 21:53:48.320472 11835 net.cpp:406] conv3_4_ex <- res3_3_res3_3_0_split_0
I0523 21:53:48.320478 11835 net.cpp:380] conv3_4_ex -> conv3_4_ex
I0523 21:53:48.322069 11835 net.cpp:122] Setting up conv3_4_ex
I0523 21:53:48.322088 11835 net.cpp:129] Top shape: 64 256 14 12 (2752512)
I0523 21:53:48.322093 11835 net.cpp:137] Memory required for data: 2424963840
I0523 21:53:48.322099 11835 layer_factory.hpp:77] Creating layer conv3_4_ex/bn
I0523 21:53:48.322111 11835 net.cpp:84] Creating Layer conv3_4_ex/bn
I0523 21:53:48.322118 11835 net.cpp:406] conv3_4_ex/bn <- conv3_4_ex
I0523 21:53:48.322125 11835 net.cpp:367] conv3_4_ex/bn -> conv3_4_ex (in-place)
I0523 21:53:48.322366 11835 net.cpp:122] Setting up conv3_4_ex/bn
I0523 21:53:48.322376 11835 net.cpp:129] Top shape: 64 256 14 12 (2752512)
I0523 21:53:48.322378 11835 net.cpp:137] Memory required for data: 2435973888
I0523 21:53:48.322387 11835 layer_factory.hpp:77] Creating layer conv3_4_ex/scale
I0523 21:53:48.322396 11835 net.cpp:84] Creating Layer conv3_4_ex/scale
I0523 21:53:48.322402 11835 net.cpp:406] conv3_4_ex/scale <- conv3_4_ex
I0523 21:53:48.322407 11835 net.cpp:367] conv3_4_ex/scale -> conv3_4_ex (in-place)
I0523 21:53:48.322453 11835 layer_factory.hpp:77] Creating layer conv3_4_ex/scale
I0523 21:53:48.322585 11835 net.cpp:122] Setting up conv3_4_ex/scale
I0523 21:53:48.322593 11835 net.cpp:129] Top shape: 64 256 14 12 (2752512)
I0523 21:53:48.322597 11835 net.cpp:137] Memory required for data: 2446983936
I0523 21:53:48.322607 11835 layer_factory.hpp:77] Creating layer relu3_4_ex
I0523 21:53:48.322619 11835 net.cpp:84] Creating Layer relu3_4_ex
I0523 21:53:48.322624 11835 net.cpp:406] relu3_4_ex <- conv3_4_ex
I0523 21:53:48.322629 11835 net.cpp:367] relu3_4_ex -> conv3_4_ex (in-place)
I0523 21:53:48.322770 11835 net.cpp:122] Setting up relu3_4_ex
I0523 21:53:48.322779 11835 net.cpp:129] Top shape: 64 256 14 12 (2752512)
I0523 21:53:48.322783 11835 net.cpp:137] Memory required for data: 2457993984
I0523 21:53:48.322788 11835 layer_factory.hpp:77] Creating layer conv3_4_dw
I0523 21:53:48.322818 11835 net.cpp:84] Creating Layer conv3_4_dw
I0523 21:53:48.322824 11835 net.cpp:406] conv3_4_dw <- conv3_4_ex
I0523 21:53:48.322839 11835 net.cpp:380] conv3_4_dw -> conv3_4_dw
I0523 21:53:48.323086 11835 net.cpp:122] Setting up conv3_4_dw
I0523 21:53:48.323093 11835 net.cpp:129] Top shape: 64 256 14 12 (2752512)
I0523 21:53:48.323097 11835 net.cpp:137] Memory required for data: 2469004032
I0523 21:53:48.323102 11835 layer_factory.hpp:77] Creating layer conv3_4_dw/bn
I0523 21:53:48.323124 11835 net.cpp:84] Creating Layer conv3_4_dw/bn
I0523 21:53:48.323132 11835 net.cpp:406] conv3_4_dw/bn <- conv3_4_dw
I0523 21:53:48.323139 11835 net.cpp:367] conv3_4_dw/bn -> conv3_4_dw (in-place)
I0523 21:53:48.323367 11835 net.cpp:122] Setting up conv3_4_dw/bn
I0523 21:53:48.323376 11835 net.cpp:129] Top shape: 64 256 14 12 (2752512)
I0523 21:53:48.323379 11835 net.cpp:137] Memory required for data: 2480014080
I0523 21:53:48.323387 11835 layer_factory.hpp:77] Creating layer conv3_4_dw/scale
I0523 21:53:48.323400 11835 net.cpp:84] Creating Layer conv3_4_dw/scale
I0523 21:53:48.323405 11835 net.cpp:406] conv3_4_dw/scale <- conv3_4_dw
I0523 21:53:48.323410 11835 net.cpp:367] conv3_4_dw/scale -> conv3_4_dw (in-place)
I0523 21:53:48.323457 11835 layer_factory.hpp:77] Creating layer conv3_4_dw/scale
I0523 21:53:48.323588 11835 net.cpp:122] Setting up conv3_4_dw/scale
I0523 21:53:48.323598 11835 net.cpp:129] Top shape: 64 256 14 12 (2752512)
I0523 21:53:48.323602 11835 net.cpp:137] Memory required for data: 2491024128
I0523 21:53:48.323608 11835 layer_factory.hpp:77] Creating layer relu3_4_dw
I0523 21:53:48.323616 11835 net.cpp:84] Creating Layer relu3_4_dw
I0523 21:53:48.323621 11835 net.cpp:406] relu3_4_dw <- conv3_4_dw
I0523 21:53:48.323626 11835 net.cpp:367] relu3_4_dw -> conv3_4_dw (in-place)
I0523 21:53:48.323757 11835 net.cpp:122] Setting up relu3_4_dw
I0523 21:53:48.323766 11835 net.cpp:129] Top shape: 64 256 14 12 (2752512)
I0523 21:53:48.323770 11835 net.cpp:137] Memory required for data: 2502034176
I0523 21:53:48.323774 11835 layer_factory.hpp:77] Creating layer conv3_4_em
I0523 21:53:48.323784 11835 net.cpp:84] Creating Layer conv3_4_em
I0523 21:53:48.323789 11835 net.cpp:406] conv3_4_em <- conv3_4_dw
I0523 21:53:48.323796 11835 net.cpp:380] conv3_4_em -> conv3_4_em
I0523 21:53:48.325822 11835 net.cpp:122] Setting up conv3_4_em
I0523 21:53:48.325840 11835 net.cpp:129] Top shape: 64 128 14 12 (1376256)
I0523 21:53:48.325846 11835 net.cpp:137] Memory required for data: 2507539200
I0523 21:53:48.325852 11835 layer_factory.hpp:77] Creating layer conv3_4_em/bn
I0523 21:53:48.325878 11835 net.cpp:84] Creating Layer conv3_4_em/bn
I0523 21:53:48.325886 11835 net.cpp:406] conv3_4_em/bn <- conv3_4_em
I0523 21:53:48.325902 11835 net.cpp:367] conv3_4_em/bn -> conv3_4_em (in-place)
I0523 21:53:48.326151 11835 net.cpp:122] Setting up conv3_4_em/bn
I0523 21:53:48.326160 11835 net.cpp:129] Top shape: 64 128 14 12 (1376256)
I0523 21:53:48.326164 11835 net.cpp:137] Memory required for data: 2513044224
I0523 21:53:48.326185 11835 layer_factory.hpp:77] Creating layer conv3_4_em/scale
I0523 21:53:48.326195 11835 net.cpp:84] Creating Layer conv3_4_em/scale
I0523 21:53:48.326200 11835 net.cpp:406] conv3_4_em/scale <- conv3_4_em
I0523 21:53:48.326206 11835 net.cpp:367] conv3_4_em/scale -> conv3_4_em (in-place)
I0523 21:53:48.326258 11835 layer_factory.hpp:77] Creating layer conv3_4_em/scale
I0523 21:53:48.326393 11835 net.cpp:122] Setting up conv3_4_em/scale
I0523 21:53:48.326401 11835 net.cpp:129] Top shape: 64 128 14 12 (1376256)
I0523 21:53:48.326405 11835 net.cpp:137] Memory required for data: 2518549248
I0523 21:53:48.326411 11835 layer_factory.hpp:77] Creating layer res3_4
I0523 21:53:48.326418 11835 net.cpp:84] Creating Layer res3_4
I0523 21:53:48.326422 11835 net.cpp:406] res3_4 <- res3_3_res3_3_0_split_1
I0523 21:53:48.326427 11835 net.cpp:406] res3_4 <- conv3_4_em
I0523 21:53:48.326436 11835 net.cpp:380] res3_4 -> res3_4
I0523 21:53:48.326462 11835 net.cpp:122] Setting up res3_4
I0523 21:53:48.326469 11835 net.cpp:129] Top shape: 64 128 14 12 (1376256)
I0523 21:53:48.326473 11835 net.cpp:137] Memory required for data: 2524054272
I0523 21:53:48.326476 11835 layer_factory.hpp:77] Creating layer res3_4_res3_4_0_split
I0523 21:53:48.326484 11835 net.cpp:84] Creating Layer res3_4_res3_4_0_split
I0523 21:53:48.326488 11835 net.cpp:406] res3_4_res3_4_0_split <- res3_4
I0523 21:53:48.326493 11835 net.cpp:380] res3_4_res3_4_0_split -> res3_4_res3_4_0_split_0
I0523 21:53:48.326514 11835 net.cpp:380] res3_4_res3_4_0_split -> res3_4_res3_4_0_split_1
I0523 21:53:48.326561 11835 net.cpp:122] Setting up res3_4_res3_4_0_split
I0523 21:53:48.326568 11835 net.cpp:129] Top shape: 64 128 14 12 (1376256)
I0523 21:53:48.326573 11835 net.cpp:129] Top shape: 64 128 14 12 (1376256)
I0523 21:53:48.326576 11835 net.cpp:137] Memory required for data: 2535064320
I0523 21:53:48.326580 11835 layer_factory.hpp:77] Creating layer conv3_5_ex
I0523 21:53:48.326592 11835 net.cpp:84] Creating Layer conv3_5_ex
I0523 21:53:48.326597 11835 net.cpp:406] conv3_5_ex <- res3_4_res3_4_0_split_0
I0523 21:53:48.326607 11835 net.cpp:380] conv3_5_ex -> conv3_5_ex
I0523 21:53:48.328655 11835 net.cpp:122] Setting up conv3_5_ex
I0523 21:53:48.328673 11835 net.cpp:129] Top shape: 64 256 14 12 (2752512)
I0523 21:53:48.328678 11835 net.cpp:137] Memory required for data: 2546074368
I0523 21:53:48.328689 11835 layer_factory.hpp:77] Creating layer conv3_5_ex/bn
I0523 21:53:48.328701 11835 net.cpp:84] Creating Layer conv3_5_ex/bn
I0523 21:53:48.328708 11835 net.cpp:406] conv3_5_ex/bn <- conv3_5_ex
I0523 21:53:48.328716 11835 net.cpp:367] conv3_5_ex/bn -> conv3_5_ex (in-place)
I0523 21:53:48.328968 11835 net.cpp:122] Setting up conv3_5_ex/bn
I0523 21:53:48.328976 11835 net.cpp:129] Top shape: 64 256 14 12 (2752512)
I0523 21:53:48.328980 11835 net.cpp:137] Memory required for data: 2557084416
I0523 21:53:48.328989 11835 layer_factory.hpp:77] Creating layer conv3_5_ex/scale
I0523 21:53:48.328999 11835 net.cpp:84] Creating Layer conv3_5_ex/scale
I0523 21:53:48.329005 11835 net.cpp:406] conv3_5_ex/scale <- conv3_5_ex
I0523 21:53:48.329010 11835 net.cpp:367] conv3_5_ex/scale -> conv3_5_ex (in-place)
I0523 21:53:48.329056 11835 layer_factory.hpp:77] Creating layer conv3_5_ex/scale
I0523 21:53:48.329190 11835 net.cpp:122] Setting up conv3_5_ex/scale
I0523 21:53:48.329197 11835 net.cpp:129] Top shape: 64 256 14 12 (2752512)
I0523 21:53:48.329201 11835 net.cpp:137] Memory required for data: 2568094464
I0523 21:53:48.329207 11835 layer_factory.hpp:77] Creating layer relu3_5_ex
I0523 21:53:48.329218 11835 net.cpp:84] Creating Layer relu3_5_ex
I0523 21:53:48.329224 11835 net.cpp:406] relu3_5_ex <- conv3_5_ex
I0523 21:53:48.329229 11835 net.cpp:367] relu3_5_ex -> conv3_5_ex (in-place)
I0523 21:53:48.329370 11835 net.cpp:122] Setting up relu3_5_ex
I0523 21:53:48.329378 11835 net.cpp:129] Top shape: 64 256 14 12 (2752512)
I0523 21:53:48.329382 11835 net.cpp:137] Memory required for data: 2579104512
I0523 21:53:48.329387 11835 layer_factory.hpp:77] Creating layer conv3_5_dw
I0523 21:53:48.329401 11835 net.cpp:84] Creating Layer conv3_5_dw
I0523 21:53:48.329407 11835 net.cpp:406] conv3_5_dw <- conv3_5_ex
I0523 21:53:48.329413 11835 net.cpp:380] conv3_5_dw -> conv3_5_dw
I0523 21:53:48.329663 11835 net.cpp:122] Setting up conv3_5_dw
I0523 21:53:48.329670 11835 net.cpp:129] Top shape: 64 256 14 12 (2752512)
I0523 21:53:48.329674 11835 net.cpp:137] Memory required for data: 2590114560
I0523 21:53:48.329679 11835 layer_factory.hpp:77] Creating layer conv3_5_dw/bn
I0523 21:53:48.329686 11835 net.cpp:84] Creating Layer conv3_5_dw/bn
I0523 21:53:48.329690 11835 net.cpp:406] conv3_5_dw/bn <- conv3_5_dw
I0523 21:53:48.329695 11835 net.cpp:367] conv3_5_dw/bn -> conv3_5_dw (in-place)
I0523 21:53:48.329926 11835 net.cpp:122] Setting up conv3_5_dw/bn
I0523 21:53:48.329934 11835 net.cpp:129] Top shape: 64 256 14 12 (2752512)
I0523 21:53:48.329937 11835 net.cpp:137] Memory required for data: 2601124608
I0523 21:53:48.329946 11835 layer_factory.hpp:77] Creating layer conv3_5_dw/scale
I0523 21:53:48.329955 11835 net.cpp:84] Creating Layer conv3_5_dw/scale
I0523 21:53:48.329960 11835 net.cpp:406] conv3_5_dw/scale <- conv3_5_dw
I0523 21:53:48.329965 11835 net.cpp:367] conv3_5_dw/scale -> conv3_5_dw (in-place)
I0523 21:53:48.330014 11835 layer_factory.hpp:77] Creating layer conv3_5_dw/scale
I0523 21:53:48.330145 11835 net.cpp:122] Setting up conv3_5_dw/scale
I0523 21:53:48.330153 11835 net.cpp:129] Top shape: 64 256 14 12 (2752512)
I0523 21:53:48.330157 11835 net.cpp:137] Memory required for data: 2612134656
I0523 21:53:48.330178 11835 layer_factory.hpp:77] Creating layer relu3_5_dw
I0523 21:53:48.330184 11835 net.cpp:84] Creating Layer relu3_5_dw
I0523 21:53:48.330190 11835 net.cpp:406] relu3_5_dw <- conv3_5_dw
I0523 21:53:48.330198 11835 net.cpp:367] relu3_5_dw -> conv3_5_dw (in-place)
I0523 21:53:48.330327 11835 net.cpp:122] Setting up relu3_5_dw
I0523 21:53:48.330335 11835 net.cpp:129] Top shape: 64 256 14 12 (2752512)
I0523 21:53:48.330338 11835 net.cpp:137] Memory required for data: 2623144704
I0523 21:53:48.330345 11835 layer_factory.hpp:77] Creating layer conv3_5_em
I0523 21:53:48.330359 11835 net.cpp:84] Creating Layer conv3_5_em
I0523 21:53:48.330364 11835 net.cpp:406] conv3_5_em <- conv3_5_dw
I0523 21:53:48.330371 11835 net.cpp:380] conv3_5_em -> conv3_5_em
I0523 21:53:48.331538 11835 net.cpp:122] Setting up conv3_5_em
I0523 21:53:48.331557 11835 net.cpp:129] Top shape: 64 128 14 12 (1376256)
I0523 21:53:48.331562 11835 net.cpp:137] Memory required for data: 2628649728
I0523 21:53:48.331568 11835 layer_factory.hpp:77] Creating layer conv3_5_em/bn
I0523 21:53:48.331576 11835 net.cpp:84] Creating Layer conv3_5_em/bn
I0523 21:53:48.331583 11835 net.cpp:406] conv3_5_em/bn <- conv3_5_em
I0523 21:53:48.331590 11835 net.cpp:367] conv3_5_em/bn -> conv3_5_em (in-place)
I0523 21:53:48.331835 11835 net.cpp:122] Setting up conv3_5_em/bn
I0523 21:53:48.331843 11835 net.cpp:129] Top shape: 64 128 14 12 (1376256)
I0523 21:53:48.331847 11835 net.cpp:137] Memory required for data: 2634154752
I0523 21:53:48.331856 11835 layer_factory.hpp:77] Creating layer conv3_5_em/scale
I0523 21:53:48.331862 11835 net.cpp:84] Creating Layer conv3_5_em/scale
I0523 21:53:48.331868 11835 net.cpp:406] conv3_5_em/scale <- conv3_5_em
I0523 21:53:48.331876 11835 net.cpp:367] conv3_5_em/scale -> conv3_5_em (in-place)
I0523 21:53:48.331919 11835 layer_factory.hpp:77] Creating layer conv3_5_em/scale
I0523 21:53:48.332051 11835 net.cpp:122] Setting up conv3_5_em/scale
I0523 21:53:48.332060 11835 net.cpp:129] Top shape: 64 128 14 12 (1376256)
I0523 21:53:48.332064 11835 net.cpp:137] Memory required for data: 2639659776
I0523 21:53:48.332070 11835 layer_factory.hpp:77] Creating layer res3_5
I0523 21:53:48.332080 11835 net.cpp:84] Creating Layer res3_5
I0523 21:53:48.332087 11835 net.cpp:406] res3_5 <- res3_4_res3_4_0_split_1
I0523 21:53:48.332092 11835 net.cpp:406] res3_5 <- conv3_5_em
I0523 21:53:48.332096 11835 net.cpp:380] res3_5 -> res3_5
I0523 21:53:48.332125 11835 net.cpp:122] Setting up res3_5
I0523 21:53:48.332132 11835 net.cpp:129] Top shape: 64 128 14 12 (1376256)
I0523 21:53:48.332136 11835 net.cpp:137] Memory required for data: 2645164800
I0523 21:53:48.332141 11835 layer_factory.hpp:77] Creating layer res3_5_res3_5_0_split
I0523 21:53:48.332150 11835 net.cpp:84] Creating Layer res3_5_res3_5_0_split
I0523 21:53:48.332154 11835 net.cpp:406] res3_5_res3_5_0_split <- res3_5
I0523 21:53:48.332159 11835 net.cpp:380] res3_5_res3_5_0_split -> res3_5_res3_5_0_split_0
I0523 21:53:48.332166 11835 net.cpp:380] res3_5_res3_5_0_split -> res3_5_res3_5_0_split_1
I0523 21:53:48.332206 11835 net.cpp:122] Setting up res3_5_res3_5_0_split
I0523 21:53:48.332213 11835 net.cpp:129] Top shape: 64 128 14 12 (1376256)
I0523 21:53:48.332218 11835 net.cpp:129] Top shape: 64 128 14 12 (1376256)
I0523 21:53:48.332221 11835 net.cpp:137] Memory required for data: 2656174848
I0523 21:53:48.332224 11835 layer_factory.hpp:77] Creating layer conv3_6_ex
I0523 21:53:48.332237 11835 net.cpp:84] Creating Layer conv3_6_ex
I0523 21:53:48.332242 11835 net.cpp:406] conv3_6_ex <- res3_5_res3_5_0_split_0
I0523 21:53:48.332248 11835 net.cpp:380] conv3_6_ex -> conv3_6_ex
I0523 21:53:48.335661 11835 net.cpp:122] Setting up conv3_6_ex
I0523 21:53:48.335697 11835 net.cpp:129] Top shape: 64 256 14 12 (2752512)
I0523 21:53:48.335705 11835 net.cpp:137] Memory required for data: 2667184896
I0523 21:53:48.335717 11835 layer_factory.hpp:77] Creating layer conv3_6_ex/bn
I0523 21:53:48.335738 11835 net.cpp:84] Creating Layer conv3_6_ex/bn
I0523 21:53:48.335748 11835 net.cpp:406] conv3_6_ex/bn <- conv3_6_ex
I0523 21:53:48.335783 11835 net.cpp:367] conv3_6_ex/bn -> conv3_6_ex (in-place)
I0523 21:53:48.336058 11835 net.cpp:122] Setting up conv3_6_ex/bn
I0523 21:53:48.336068 11835 net.cpp:129] Top shape: 64 256 14 12 (2752512)
I0523 21:53:48.336072 11835 net.cpp:137] Memory required for data: 2678194944
I0523 21:53:48.336083 11835 layer_factory.hpp:77] Creating layer conv3_6_ex/scale
I0523 21:53:48.336098 11835 net.cpp:84] Creating Layer conv3_6_ex/scale
I0523 21:53:48.336104 11835 net.cpp:406] conv3_6_ex/scale <- conv3_6_ex
I0523 21:53:48.336112 11835 net.cpp:367] conv3_6_ex/scale -> conv3_6_ex (in-place)
I0523 21:53:48.336170 11835 layer_factory.hpp:77] Creating layer conv3_6_ex/scale
I0523 21:53:48.336310 11835 net.cpp:122] Setting up conv3_6_ex/scale
I0523 21:53:48.336320 11835 net.cpp:129] Top shape: 64 256 14 12 (2752512)
I0523 21:53:48.336324 11835 net.cpp:137] Memory required for data: 2689204992
I0523 21:53:48.336331 11835 layer_factory.hpp:77] Creating layer relu3_6_ex
I0523 21:53:48.336341 11835 net.cpp:84] Creating Layer relu3_6_ex
I0523 21:53:48.336347 11835 net.cpp:406] relu3_6_ex <- conv3_6_ex
I0523 21:53:48.336355 11835 net.cpp:367] relu3_6_ex -> conv3_6_ex (in-place)
I0523 21:53:48.336518 11835 net.cpp:122] Setting up relu3_6_ex
I0523 21:53:48.336529 11835 net.cpp:129] Top shape: 64 256 14 12 (2752512)
I0523 21:53:48.336532 11835 net.cpp:137] Memory required for data: 2700215040
I0523 21:53:48.336539 11835 layer_factory.hpp:77] Creating layer conv3_6_dw
I0523 21:53:48.336552 11835 net.cpp:84] Creating Layer conv3_6_dw
I0523 21:53:48.336558 11835 net.cpp:406] conv3_6_dw <- conv3_6_ex
I0523 21:53:48.336566 11835 net.cpp:380] conv3_6_dw -> conv3_6_dw
I0523 21:53:48.336835 11835 net.cpp:122] Setting up conv3_6_dw
I0523 21:53:48.336845 11835 net.cpp:129] Top shape: 64 256 14 12 (2752512)
I0523 21:53:48.336849 11835 net.cpp:137] Memory required for data: 2711225088
I0523 21:53:48.336855 11835 layer_factory.hpp:77] Creating layer conv3_6_dw/bn
I0523 21:53:48.336863 11835 net.cpp:84] Creating Layer conv3_6_dw/bn
I0523 21:53:48.336868 11835 net.cpp:406] conv3_6_dw/bn <- conv3_6_dw
I0523 21:53:48.336875 11835 net.cpp:367] conv3_6_dw/bn -> conv3_6_dw (in-place)
I0523 21:53:48.337107 11835 net.cpp:122] Setting up conv3_6_dw/bn
I0523 21:53:48.337116 11835 net.cpp:129] Top shape: 64 256 14 12 (2752512)
I0523 21:53:48.337121 11835 net.cpp:137] Memory required for data: 2722235136
I0523 21:53:48.337131 11835 layer_factory.hpp:77] Creating layer conv3_6_dw/scale
I0523 21:53:48.337141 11835 net.cpp:84] Creating Layer conv3_6_dw/scale
I0523 21:53:48.337146 11835 net.cpp:406] conv3_6_dw/scale <- conv3_6_dw
I0523 21:53:48.337153 11835 net.cpp:367] conv3_6_dw/scale -> conv3_6_dw (in-place)
I0523 21:53:48.337203 11835 layer_factory.hpp:77] Creating layer conv3_6_dw/scale
I0523 21:53:48.337340 11835 net.cpp:122] Setting up conv3_6_dw/scale
I0523 21:53:48.337350 11835 net.cpp:129] Top shape: 64 256 14 12 (2752512)
I0523 21:53:48.337354 11835 net.cpp:137] Memory required for data: 2733245184
I0523 21:53:48.337361 11835 layer_factory.hpp:77] Creating layer relu3_6_dw
I0523 21:53:48.337369 11835 net.cpp:84] Creating Layer relu3_6_dw
I0523 21:53:48.337374 11835 net.cpp:406] relu3_6_dw <- conv3_6_dw
I0523 21:53:48.337379 11835 net.cpp:367] relu3_6_dw -> conv3_6_dw (in-place)
I0523 21:53:48.337529 11835 net.cpp:122] Setting up relu3_6_dw
I0523 21:53:48.337540 11835 net.cpp:129] Top shape: 64 256 14 12 (2752512)
I0523 21:53:48.337543 11835 net.cpp:137] Memory required for data: 2744255232
I0523 21:53:48.337550 11835 layer_factory.hpp:77] Creating layer conv3_6_em
I0523 21:53:48.337563 11835 net.cpp:84] Creating Layer conv3_6_em
I0523 21:53:48.337568 11835 net.cpp:406] conv3_6_em <- conv3_6_dw
I0523 21:53:48.337577 11835 net.cpp:380] conv3_6_em -> conv3_6_em
I0523 21:53:48.339308 11835 net.cpp:122] Setting up conv3_6_em
I0523 21:53:48.339329 11835 net.cpp:129] Top shape: 64 128 14 12 (1376256)
I0523 21:53:48.339334 11835 net.cpp:137] Memory required for data: 2749760256
I0523 21:53:48.339339 11835 layer_factory.hpp:77] Creating layer conv3_6_em/bn
I0523 21:53:48.339370 11835 net.cpp:84] Creating Layer conv3_6_em/bn
I0523 21:53:48.339380 11835 net.cpp:406] conv3_6_em/bn <- conv3_6_em
I0523 21:53:48.339388 11835 net.cpp:367] conv3_6_em/bn -> conv3_6_em (in-place)
I0523 21:53:48.339632 11835 net.cpp:122] Setting up conv3_6_em/bn
I0523 21:53:48.339643 11835 net.cpp:129] Top shape: 64 128 14 12 (1376256)
I0523 21:53:48.339646 11835 net.cpp:137] Memory required for data: 2755265280
I0523 21:53:48.339656 11835 layer_factory.hpp:77] Creating layer conv3_6_em/scale
I0523 21:53:48.339666 11835 net.cpp:84] Creating Layer conv3_6_em/scale
I0523 21:53:48.339675 11835 net.cpp:406] conv3_6_em/scale <- conv3_6_em
I0523 21:53:48.339681 11835 net.cpp:367] conv3_6_em/scale -> conv3_6_em (in-place)
I0523 21:53:48.339733 11835 layer_factory.hpp:77] Creating layer conv3_6_em/scale
I0523 21:53:48.339877 11835 net.cpp:122] Setting up conv3_6_em/scale
I0523 21:53:48.339886 11835 net.cpp:129] Top shape: 64 128 14 12 (1376256)
I0523 21:53:48.339890 11835 net.cpp:137] Memory required for data: 2760770304
I0523 21:53:48.339897 11835 layer_factory.hpp:77] Creating layer res3_6
I0523 21:53:48.339908 11835 net.cpp:84] Creating Layer res3_6
I0523 21:53:48.339915 11835 net.cpp:406] res3_6 <- res3_5_res3_5_0_split_1
I0523 21:53:48.339920 11835 net.cpp:406] res3_6 <- conv3_6_em
I0523 21:53:48.339927 11835 net.cpp:380] res3_6 -> res3_6
I0523 21:53:48.339962 11835 net.cpp:122] Setting up res3_6
I0523 21:53:48.339970 11835 net.cpp:129] Top shape: 64 128 14 12 (1376256)
I0523 21:53:48.339974 11835 net.cpp:137] Memory required for data: 2766275328
I0523 21:53:48.339978 11835 layer_factory.hpp:77] Creating layer conv4_ex
I0523 21:53:48.339990 11835 net.cpp:84] Creating Layer conv4_ex
I0523 21:53:48.339996 11835 net.cpp:406] conv4_ex <- res3_6
I0523 21:53:48.340003 11835 net.cpp:380] conv4_ex -> conv4_ex
I0523 21:53:48.343652 11835 net.cpp:122] Setting up conv4_ex
I0523 21:53:48.343672 11835 net.cpp:129] Top shape: 64 512 14 12 (5505024)
I0523 21:53:48.343677 11835 net.cpp:137] Memory required for data: 2788295424
I0523 21:53:48.343685 11835 layer_factory.hpp:77] Creating layer conv4_ex/bn
I0523 21:53:48.343698 11835 net.cpp:84] Creating Layer conv4_ex/bn
I0523 21:53:48.343704 11835 net.cpp:406] conv4_ex/bn <- conv4_ex
I0523 21:53:48.343714 11835 net.cpp:367] conv4_ex/bn -> conv4_ex (in-place)
I0523 21:53:48.343978 11835 net.cpp:122] Setting up conv4_ex/bn
I0523 21:53:48.343988 11835 net.cpp:129] Top shape: 64 512 14 12 (5505024)
I0523 21:53:48.343991 11835 net.cpp:137] Memory required for data: 2810315520
I0523 21:53:48.344048 11835 layer_factory.hpp:77] Creating layer conv4_ex/scale
I0523 21:53:48.344069 11835 net.cpp:84] Creating Layer conv4_ex/scale
I0523 21:53:48.344075 11835 net.cpp:406] conv4_ex/scale <- conv4_ex
I0523 21:53:48.344082 11835 net.cpp:367] conv4_ex/scale -> conv4_ex (in-place)
I0523 21:53:48.344135 11835 layer_factory.hpp:77] Creating layer conv4_ex/scale
I0523 21:53:48.344290 11835 net.cpp:122] Setting up conv4_ex/scale
I0523 21:53:48.344301 11835 net.cpp:129] Top shape: 64 512 14 12 (5505024)
I0523 21:53:48.344305 11835 net.cpp:137] Memory required for data: 2832335616
I0523 21:53:48.344312 11835 layer_factory.hpp:77] Creating layer relu4_ex
I0523 21:53:48.344321 11835 net.cpp:84] Creating Layer relu4_ex
I0523 21:53:48.344327 11835 net.cpp:406] relu4_ex <- conv4_ex
I0523 21:53:48.344333 11835 net.cpp:367] relu4_ex -> conv4_ex (in-place)
I0523 21:53:48.344534 11835 net.cpp:122] Setting up relu4_ex
I0523 21:53:48.344544 11835 net.cpp:129] Top shape: 64 512 14 12 (5505024)
I0523 21:53:48.344548 11835 net.cpp:137] Memory required for data: 2854355712
I0523 21:53:48.344554 11835 layer_factory.hpp:77] Creating layer conv4_dw
I0523 21:53:48.344564 11835 net.cpp:84] Creating Layer conv4_dw
I0523 21:53:48.344568 11835 net.cpp:406] conv4_dw <- conv4_ex
I0523 21:53:48.344575 11835 net.cpp:380] conv4_dw -> conv4_dw
I0523 21:53:48.344863 11835 net.cpp:122] Setting up conv4_dw
I0523 21:53:48.344874 11835 net.cpp:129] Top shape: 64 512 7 6 (1376256)
I0523 21:53:48.344892 11835 net.cpp:137] Memory required for data: 2859860736
I0523 21:53:48.344898 11835 layer_factory.hpp:77] Creating layer conv4_dw/bn
I0523 21:53:48.344908 11835 net.cpp:84] Creating Layer conv4_dw/bn
I0523 21:53:48.344913 11835 net.cpp:406] conv4_dw/bn <- conv4_dw
I0523 21:53:48.344918 11835 net.cpp:367] conv4_dw/bn -> conv4_dw (in-place)
I0523 21:53:48.345180 11835 net.cpp:122] Setting up conv4_dw/bn
I0523 21:53:48.345190 11835 net.cpp:129] Top shape: 64 512 7 6 (1376256)
I0523 21:53:48.345193 11835 net.cpp:137] Memory required for data: 2865365760
I0523 21:53:48.345201 11835 layer_factory.hpp:77] Creating layer conv4_dw/scale
I0523 21:53:48.345211 11835 net.cpp:84] Creating Layer conv4_dw/scale
I0523 21:53:48.345216 11835 net.cpp:406] conv4_dw/scale <- conv4_dw
I0523 21:53:48.345222 11835 net.cpp:367] conv4_dw/scale -> conv4_dw (in-place)
I0523 21:53:48.345268 11835 layer_factory.hpp:77] Creating layer conv4_dw/scale
I0523 21:53:48.345419 11835 net.cpp:122] Setting up conv4_dw/scale
I0523 21:53:48.345428 11835 net.cpp:129] Top shape: 64 512 7 6 (1376256)
I0523 21:53:48.345432 11835 net.cpp:137] Memory required for data: 2870870784
I0523 21:53:48.345439 11835 layer_factory.hpp:77] Creating layer relu4_dw
I0523 21:53:48.345446 11835 net.cpp:84] Creating Layer relu4_dw
I0523 21:53:48.345453 11835 net.cpp:406] relu4_dw <- conv4_dw
I0523 21:53:48.345459 11835 net.cpp:367] relu4_dw -> conv4_dw (in-place)
I0523 21:53:48.345577 11835 net.cpp:122] Setting up relu4_dw
I0523 21:53:48.345587 11835 net.cpp:129] Top shape: 64 512 7 6 (1376256)
I0523 21:53:48.345590 11835 net.cpp:137] Memory required for data: 2876375808
I0523 21:53:48.345597 11835 layer_factory.hpp:77] Creating layer conv4_em
I0523 21:53:48.345612 11835 net.cpp:84] Creating Layer conv4_em
I0523 21:53:48.345618 11835 net.cpp:406] conv4_em <- conv4_dw
I0523 21:53:48.345624 11835 net.cpp:380] conv4_em -> conv4_em
I0523 21:53:48.348383 11835 net.cpp:122] Setting up conv4_em
I0523 21:53:48.348402 11835 net.cpp:129] Top shape: 64 128 7 6 (344064)
I0523 21:53:48.348407 11835 net.cpp:137] Memory required for data: 2877752064
I0523 21:53:48.348414 11835 layer_factory.hpp:77] Creating layer conv4_em/bn
I0523 21:53:48.348428 11835 net.cpp:84] Creating Layer conv4_em/bn
I0523 21:53:48.348433 11835 net.cpp:406] conv4_em/bn <- conv4_em
I0523 21:53:48.348440 11835 net.cpp:367] conv4_em/bn -> conv4_em (in-place)
I0523 21:53:48.348692 11835 net.cpp:122] Setting up conv4_em/bn
I0523 21:53:48.348702 11835 net.cpp:129] Top shape: 64 128 7 6 (344064)
I0523 21:53:48.348706 11835 net.cpp:137] Memory required for data: 2879128320
I0523 21:53:48.348714 11835 layer_factory.hpp:77] Creating layer conv4_em/scale
I0523 21:53:48.348723 11835 net.cpp:84] Creating Layer conv4_em/scale
I0523 21:53:48.348727 11835 net.cpp:406] conv4_em/scale <- conv4_em
I0523 21:53:48.348736 11835 net.cpp:367] conv4_em/scale -> conv4_em (in-place)
I0523 21:53:48.348785 11835 layer_factory.hpp:77] Creating layer conv4_em/scale
I0523 21:53:48.348928 11835 net.cpp:122] Setting up conv4_em/scale
I0523 21:53:48.348938 11835 net.cpp:129] Top shape: 64 128 7 6 (344064)
I0523 21:53:48.348942 11835 net.cpp:137] Memory required for data: 2880504576
I0523 21:53:48.348950 11835 layer_factory.hpp:77] Creating layer conv4_em_conv4_em/scale_0_split
I0523 21:53:48.348958 11835 net.cpp:84] Creating Layer conv4_em_conv4_em/scale_0_split
I0523 21:53:48.348963 11835 net.cpp:406] conv4_em_conv4_em/scale_0_split <- conv4_em
I0523 21:53:48.348971 11835 net.cpp:380] conv4_em_conv4_em/scale_0_split -> conv4_em_conv4_em/scale_0_split_0
I0523 21:53:48.348981 11835 net.cpp:380] conv4_em_conv4_em/scale_0_split -> conv4_em_conv4_em/scale_0_split_1
I0523 21:53:48.349027 11835 net.cpp:122] Setting up conv4_em_conv4_em/scale_0_split
I0523 21:53:48.349036 11835 net.cpp:129] Top shape: 64 128 7 6 (344064)
I0523 21:53:48.349041 11835 net.cpp:129] Top shape: 64 128 7 6 (344064)
I0523 21:53:48.349045 11835 net.cpp:137] Memory required for data: 2883257088
I0523 21:53:48.349048 11835 layer_factory.hpp:77] Creating layer conv4_1_ex
I0523 21:53:48.349076 11835 net.cpp:84] Creating Layer conv4_1_ex
I0523 21:53:48.349084 11835 net.cpp:406] conv4_1_ex <- conv4_em_conv4_em/scale_0_split_0
I0523 21:53:48.349092 11835 net.cpp:380] conv4_1_ex -> conv4_1_ex
I0523 21:53:48.351022 11835 net.cpp:122] Setting up conv4_1_ex
I0523 21:53:48.351040 11835 net.cpp:129] Top shape: 64 256 7 6 (688128)
I0523 21:53:48.351045 11835 net.cpp:137] Memory required for data: 2886009600
I0523 21:53:48.351052 11835 layer_factory.hpp:77] Creating layer conv4_1_ex/bn
I0523 21:53:48.351066 11835 net.cpp:84] Creating Layer conv4_1_ex/bn
I0523 21:53:48.351071 11835 net.cpp:406] conv4_1_ex/bn <- conv4_1_ex
I0523 21:53:48.351078 11835 net.cpp:367] conv4_1_ex/bn -> conv4_1_ex (in-place)
I0523 21:53:48.351330 11835 net.cpp:122] Setting up conv4_1_ex/bn
I0523 21:53:48.351341 11835 net.cpp:129] Top shape: 64 256 7 6 (688128)
I0523 21:53:48.351344 11835 net.cpp:137] Memory required for data: 2888762112
I0523 21:53:48.351352 11835 layer_factory.hpp:77] Creating layer conv4_1_ex/scale
I0523 21:53:48.351361 11835 net.cpp:84] Creating Layer conv4_1_ex/scale
I0523 21:53:48.351366 11835 net.cpp:406] conv4_1_ex/scale <- conv4_1_ex
I0523 21:53:48.351372 11835 net.cpp:367] conv4_1_ex/scale -> conv4_1_ex (in-place)
I0523 21:53:48.351428 11835 layer_factory.hpp:77] Creating layer conv4_1_ex/scale
I0523 21:53:48.351570 11835 net.cpp:122] Setting up conv4_1_ex/scale
I0523 21:53:48.351580 11835 net.cpp:129] Top shape: 64 256 7 6 (688128)
I0523 21:53:48.351584 11835 net.cpp:137] Memory required for data: 2891514624
I0523 21:53:48.351590 11835 layer_factory.hpp:77] Creating layer relu4_1_ex
I0523 21:53:48.351603 11835 net.cpp:84] Creating Layer relu4_1_ex
I0523 21:53:48.351606 11835 net.cpp:406] relu4_1_ex <- conv4_1_ex
I0523 21:53:48.351613 11835 net.cpp:367] relu4_1_ex -> conv4_1_ex (in-place)
I0523 21:53:48.351727 11835 net.cpp:122] Setting up relu4_1_ex
I0523 21:53:48.351737 11835 net.cpp:129] Top shape: 64 256 7 6 (688128)
I0523 21:53:48.351740 11835 net.cpp:137] Memory required for data: 2894267136
I0523 21:53:48.351747 11835 layer_factory.hpp:77] Creating layer conv4_1_dw
I0523 21:53:48.351758 11835 net.cpp:84] Creating Layer conv4_1_dw
I0523 21:53:48.351764 11835 net.cpp:406] conv4_1_dw <- conv4_1_ex
I0523 21:53:48.351771 11835 net.cpp:380] conv4_1_dw -> conv4_1_dw
I0523 21:53:48.352032 11835 net.cpp:122] Setting up conv4_1_dw
I0523 21:53:48.352041 11835 net.cpp:129] Top shape: 64 256 7 6 (688128)
I0523 21:53:48.352046 11835 net.cpp:137] Memory required for data: 2897019648
I0523 21:53:48.352051 11835 layer_factory.hpp:77] Creating layer conv4_1_dw/bn
I0523 21:53:48.352061 11835 net.cpp:84] Creating Layer conv4_1_dw/bn
I0523 21:53:48.352066 11835 net.cpp:406] conv4_1_dw/bn <- conv4_1_dw
I0523 21:53:48.352071 11835 net.cpp:367] conv4_1_dw/bn -> conv4_1_dw (in-place)
I0523 21:53:48.352306 11835 net.cpp:122] Setting up conv4_1_dw/bn
I0523 21:53:48.352315 11835 net.cpp:129] Top shape: 64 256 7 6 (688128)
I0523 21:53:48.352319 11835 net.cpp:137] Memory required for data: 2899772160
I0523 21:53:48.352327 11835 layer_factory.hpp:77] Creating layer conv4_1_dw/scale
I0523 21:53:48.352335 11835 net.cpp:84] Creating Layer conv4_1_dw/scale
I0523 21:53:48.352339 11835 net.cpp:406] conv4_1_dw/scale <- conv4_1_dw
I0523 21:53:48.352347 11835 net.cpp:367] conv4_1_dw/scale -> conv4_1_dw (in-place)
I0523 21:53:48.352394 11835 layer_factory.hpp:77] Creating layer conv4_1_dw/scale
I0523 21:53:48.352537 11835 net.cpp:122] Setting up conv4_1_dw/scale
I0523 21:53:48.352547 11835 net.cpp:129] Top shape: 64 256 7 6 (688128)
I0523 21:53:48.352551 11835 net.cpp:137] Memory required for data: 2902524672
I0523 21:53:48.352557 11835 layer_factory.hpp:77] Creating layer relu4_1_dw
I0523 21:53:48.352566 11835 net.cpp:84] Creating Layer relu4_1_dw
I0523 21:53:48.352571 11835 net.cpp:406] relu4_1_dw <- conv4_1_dw
I0523 21:53:48.352578 11835 net.cpp:367] relu4_1_dw -> conv4_1_dw (in-place)
I0523 21:53:48.352694 11835 net.cpp:122] Setting up relu4_1_dw
I0523 21:53:48.352704 11835 net.cpp:129] Top shape: 64 256 7 6 (688128)
I0523 21:53:48.352721 11835 net.cpp:137] Memory required for data: 2905277184
I0523 21:53:48.352728 11835 layer_factory.hpp:77] Creating layer conv4_1_em
I0523 21:53:48.352740 11835 net.cpp:84] Creating Layer conv4_1_em
I0523 21:53:48.352746 11835 net.cpp:406] conv4_1_em <- conv4_1_dw
I0523 21:53:48.352754 11835 net.cpp:380] conv4_1_em -> conv4_1_em
I0523 21:53:48.354571 11835 net.cpp:122] Setting up conv4_1_em
I0523 21:53:48.354590 11835 net.cpp:129] Top shape: 64 128 7 6 (344064)
I0523 21:53:48.354595 11835 net.cpp:137] Memory required for data: 2906653440
I0523 21:53:48.354601 11835 layer_factory.hpp:77] Creating layer conv4_1_em/bn
I0523 21:53:48.354612 11835 net.cpp:84] Creating Layer conv4_1_em/bn
I0523 21:53:48.354617 11835 net.cpp:406] conv4_1_em/bn <- conv4_1_em
I0523 21:53:48.354626 11835 net.cpp:367] conv4_1_em/bn -> conv4_1_em (in-place)
I0523 21:53:48.354912 11835 net.cpp:122] Setting up conv4_1_em/bn
I0523 21:53:48.354924 11835 net.cpp:129] Top shape: 64 128 7 6 (344064)
I0523 21:53:48.354928 11835 net.cpp:137] Memory required for data: 2908029696
I0523 21:53:48.354938 11835 layer_factory.hpp:77] Creating layer conv4_1_em/scale
I0523 21:53:48.354949 11835 net.cpp:84] Creating Layer conv4_1_em/scale
I0523 21:53:48.354954 11835 net.cpp:406] conv4_1_em/scale <- conv4_1_em
I0523 21:53:48.354960 11835 net.cpp:367] conv4_1_em/scale -> conv4_1_em (in-place)
I0523 21:53:48.355013 11835 layer_factory.hpp:77] Creating layer conv4_1_em/scale
I0523 21:53:48.355159 11835 net.cpp:122] Setting up conv4_1_em/scale
I0523 21:53:48.355170 11835 net.cpp:129] Top shape: 64 128 7 6 (344064)
I0523 21:53:48.355173 11835 net.cpp:137] Memory required for data: 2909405952
I0523 21:53:48.355181 11835 layer_factory.hpp:77] Creating layer res4_1
I0523 21:53:48.355192 11835 net.cpp:84] Creating Layer res4_1
I0523 21:53:48.355199 11835 net.cpp:406] res4_1 <- conv4_em_conv4_em/scale_0_split_1
I0523 21:53:48.355204 11835 net.cpp:406] res4_1 <- conv4_1_em
I0523 21:53:48.355211 11835 net.cpp:380] res4_1 -> res4_1
I0523 21:53:48.355242 11835 net.cpp:122] Setting up res4_1
I0523 21:53:48.355250 11835 net.cpp:129] Top shape: 64 128 7 6 (344064)
I0523 21:53:48.355254 11835 net.cpp:137] Memory required for data: 2910782208
I0523 21:53:48.355258 11835 layer_factory.hpp:77] Creating layer res4_1_res4_1_0_split
I0523 21:53:48.355264 11835 net.cpp:84] Creating Layer res4_1_res4_1_0_split
I0523 21:53:48.355269 11835 net.cpp:406] res4_1_res4_1_0_split <- res4_1
I0523 21:53:48.355276 11835 net.cpp:380] res4_1_res4_1_0_split -> res4_1_res4_1_0_split_0
I0523 21:53:48.355284 11835 net.cpp:380] res4_1_res4_1_0_split -> res4_1_res4_1_0_split_1
I0523 21:53:48.355326 11835 net.cpp:122] Setting up res4_1_res4_1_0_split
I0523 21:53:48.355334 11835 net.cpp:129] Top shape: 64 128 7 6 (344064)
I0523 21:53:48.355340 11835 net.cpp:129] Top shape: 64 128 7 6 (344064)
I0523 21:53:48.355343 11835 net.cpp:137] Memory required for data: 2913534720
I0523 21:53:48.355350 11835 layer_factory.hpp:77] Creating layer conv4_2_ex
I0523 21:53:48.355363 11835 net.cpp:84] Creating Layer conv4_2_ex
I0523 21:53:48.355370 11835 net.cpp:406] conv4_2_ex <- res4_1_res4_1_0_split_0
I0523 21:53:48.355377 11835 net.cpp:380] conv4_2_ex -> conv4_2_ex
I0523 21:53:48.356992 11835 net.cpp:122] Setting up conv4_2_ex
I0523 21:53:48.357010 11835 net.cpp:129] Top shape: 64 256 7 6 (688128)
I0523 21:53:48.357017 11835 net.cpp:137] Memory required for data: 2916287232
I0523 21:53:48.357024 11835 layer_factory.hpp:77] Creating layer conv4_2_ex/bn
I0523 21:53:48.357035 11835 net.cpp:84] Creating Layer conv4_2_ex/bn
I0523 21:53:48.357043 11835 net.cpp:406] conv4_2_ex/bn <- conv4_2_ex
I0523 21:53:48.357054 11835 net.cpp:367] conv4_2_ex/bn -> conv4_2_ex (in-place)
I0523 21:53:48.357321 11835 net.cpp:122] Setting up conv4_2_ex/bn
I0523 21:53:48.357329 11835 net.cpp:129] Top shape: 64 256 7 6 (688128)
I0523 21:53:48.357333 11835 net.cpp:137] Memory required for data: 2919039744
I0523 21:53:48.357343 11835 layer_factory.hpp:77] Creating layer conv4_2_ex/scale
I0523 21:53:48.357352 11835 net.cpp:84] Creating Layer conv4_2_ex/scale
I0523 21:53:48.357372 11835 net.cpp:406] conv4_2_ex/scale <- conv4_2_ex
I0523 21:53:48.357378 11835 net.cpp:367] conv4_2_ex/scale -> conv4_2_ex (in-place)
I0523 21:53:48.357435 11835 layer_factory.hpp:77] Creating layer conv4_2_ex/scale
I0523 21:53:48.357589 11835 net.cpp:122] Setting up conv4_2_ex/scale
I0523 21:53:48.357599 11835 net.cpp:129] Top shape: 64 256 7 6 (688128)
I0523 21:53:48.357602 11835 net.cpp:137] Memory required for data: 2921792256
I0523 21:53:48.357609 11835 layer_factory.hpp:77] Creating layer relu4_2_ex
I0523 21:53:48.357617 11835 net.cpp:84] Creating Layer relu4_2_ex
I0523 21:53:48.357622 11835 net.cpp:406] relu4_2_ex <- conv4_2_ex
I0523 21:53:48.357628 11835 net.cpp:367] relu4_2_ex -> conv4_2_ex (in-place)
I0523 21:53:48.357744 11835 net.cpp:122] Setting up relu4_2_ex
I0523 21:53:48.357754 11835 net.cpp:129] Top shape: 64 256 7 6 (688128)
I0523 21:53:48.357758 11835 net.cpp:137] Memory required for data: 2924544768
I0523 21:53:48.357764 11835 layer_factory.hpp:77] Creating layer conv4_2_dw
I0523 21:53:48.357774 11835 net.cpp:84] Creating Layer conv4_2_dw
I0523 21:53:48.357779 11835 net.cpp:406] conv4_2_dw <- conv4_2_ex
I0523 21:53:48.357786 11835 net.cpp:380] conv4_2_dw -> conv4_2_dw
I0523 21:53:48.358057 11835 net.cpp:122] Setting up conv4_2_dw
I0523 21:53:48.358068 11835 net.cpp:129] Top shape: 64 256 7 6 (688128)
I0523 21:53:48.358072 11835 net.cpp:137] Memory required for data: 2927297280
I0523 21:53:48.358078 11835 layer_factory.hpp:77] Creating layer conv4_2_dw/bn
I0523 21:53:48.358086 11835 net.cpp:84] Creating Layer conv4_2_dw/bn
I0523 21:53:48.358091 11835 net.cpp:406] conv4_2_dw/bn <- conv4_2_dw
I0523 21:53:48.358098 11835 net.cpp:367] conv4_2_dw/bn -> conv4_2_dw (in-place)
I0523 21:53:48.358340 11835 net.cpp:122] Setting up conv4_2_dw/bn
I0523 21:53:48.358348 11835 net.cpp:129] Top shape: 64 256 7 6 (688128)
I0523 21:53:48.358351 11835 net.cpp:137] Memory required for data: 2930049792
I0523 21:53:48.358361 11835 layer_factory.hpp:77] Creating layer conv4_2_dw/scale
I0523 21:53:48.358371 11835 net.cpp:84] Creating Layer conv4_2_dw/scale
I0523 21:53:48.358374 11835 net.cpp:406] conv4_2_dw/scale <- conv4_2_dw
I0523 21:53:48.358381 11835 net.cpp:367] conv4_2_dw/scale -> conv4_2_dw (in-place)
I0523 21:53:48.358436 11835 layer_factory.hpp:77] Creating layer conv4_2_dw/scale
I0523 21:53:48.358575 11835 net.cpp:122] Setting up conv4_2_dw/scale
I0523 21:53:48.358584 11835 net.cpp:129] Top shape: 64 256 7 6 (688128)
I0523 21:53:48.358589 11835 net.cpp:137] Memory required for data: 2932802304
I0523 21:53:48.358606 11835 layer_factory.hpp:77] Creating layer relu4_2_dw
I0523 21:53:48.358613 11835 net.cpp:84] Creating Layer relu4_2_dw
I0523 21:53:48.358618 11835 net.cpp:406] relu4_2_dw <- conv4_2_dw
I0523 21:53:48.358624 11835 net.cpp:367] relu4_2_dw -> conv4_2_dw (in-place)
I0523 21:53:48.358752 11835 net.cpp:122] Setting up relu4_2_dw
I0523 21:53:48.358762 11835 net.cpp:129] Top shape: 64 256 7 6 (688128)
I0523 21:53:48.358765 11835 net.cpp:137] Memory required for data: 2935554816
I0523 21:53:48.358770 11835 layer_factory.hpp:77] Creating layer conv4_2_em
I0523 21:53:48.358783 11835 net.cpp:84] Creating Layer conv4_2_em
I0523 21:53:48.358788 11835 net.cpp:406] conv4_2_em <- conv4_2_dw
I0523 21:53:48.358798 11835 net.cpp:380] conv4_2_em -> conv4_2_em
I0523 21:53:48.360435 11835 net.cpp:122] Setting up conv4_2_em
I0523 21:53:48.360455 11835 net.cpp:129] Top shape: 64 128 7 6 (344064)
I0523 21:53:48.360460 11835 net.cpp:137] Memory required for data: 2936931072
I0523 21:53:48.360466 11835 layer_factory.hpp:77] Creating layer conv4_2_em/bn
I0523 21:53:48.360477 11835 net.cpp:84] Creating Layer conv4_2_em/bn
I0523 21:53:48.360486 11835 net.cpp:406] conv4_2_em/bn <- conv4_2_em
I0523 21:53:48.360493 11835 net.cpp:367] conv4_2_em/bn -> conv4_2_em (in-place)
I0523 21:53:48.360740 11835 net.cpp:122] Setting up conv4_2_em/bn
I0523 21:53:48.360750 11835 net.cpp:129] Top shape: 64 128 7 6 (344064)
I0523 21:53:48.360754 11835 net.cpp:137] Memory required for data: 2938307328
I0523 21:53:48.360762 11835 layer_factory.hpp:77] Creating layer conv4_2_em/scale
I0523 21:53:48.360787 11835 net.cpp:84] Creating Layer conv4_2_em/scale
I0523 21:53:48.360795 11835 net.cpp:406] conv4_2_em/scale <- conv4_2_em
I0523 21:53:48.360801 11835 net.cpp:367] conv4_2_em/scale -> conv4_2_em (in-place)
I0523 21:53:48.360867 11835 layer_factory.hpp:77] Creating layer conv4_2_em/scale
I0523 21:53:48.361009 11835 net.cpp:122] Setting up conv4_2_em/scale
I0523 21:53:48.361019 11835 net.cpp:129] Top shape: 64 128 7 6 (344064)
I0523 21:53:48.361023 11835 net.cpp:137] Memory required for data: 2939683584
I0523 21:53:48.361030 11835 layer_factory.hpp:77] Creating layer res4_2
I0523 21:53:48.361042 11835 net.cpp:84] Creating Layer res4_2
I0523 21:53:48.361048 11835 net.cpp:406] res4_2 <- res4_1_res4_1_0_split_1
I0523 21:53:48.361054 11835 net.cpp:406] res4_2 <- conv4_2_em
I0523 21:53:48.361060 11835 net.cpp:380] res4_2 -> res4_2
I0523 21:53:48.361093 11835 net.cpp:122] Setting up res4_2
I0523 21:53:48.361100 11835 net.cpp:129] Top shape: 64 128 7 6 (344064)
I0523 21:53:48.361104 11835 net.cpp:137] Memory required for data: 2941059840
I0523 21:53:48.361107 11835 layer_factory.hpp:77] Creating layer conv5_ex
I0523 21:53:48.361120 11835 net.cpp:84] Creating Layer conv5_ex
I0523 21:53:48.361126 11835 net.cpp:406] conv5_ex <- res4_2
I0523 21:53:48.361133 11835 net.cpp:380] conv5_ex -> conv5_ex
I0523 21:53:48.363124 11835 net.cpp:122] Setting up conv5_ex
I0523 21:53:48.363145 11835 net.cpp:129] Top shape: 64 512 7 6 (1376256)
I0523 21:53:48.363152 11835 net.cpp:137] Memory required for data: 2946564864
I0523 21:53:48.363160 11835 layer_factory.hpp:77] Creating layer conv5_ex/bn
I0523 21:53:48.363171 11835 net.cpp:84] Creating Layer conv5_ex/bn
I0523 21:53:48.363178 11835 net.cpp:406] conv5_ex/bn <- conv5_ex
I0523 21:53:48.363190 11835 net.cpp:367] conv5_ex/bn -> conv5_ex (in-place)
I0523 21:53:48.363447 11835 net.cpp:122] Setting up conv5_ex/bn
I0523 21:53:48.363457 11835 net.cpp:129] Top shape: 64 512 7 6 (1376256)
I0523 21:53:48.363461 11835 net.cpp:137] Memory required for data: 2952069888
I0523 21:53:48.363471 11835 layer_factory.hpp:77] Creating layer conv5_ex/scale
I0523 21:53:48.363481 11835 net.cpp:84] Creating Layer conv5_ex/scale
I0523 21:53:48.363487 11835 net.cpp:406] conv5_ex/scale <- conv5_ex
I0523 21:53:48.363497 11835 net.cpp:367] conv5_ex/scale -> conv5_ex (in-place)
I0523 21:53:48.363546 11835 layer_factory.hpp:77] Creating layer conv5_ex/scale
I0523 21:53:48.363696 11835 net.cpp:122] Setting up conv5_ex/scale
I0523 21:53:48.363708 11835 net.cpp:129] Top shape: 64 512 7 6 (1376256)
I0523 21:53:48.363713 11835 net.cpp:137] Memory required for data: 2957574912
I0523 21:53:48.363719 11835 layer_factory.hpp:77] Creating layer relu5_ex
I0523 21:53:48.363726 11835 net.cpp:84] Creating Layer relu5_ex
I0523 21:53:48.363730 11835 net.cpp:406] relu5_ex <- conv5_ex
I0523 21:53:48.363736 11835 net.cpp:367] relu5_ex -> conv5_ex (in-place)
I0523 21:53:48.363859 11835 net.cpp:122] Setting up relu5_ex
I0523 21:53:48.363869 11835 net.cpp:129] Top shape: 64 512 7 6 (1376256)
I0523 21:53:48.363873 11835 net.cpp:137] Memory required for data: 2963079936
I0523 21:53:48.363878 11835 layer_factory.hpp:77] Creating layer conv5_dw
I0523 21:53:48.363888 11835 net.cpp:84] Creating Layer conv5_dw
I0523 21:53:48.363894 11835 net.cpp:406] conv5_dw <- conv5_ex
I0523 21:53:48.363901 11835 net.cpp:380] conv5_dw -> conv5_dw
I0523 21:53:48.364298 11835 net.cpp:122] Setting up conv5_dw
I0523 21:53:48.364308 11835 net.cpp:129] Top shape: 64 512 1 1 (32768)
I0523 21:53:48.364312 11835 net.cpp:137] Memory required for data: 2963211008
I0523 21:53:48.364317 11835 layer_factory.hpp:77] Creating layer conv5_dw/bn
I0523 21:53:48.364327 11835 net.cpp:84] Creating Layer conv5_dw/bn
I0523 21:53:48.364331 11835 net.cpp:406] conv5_dw/bn <- conv5_dw
I0523 21:53:48.364337 11835 net.cpp:367] conv5_dw/bn -> conv5_dw (in-place)
I0523 21:53:48.364570 11835 net.cpp:122] Setting up conv5_dw/bn
I0523 21:53:48.364579 11835 net.cpp:129] Top shape: 64 512 1 1 (32768)
I0523 21:53:48.364583 11835 net.cpp:137] Memory required for data: 2963342080
I0523 21:53:48.364604 11835 layer_factory.hpp:77] Creating layer conv5_dw/scale
I0523 21:53:48.364615 11835 net.cpp:84] Creating Layer conv5_dw/scale
I0523 21:53:48.364619 11835 net.cpp:406] conv5_dw/scale <- conv5_dw
I0523 21:53:48.364625 11835 net.cpp:367] conv5_dw/scale -> conv5_dw (in-place)
I0523 21:53:48.364675 11835 layer_factory.hpp:77] Creating layer conv5_dw/scale
I0523 21:53:48.364825 11835 net.cpp:122] Setting up conv5_dw/scale
I0523 21:53:48.364835 11835 net.cpp:129] Top shape: 64 512 1 1 (32768)
I0523 21:53:48.364838 11835 net.cpp:137] Memory required for data: 2963473152
I0523 21:53:48.364847 11835 layer_factory.hpp:77] Creating layer fc5
I0523 21:53:48.364857 11835 net.cpp:84] Creating Layer fc5
I0523 21:53:48.364863 11835 net.cpp:406] fc5 <- conv5_dw
I0523 21:53:48.364871 11835 net.cpp:380] fc5 -> fc5
I0523 21:53:48.365408 11835 net.cpp:122] Setting up fc5
I0523 21:53:48.365418 11835 net.cpp:129] Top shape: 64 128 (8192)
I0523 21:53:48.365422 11835 net.cpp:137] Memory required for data: 2963505920
I0523 21:53:48.365427 11835 layer_factory.hpp:77] Creating layer norm1
I0523 21:53:48.365434 11835 net.cpp:84] Creating Layer norm1
I0523 21:53:48.365439 11835 net.cpp:406] norm1 <- fc5
I0523 21:53:48.365445 11835 net.cpp:380] norm1 -> norm1
I0523 21:53:48.365514 11835 net.cpp:122] Setting up norm1
I0523 21:53:48.365521 11835 net.cpp:129] Top shape: 64 128 1 1 (8192)
I0523 21:53:48.365525 11835 net.cpp:137] Memory required for data: 2963538688
I0523 21:53:48.365530 11835 layer_factory.hpp:77] Creating layer fc-6_l2
I0523 21:53:48.365536 11835 net.cpp:84] Creating Layer fc-6_l2
I0523 21:53:48.365545 11835 net.cpp:406] fc-6_l2 <- norm1
I0523 21:53:48.365550 11835 net.cpp:380] fc-6_l2 -> fc-6_l2
I0523 21:53:48.428081 11835 net.cpp:122] Setting up fc-6_l2
I0523 21:53:48.428115 11835 net.cpp:129] Top shape: 64 54547 (3491008)
I0523 21:53:48.428120 11835 net.cpp:137] Memory required for data: 2977502720
I0523 21:53:48.428130 11835 layer_factory.hpp:77] Creating layer fc-6_margin
I0523 21:53:48.428165 11835 net.cpp:84] Creating Layer fc-6_margin
I0523 21:53:48.428175 11835 net.cpp:406] fc-6_margin <- fc-6_l2
I0523 21:53:48.428185 11835 net.cpp:406] fc-6_margin <- label_data_1_split_0
I0523 21:53:48.428194 11835 net.cpp:380] fc-6_margin -> fc-6_margin
I0523 21:53:48.428243 11835 net.cpp:122] Setting up fc-6_margin
I0523 21:53:48.428253 11835 net.cpp:129] Top shape: 64 54547 (3491008)
I0523 21:53:48.428257 11835 net.cpp:137] Memory required for data: 2991466752
I0523 21:53:48.428261 11835 layer_factory.hpp:77] Creating layer fc-6_margin_scale
I0523 21:53:48.428275 11835 net.cpp:84] Creating Layer fc-6_margin_scale
I0523 21:53:48.428282 11835 net.cpp:406] fc-6_margin_scale <- fc-6_margin
I0523 21:53:48.428289 11835 net.cpp:380] fc-6_margin_scale -> fc-6_margin_scale
I0523 21:53:48.433593 11835 net.cpp:122] Setting up fc-6_margin_scale
I0523 21:53:48.433620 11835 net.cpp:129] Top shape: 64 54547 (3491008)
I0523 21:53:48.433626 11835 net.cpp:137] Memory required for data: 3005430784
I0523 21:53:48.433636 11835 layer_factory.hpp:77] Creating layer softmax_loss
I0523 21:53:48.433650 11835 net.cpp:84] Creating Layer softmax_loss
I0523 21:53:48.433657 11835 net.cpp:406] softmax_loss <- fc-6_margin_scale
I0523 21:53:48.433670 11835 net.cpp:406] softmax_loss <- label_data_1_split_1
I0523 21:53:48.433689 11835 net.cpp:380] softmax_loss -> softmax_loss
…
