…
I0522 21:55:38.156389 35003 net.cpp:51] Initializing net from parameters: 
name: "2018-05-22_AdditMarginLmdbImage-b0.35s30_fc_0.35_112x96_faceNet-20-light2s4-bn_zkx_train"
state {
  phase: TRAIN
  level: 0
  stage: ""
}
layer {
  name: "data"
  type: "ImageData"
  top: "data"
  top: "label"
  image_data_param {
    source: "/home/zkx/Data_sdb/TrainData/Data_sdc/Patches/MultiPatches/image_list/train_list/shot_Oriental_Age_Lan_DHUA_PAKJ_Indon_Migrant_celeb_label.txt"
    batch_size: 64
    shuffle: true
    root_folder: "/home/zkx/Data_sdb/TrainData/Data_sdc/Patches/MultiPatches/fc_0.35_112x96/"
  }
}
layer {
  name: "conv1_1"
  type: "Convolution"
  bottom: "data"
  top: "conv1_1"
  param {
    lr_mult: 1
    decay_mult: 1
  }
  param {
    lr_mult: 2
    decay_mult: 0
  }
  convolution_param {
    num_output: 24
    pad: 1
    kernel_size: 3
    stride: 2
    weight_filler {
      type: "xavier"
    }
    bias_filler {
      type: "constant"
      value: 0
    }
  }
}
layer {
  name: "relu1_1"
  type: "PReLU"
  bottom: "conv1_1"
  top: "conv1_1"
  prelu_param {
    filler {
      type: "gaussian"
      std: 0.03
    }
  }
}
layer {
  name: "conv1_3"
  type: "Convolution"
  bottom: "conv1_1"
  top: "conv1_3"
  param {
    lr_mult: 1
    decay_mult: 1
  }
  param {
    lr_mult: 0
    decay_mult: 0
  }
  convolution_param {
    num_output: 24
    pad: 1
    kernel_size: 3
    stride: 1
    weight_filler {
      type: "gaussian"
      std: 0.01
    }
    bias_filler {
      type: "constant"
      value: 0
    }
  }
}
layer {
  name: "relu1_3"
  type: "PReLU"
  bottom: "conv1_3"
  top: "conv1_3"
  prelu_param {
    filler {
      type: "gaussian"
      std: 0.03
    }
  }
}
layer {
  name: "res1_3"
  type: "Eltwise"
  bottom: "conv1_1"
  bottom: "conv1_3"
  top: "res1_3"
  eltwise_param {
    operation: SUM
  }
}
layer {
  name: "res1_3_reduce"
  type: "Convolution"
  bottom: "res1_3"
  top: "res1_3_reduce"
  param {
    lr_mult: 1
    decay_mult: 1
  }
  param {
    lr_mult: 0
    decay_mult: 0
  }
  convolution_param {
    num_output: 48
    kernel_size: 1
    stride: 1
    weight_filler {
      type: "gaussian"
      std: 0.01
    }
    bias_filler {
      type: "constant"
      value: 0
    }
  }
}
layer {
  name: "pool1"
  type: "Pooling"
  bottom: "res1_3_reduce"
  top: "pool1"
  pooling_param {
    pool: MAX
    kernel_size: 2
    stride: 2
  }
}
layer {
  name: "conv2_1"
  type: "Convolution"
  bottom: "res1_3"
  top: "conv2_1"
  param {
    lr_mult: 1
    decay_mult: 1
  }
  param {
    lr_mult: 2
    decay_mult: 0
  }
  convolution_param {
    num_output: 48
    pad: 1
    kernel_size: 3
    stride: 2
    weight_filler {
      type: "xavier"
    }
    bias_filler {
      type: "constant"
      value: 0
    }
  }
}
layer {
  name: "relu2_1"
  type: "PReLU"
  bottom: "conv2_1"
  top: "conv2_1"
  prelu_param {
    filler {
      type: "gaussian"
      std: 0.03
    }
  }
}
layer {
  name: "res1_3_p"
  type: "Eltwise"
  bottom: "pool1"
  bottom: "conv2_1"
  top: "res1_3_p"
  eltwise_param {
    operation: SUM
  }
}
layer {
  name: "conv2_3"
  type: "Convolution"
  bottom: "res1_3_p"
  top: "conv2_3"
  param {
    lr_mult: 1
    decay_mult: 1
  }
  param {
    lr_mult: 0
    decay_mult: 0
  }
  convolution_param {
    num_output: 48
    pad: 1
    kernel_size: 3
    stride: 1
    weight_filler {
      type: "gaussian"
      std: 0.01
    }
    bias_filler {
      type: "constant"
      value: 0
    }
  }
}
layer {
  name: "relu2_3"
  type: "PReLU"
  bottom: "conv2_3"
  top: "conv2_3"
  prelu_param {
    filler {
      type: "gaussian"
      std: 0.03
    }
  }
}
layer {
  name: "res2_3"
  type: "Eltwise"
  bottom: "res1_3_p"
  bottom: "conv2_3"
  top: "res2_3"
  eltwise_param {
    operation: SUM
  }
}
layer {
  name: "conv2_5"
  type: "Convolution"
  bottom: "res2_3"
  top: "conv2_5"
  param {
    lr_mult: 1
    decay_mult: 1
  }
  param {
    lr_mult: 0
    decay_mult: 0
  }
  convolution_param {
    num_output: 48
    pad: 1
    kernel_size: 3
    stride: 1
    weight_filler {
      type: "gaussian"
      std: 0.01
    }
    bias_filler {
      type: "constant"
      value: 0
    }
  }
}
layer {
  name: "relu2_5"
  type: "PReLU"
  bottom: "conv2_5"
  top: "conv2_5"
  prelu_param {
    filler {
      type: "gaussian"
      std: 0.03
    }
  }
}
layer {
  name: "res2_5"
  type: "Eltwise"
  bottom: "res2_3"
  bottom: "conv2_5"
  top: "res2_5"
  eltwise_param {
    operation: SUM
  }
}
layer {
  name: "res2_5_reduce"
  type: "Convolution"
  bottom: "res2_5"
  top: "res2_5_reduce"
  param {
    lr_mult: 1
    decay_mult: 1
  }
  param {
    lr_mult: 0
    decay_mult: 0
  }
  convolution_param {
    num_output: 72
    kernel_size: 1
    stride: 1
    weight_filler {
      type: "gaussian"
      std: 0.01
    }
    bias_filler {
      type: "constant"
      value: 0
    }
  }
}
layer {
  name: "pool2"
  type: "Pooling"
  bottom: "res2_5_reduce"
  top: "pool2"
  pooling_param {
    pool: MAX
    kernel_size: 2
    stride: 2
  }
}
layer {
  name: "conv3_1"
  type: "Convolution"
  bottom: "res2_5"
  top: "conv3_1"
  param {
    lr_mult: 1
    decay_mult: 1
  }
  param {
    lr_mult: 2
    decay_mult: 0
  }
  convolution_param {
    num_output: 72
    pad: 1
    kernel_size: 3
    stride: 2
    weight_filler {
      type: "xavier"
    }
    bias_filler {
      type: "constant"
      value: 0
    }
  }
}
layer {
  name: "relu3_1"
  type: "PReLU"
  bottom: "conv3_1"
  top: "conv3_1"
  prelu_param {
    filler {
      type: "gaussian"
      std: 0.03
    }
  }
}
layer {
  name: "res2_5_p"
  type: "Eltwise"
  bottom: "pool2"
  bottom: "conv3_1"
  top: "res2_5_p"
  eltwise_param {
    operation: SUM
  }
}
layer {
  name: "conv3_3"
  type: "Convolution"
  bottom: "res2_5_p"
  top: "conv3_3"
  param {
    lr_mult: 1
    decay_mult: 1
  }
  param {
    lr_mult: 0
    decay_mult: 0
  }
  convolution_param {
    num_output: 72
    pad: 1
    kernel_size: 3
    stride: 1
    weight_filler {
      type: "gaussian"
      std: 0.01
    }
    bias_filler {
      type: "constant"
      value: 0
    }
  }
}
layer {
  name: "relu3_3"
  type: "PReLU"
  bottom: "conv3_3"
  top: "conv3_3"
  prelu_param {
    filler {
      type: "gaussian"
      std: 0.03
    }
  }
}
layer {
  name: "res3_3"
  type: "Eltwise"
  bottom: "res2_5_p"
  bottom: "conv3_3"
  top: "res3_3"
  eltwise_param {
    operation: SUM
  }
}
layer {
  name: "conv3_5"
  type: "Convolution"
  bottom: "res3_3"
  top: "conv3_5"
  param {
    lr_mult: 1
    decay_mult: 1
  }
  param {
    lr_mult: 0
    decay_mult: 0
  }
  convolution_param {
    num_output: 72
    pad: 1
    kernel_size: 3
    stride: 1
    weight_filler {
      type: "gaussian"
      std: 0.01
    }
    bias_filler {
      type: "constant"
      value: 0
    }
  }
}
layer {
  name: "relu3_5"
  type: "PReLU"
  bottom: "conv3_5"
  top: "conv3_5"
  prelu_param {
    filler {
      type: "gaussian"
      std: 0.03
    }
  }
}
layer {
  name: "res3_5"
  type: "Eltwise"
  bottom: "res3_3"
  bottom: "conv3_5"
  top: "res3_5"
  eltwise_param {
    operation: SUM
  }
}
layer {
  name: "res3_5_reduce"
  type: "Convolution"
  bottom: "res3_5"
  top: "res3_5_reduce"
  param {
    lr_mult: 1
    decay_mult: 1
  }
  param {
    lr_mult: 0
    decay_mult: 0
  }
  convolution_param {
    num_output: 144
    kernel_size: 1
    stride: 1
    weight_filler {
      type: "gaussian"
      std: 0.01
    }
    bias_filler {
      type: "constant"
      value: 0
    }
  }
}
layer {
  name: "pool3"
  type: "Pooling"
  bottom: "res3_5_reduce"
  top: "pool3"
  pooling_param {
    pool: MAX
    kernel_size: 2
    stride: 2
  }
}
layer {
  name: "conv4_1"
  type: "Convolution"
  bottom: "res3_5"
  top: "conv4_1"
  param {
    lr_mult: 1
    decay_mult: 1
  }
  param {
    lr_mult: 2
    decay_mult: 0
  }
  convolution_param {
    num_output: 144
    pad: 1
    kernel_size: 3
    stride: 2
    weight_filler {
      type: "xavier"
    }
    bias_filler {
      type: "constant"
      value: 0
    }
  }
}
layer {
  name: "relu4_1"
  type: "PReLU"
  bottom: "conv4_1"
  top: "conv4_1"
  prelu_param {
    filler {
      type: "gaussian"
      std: 0.03
    }
  }
}
layer {
  name: "res3_5_p"
  type: "Eltwise"
  bottom: "pool3"
  bottom: "conv4_1"
  top: "res3_5_p"
  eltwise_param {
    operation: SUM
  }
}
layer {
  name: "conv4_3"
  type: "Convolution"
  bottom: "res3_5_p"
  top: "conv4_3"
  param {
    lr_mult: 1
    decay_mult: 1
  }
  param {
    lr_mult: 0
    decay_mult: 0
  }
  convolution_param {
    num_output: 144
    pad: 1
    kernel_size: 3
    stride: 1
    weight_filler {
      type: "gaussian"
      std: 0.01
    }
    bias_filler {
      type: "constant"
      value: 0
    }
  }
}
layer {
  name: "relu4_3"
  type: "PReLU"
  bottom: "conv4_3"
  top: "conv4_3"
  prelu_param {
    filler {
      type: "gaussian"
      std: 0.03
    }
  }
}
layer {
  name: "res4_3"
  type: "Eltwise"
  bottom: "res3_5_p"
  bottom: "conv4_3"
  top: "res4_3"
  eltwise_param {
    operation: SUM
  }
}
layer {
  name: "fc5"
  type: "InnerProduct"
  bottom: "res4_3"
  top: "fc5"
  param {
    lr_mult: 1
    decay_mult: 1
  }
  param {
    lr_mult: 2
    decay_mult: 0
  }
  inner_product_param {
    num_output: 256
    weight_filler {
      type: "xavier"
    }
    bias_filler {
      type: "constant"
      value: 0
    }
  }
}
layer {
  name: "fc5_bn"
  type: "BatchNorm"
  bottom: "fc5"
  top: "fc5"
  batch_norm_param {
    use_global_stats: false
  }
}
layer {
  name: "norm1"
  type: "Normalize"
  bottom: "fc5"
  top: "norm1"
}
layer {
  name: "fc-6_l2"
  type: "InnerProduct"
  bottom: "norm1"
  top: "fc-6_l2"
  param {
    lr_mult: 1
  }
  inner_product_param {
    num_output: 21331
    bias_term: false
    weight_filler {
      type: "xavier"
    }
    normalize: true
  }
}
layer {
  name: "fc-6_margin"
  type: "LabelSpecificAdd"
  bottom: "fc-6_l2"
  bottom: "label"
  top: "fc-6_margin"
  label_specific_add_param {
    bias: -0.35
  }
}
layer {
  name: "fc-6_margin_scale"
  type: "Scale"
  bottom: "fc-6_margin"
  top: "fc-6_margin_scale"
  param {
    lr_mult: 0
    decay_mult: 0
  }
  scale_param {
    filler {
      type: "constant"
      value: 30
    }
  }
}
layer {
  name: "softmax_loss"
  type: "SoftmaxWithLoss"
  bottom: "fc-6_margin_scale"
  bottom: "label"
  top: "softmax_loss"
}
I0522 21:55:38.156694 35003 layer_factory.hpp:77] Creating layer data
I0522 21:55:38.156743 35003 net.cpp:84] Creating Layer data
I0522 21:55:38.156749 35003 net.cpp:380] data -> data
I0522 21:55:38.156775 35003 net.cpp:380] data -> label
I0522 21:55:38.156793 35003 image_data_layer.cpp:38] Opening file /home/zkx/Data_sdb/TrainData/Data_sdc/Patches/MultiPatches/image_list/train_list/shot_Oriental_Age_Lan_DHUA_PAKJ_Indon_Migrant_celeb_label.txt
I0522 21:55:41.440763 35003 image_data_layer.cpp:53] Shuffling data
I0522 21:55:41.674480 35003 image_data_layer.cpp:63] A total of 1134127 images.
I0522 21:55:41.676734 35003 image_data_layer.cpp:90] output data size: 64,3,112,96
I0522 21:55:42.494333 35003 net.cpp:122] Setting up data
I0522 21:55:42.494403 35003 net.cpp:129] Top shape: 64 3 112 96 (2064384)
I0522 21:55:42.494411 35003 net.cpp:129] Top shape: 64 (64)
I0522 21:55:42.494415 35003 net.cpp:137] Memory required for data: 8257792
I0522 21:55:42.494426 35003 layer_factory.hpp:77] Creating layer label_data_1_split
I0522 21:55:42.494458 35003 net.cpp:84] Creating Layer label_data_1_split
I0522 21:55:42.494467 35003 net.cpp:406] label_data_1_split <- label
I0522 21:55:42.494482 35003 net.cpp:380] label_data_1_split -> label_data_1_split_0
I0522 21:55:42.494495 35003 net.cpp:380] label_data_1_split -> label_data_1_split_1
I0522 21:55:42.494632 35003 net.cpp:122] Setting up label_data_1_split
I0522 21:55:42.494642 35003 net.cpp:129] Top shape: 64 (64)
I0522 21:55:42.494647 35003 net.cpp:129] Top shape: 64 (64)
I0522 21:55:42.494650 35003 net.cpp:137] Memory required for data: 8258304
I0522 21:55:42.494654 35003 layer_factory.hpp:77] Creating layer conv1_1
I0522 21:55:42.494683 35003 net.cpp:84] Creating Layer conv1_1
I0522 21:55:42.494688 35003 net.cpp:406] conv1_1 <- data
I0522 21:55:42.494729 35003 net.cpp:380] conv1_1 -> conv1_1
I0522 21:55:44.205071 35003 net.cpp:122] Setting up conv1_1
I0522 21:55:44.205106 35003 net.cpp:129] Top shape: 64 24 56 48 (4128768)
I0522 21:55:44.205111 35003 net.cpp:137] Memory required for data: 24773376
I0522 21:55:44.205137 35003 layer_factory.hpp:77] Creating layer relu1_1
I0522 21:55:44.205152 35003 net.cpp:84] Creating Layer relu1_1
I0522 21:55:44.205159 35003 net.cpp:406] relu1_1 <- conv1_1
I0522 21:55:44.205168 35003 net.cpp:367] relu1_1 -> conv1_1 (in-place)
I0522 21:55:44.206573 35003 net.cpp:122] Setting up relu1_1
I0522 21:55:44.206591 35003 net.cpp:129] Top shape: 64 24 56 48 (4128768)
I0522 21:55:44.206595 35003 net.cpp:137] Memory required for data: 41288448
I0522 21:55:44.206605 35003 layer_factory.hpp:77] Creating layer conv1_1_relu1_1_0_split
I0522 21:55:44.206615 35003 net.cpp:84] Creating Layer conv1_1_relu1_1_0_split
I0522 21:55:44.206619 35003 net.cpp:406] conv1_1_relu1_1_0_split <- conv1_1
I0522 21:55:44.206625 35003 net.cpp:380] conv1_1_relu1_1_0_split -> conv1_1_relu1_1_0_split_0
I0522 21:55:44.206634 35003 net.cpp:380] conv1_1_relu1_1_0_split -> conv1_1_relu1_1_0_split_1
I0522 21:55:44.206670 35003 net.cpp:122] Setting up conv1_1_relu1_1_0_split
I0522 21:55:44.206677 35003 net.cpp:129] Top shape: 64 24 56 48 (4128768)
I0522 21:55:44.206681 35003 net.cpp:129] Top shape: 64 24 56 48 (4128768)
I0522 21:55:44.206686 35003 net.cpp:137] Memory required for data: 74318592
I0522 21:55:44.206688 35003 layer_factory.hpp:77] Creating layer conv1_3
I0522 21:55:44.206709 35003 net.cpp:84] Creating Layer conv1_3
I0522 21:55:44.206714 35003 net.cpp:406] conv1_3 <- conv1_1_relu1_1_0_split_0
I0522 21:55:44.206720 35003 net.cpp:380] conv1_3 -> conv1_3
I0522 21:55:44.217211 35003 net.cpp:122] Setting up conv1_3
I0522 21:55:44.217229 35003 net.cpp:129] Top shape: 64 24 56 48 (4128768)
I0522 21:55:44.217233 35003 net.cpp:137] Memory required for data: 90833664
I0522 21:55:44.217244 35003 layer_factory.hpp:77] Creating layer relu1_3
I0522 21:55:44.217253 35003 net.cpp:84] Creating Layer relu1_3
I0522 21:55:44.217258 35003 net.cpp:406] relu1_3 <- conv1_3
I0522 21:55:44.217264 35003 net.cpp:367] relu1_3 -> conv1_3 (in-place)
I0522 21:55:44.217407 35003 net.cpp:122] Setting up relu1_3
I0522 21:55:44.217417 35003 net.cpp:129] Top shape: 64 24 56 48 (4128768)
I0522 21:55:44.217420 35003 net.cpp:137] Memory required for data: 107348736
I0522 21:55:44.217425 35003 layer_factory.hpp:77] Creating layer res1_3
I0522 21:55:44.217433 35003 net.cpp:84] Creating Layer res1_3
I0522 21:55:44.217437 35003 net.cpp:406] res1_3 <- conv1_1_relu1_1_0_split_1
I0522 21:55:44.217442 35003 net.cpp:406] res1_3 <- conv1_3
I0522 21:55:44.217449 35003 net.cpp:380] res1_3 -> res1_3
I0522 21:55:44.217495 35003 net.cpp:122] Setting up res1_3
I0522 21:55:44.217504 35003 net.cpp:129] Top shape: 64 24 56 48 (4128768)
I0522 21:55:44.217509 35003 net.cpp:137] Memory required for data: 123863808
I0522 21:55:44.217512 35003 layer_factory.hpp:77] Creating layer res1_3_res1_3_0_split
I0522 21:55:44.217519 35003 net.cpp:84] Creating Layer res1_3_res1_3_0_split
I0522 21:55:44.217525 35003 net.cpp:406] res1_3_res1_3_0_split <- res1_3
I0522 21:55:44.217530 35003 net.cpp:380] res1_3_res1_3_0_split -> res1_3_res1_3_0_split_0
I0522 21:55:44.217538 35003 net.cpp:380] res1_3_res1_3_0_split -> res1_3_res1_3_0_split_1
I0522 21:55:44.217571 35003 net.cpp:122] Setting up res1_3_res1_3_0_split
I0522 21:55:44.217577 35003 net.cpp:129] Top shape: 64 24 56 48 (4128768)
I0522 21:55:44.217581 35003 net.cpp:129] Top shape: 64 24 56 48 (4128768)
I0522 21:55:44.217584 35003 net.cpp:137] Memory required for data: 156893952
I0522 21:55:44.217587 35003 layer_factory.hpp:77] Creating layer res1_3_reduce
I0522 21:55:44.217599 35003 net.cpp:84] Creating Layer res1_3_reduce
I0522 21:55:44.217604 35003 net.cpp:406] res1_3_reduce <- res1_3_res1_3_0_split_0
I0522 21:55:44.217609 35003 net.cpp:380] res1_3_reduce -> res1_3_reduce
I0522 21:55:44.228075 35003 net.cpp:122] Setting up res1_3_reduce
I0522 21:55:44.228088 35003 net.cpp:129] Top shape: 64 48 56 48 (8257536)
I0522 21:55:44.228092 35003 net.cpp:137] Memory required for data: 189924096
I0522 21:55:44.228102 35003 layer_factory.hpp:77] Creating layer pool1
I0522 21:55:44.228113 35003 net.cpp:84] Creating Layer pool1
I0522 21:55:44.228118 35003 net.cpp:406] pool1 <- res1_3_reduce
I0522 21:55:44.228124 35003 net.cpp:380] pool1 -> pool1
I0522 21:55:44.228188 35003 net.cpp:122] Setting up pool1
I0522 21:55:44.228196 35003 net.cpp:129] Top shape: 64 48 28 24 (2064384)
I0522 21:55:44.228199 35003 net.cpp:137] Memory required for data: 198181632
I0522 21:55:44.228204 35003 layer_factory.hpp:77] Creating layer conv2_1
I0522 21:55:44.228212 35003 net.cpp:84] Creating Layer conv2_1
I0522 21:55:44.228216 35003 net.cpp:406] conv2_1 <- res1_3_res1_3_0_split_1
I0522 21:55:44.228222 35003 net.cpp:380] conv2_1 -> conv2_1
I0522 21:55:44.236462 35003 net.cpp:122] Setting up conv2_1
I0522 21:55:44.236479 35003 net.cpp:129] Top shape: 64 48 28 24 (2064384)
I0522 21:55:44.236483 35003 net.cpp:137] Memory required for data: 206439168
I0522 21:55:44.236495 35003 layer_factory.hpp:77] Creating layer relu2_1
I0522 21:55:44.236505 35003 net.cpp:84] Creating Layer relu2_1
I0522 21:55:44.236511 35003 net.cpp:406] relu2_1 <- conv2_1
I0522 21:55:44.236517 35003 net.cpp:367] relu2_1 -> conv2_1 (in-place)
I0522 21:55:44.236632 35003 net.cpp:122] Setting up relu2_1
I0522 21:55:44.236640 35003 net.cpp:129] Top shape: 64 48 28 24 (2064384)
I0522 21:55:44.236644 35003 net.cpp:137] Memory required for data: 214696704
I0522 21:55:44.236649 35003 layer_factory.hpp:77] Creating layer res1_3_p
I0522 21:55:44.236656 35003 net.cpp:84] Creating Layer res1_3_p
I0522 21:55:44.236660 35003 net.cpp:406] res1_3_p <- pool1
I0522 21:55:44.236665 35003 net.cpp:406] res1_3_p <- conv2_1
I0522 21:55:44.236670 35003 net.cpp:380] res1_3_p -> res1_3_p
I0522 21:55:44.236696 35003 net.cpp:122] Setting up res1_3_p
I0522 21:55:44.236702 35003 net.cpp:129] Top shape: 64 48 28 24 (2064384)
I0522 21:55:44.236706 35003 net.cpp:137] Memory required for data: 222954240
I0522 21:55:44.236709 35003 layer_factory.hpp:77] Creating layer res1_3_p_res1_3_p_0_split
I0522 21:55:44.236714 35003 net.cpp:84] Creating Layer res1_3_p_res1_3_p_0_split
I0522 21:55:44.236718 35003 net.cpp:406] res1_3_p_res1_3_p_0_split <- res1_3_p
I0522 21:55:44.236723 35003 net.cpp:380] res1_3_p_res1_3_p_0_split -> res1_3_p_res1_3_p_0_split_0
I0522 21:55:44.236729 35003 net.cpp:380] res1_3_p_res1_3_p_0_split -> res1_3_p_res1_3_p_0_split_1
I0522 21:55:44.236760 35003 net.cpp:122] Setting up res1_3_p_res1_3_p_0_split
I0522 21:55:44.236766 35003 net.cpp:129] Top shape: 64 48 28 24 (2064384)
I0522 21:55:44.236771 35003 net.cpp:129] Top shape: 64 48 28 24 (2064384)
I0522 21:55:44.236774 35003 net.cpp:137] Memory required for data: 239469312
I0522 21:55:44.236791 35003 layer_factory.hpp:77] Creating layer conv2_3
I0522 21:55:44.236801 35003 net.cpp:84] Creating Layer conv2_3
I0522 21:55:44.236805 35003 net.cpp:406] conv2_3 <- res1_3_p_res1_3_p_0_split_0
I0522 21:55:44.236812 35003 net.cpp:380] conv2_3 -> conv2_3
I0522 21:55:44.248386 35003 net.cpp:122] Setting up conv2_3
I0522 21:55:44.248402 35003 net.cpp:129] Top shape: 64 48 28 24 (2064384)
I0522 21:55:44.248406 35003 net.cpp:137] Memory required for data: 247726848
I0522 21:55:44.248414 35003 layer_factory.hpp:77] Creating layer relu2_3
I0522 21:55:44.248426 35003 net.cpp:84] Creating Layer relu2_3
I0522 21:55:44.248431 35003 net.cpp:406] relu2_3 <- conv2_3
I0522 21:55:44.248436 35003 net.cpp:367] relu2_3 -> conv2_3 (in-place)
I0522 21:55:44.248554 35003 net.cpp:122] Setting up relu2_3
I0522 21:55:44.248564 35003 net.cpp:129] Top shape: 64 48 28 24 (2064384)
I0522 21:55:44.248566 35003 net.cpp:137] Memory required for data: 255984384
I0522 21:55:44.248574 35003 layer_factory.hpp:77] Creating layer res2_3
I0522 21:55:44.248580 35003 net.cpp:84] Creating Layer res2_3
I0522 21:55:44.248586 35003 net.cpp:406] res2_3 <- res1_3_p_res1_3_p_0_split_1
I0522 21:55:44.248590 35003 net.cpp:406] res2_3 <- conv2_3
I0522 21:55:44.248596 35003 net.cpp:380] res2_3 -> res2_3
I0522 21:55:44.248621 35003 net.cpp:122] Setting up res2_3
I0522 21:55:44.248628 35003 net.cpp:129] Top shape: 64 48 28 24 (2064384)
I0522 21:55:44.248631 35003 net.cpp:137] Memory required for data: 264241920
I0522 21:55:44.248636 35003 layer_factory.hpp:77] Creating layer res2_3_res2_3_0_split
I0522 21:55:44.248641 35003 net.cpp:84] Creating Layer res2_3_res2_3_0_split
I0522 21:55:44.248646 35003 net.cpp:406] res2_3_res2_3_0_split <- res2_3
I0522 21:55:44.248651 35003 net.cpp:380] res2_3_res2_3_0_split -> res2_3_res2_3_0_split_0
I0522 21:55:44.248658 35003 net.cpp:380] res2_3_res2_3_0_split -> res2_3_res2_3_0_split_1
I0522 21:55:44.248698 35003 net.cpp:122] Setting up res2_3_res2_3_0_split
I0522 21:55:44.248704 35003 net.cpp:129] Top shape: 64 48 28 24 (2064384)
I0522 21:55:44.248708 35003 net.cpp:129] Top shape: 64 48 28 24 (2064384)
I0522 21:55:44.248711 35003 net.cpp:137] Memory required for data: 280756992
I0522 21:55:44.248714 35003 layer_factory.hpp:77] Creating layer conv2_5
I0522 21:55:44.248724 35003 net.cpp:84] Creating Layer conv2_5
I0522 21:55:44.248729 35003 net.cpp:406] conv2_5 <- res2_3_res2_3_0_split_0
I0522 21:55:44.248734 35003 net.cpp:380] conv2_5 -> conv2_5
I0522 21:55:44.252511 35003 net.cpp:122] Setting up conv2_5
I0522 21:55:44.252526 35003 net.cpp:129] Top shape: 64 48 28 24 (2064384)
I0522 21:55:44.252532 35003 net.cpp:137] Memory required for data: 289014528
I0522 21:55:44.252540 35003 layer_factory.hpp:77] Creating layer relu2_5
I0522 21:55:44.252549 35003 net.cpp:84] Creating Layer relu2_5
I0522 21:55:44.252555 35003 net.cpp:406] relu2_5 <- conv2_5
I0522 21:55:44.252560 35003 net.cpp:367] relu2_5 -> conv2_5 (in-place)
I0522 21:55:44.252676 35003 net.cpp:122] Setting up relu2_5
I0522 21:55:44.252683 35003 net.cpp:129] Top shape: 64 48 28 24 (2064384)
I0522 21:55:44.252687 35003 net.cpp:137] Memory required for data: 297272064
I0522 21:55:44.252696 35003 layer_factory.hpp:77] Creating layer res2_5
I0522 21:55:44.252703 35003 net.cpp:84] Creating Layer res2_5
I0522 21:55:44.252707 35003 net.cpp:406] res2_5 <- res2_3_res2_3_0_split_1
I0522 21:55:44.252712 35003 net.cpp:406] res2_5 <- conv2_5
I0522 21:55:44.252717 35003 net.cpp:380] res2_5 -> res2_5
I0522 21:55:44.252739 35003 net.cpp:122] Setting up res2_5
I0522 21:55:44.252746 35003 net.cpp:129] Top shape: 64 48 28 24 (2064384)
I0522 21:55:44.252750 35003 net.cpp:137] Memory required for data: 305529600
I0522 21:55:44.252753 35003 layer_factory.hpp:77] Creating layer res2_5_res2_5_0_split
I0522 21:55:44.252758 35003 net.cpp:84] Creating Layer res2_5_res2_5_0_split
I0522 21:55:44.252761 35003 net.cpp:406] res2_5_res2_5_0_split <- res2_5
I0522 21:55:44.252766 35003 net.cpp:380] res2_5_res2_5_0_split -> res2_5_res2_5_0_split_0
I0522 21:55:44.252786 35003 net.cpp:380] res2_5_res2_5_0_split -> res2_5_res2_5_0_split_1
I0522 21:55:44.252820 35003 net.cpp:122] Setting up res2_5_res2_5_0_split
I0522 21:55:44.252826 35003 net.cpp:129] Top shape: 64 48 28 24 (2064384)
I0522 21:55:44.252831 35003 net.cpp:129] Top shape: 64 48 28 24 (2064384)
I0522 21:55:44.252833 35003 net.cpp:137] Memory required for data: 322044672
I0522 21:55:44.252837 35003 layer_factory.hpp:77] Creating layer res2_5_reduce
I0522 21:55:44.252846 35003 net.cpp:84] Creating Layer res2_5_reduce
I0522 21:55:44.252851 35003 net.cpp:406] res2_5_reduce <- res2_5_res2_5_0_split_0
I0522 21:55:44.252857 35003 net.cpp:380] res2_5_reduce -> res2_5_reduce
I0522 21:55:44.259984 35003 net.cpp:122] Setting up res2_5_reduce
I0522 21:55:44.260001 35003 net.cpp:129] Top shape: 64 72 28 24 (3096576)
I0522 21:55:44.260006 35003 net.cpp:137] Memory required for data: 334430976
I0522 21:55:44.260015 35003 layer_factory.hpp:77] Creating layer pool2
I0522 21:55:44.260026 35003 net.cpp:84] Creating Layer pool2
I0522 21:55:44.260032 35003 net.cpp:406] pool2 <- res2_5_reduce
I0522 21:55:44.260038 35003 net.cpp:380] pool2 -> pool2
I0522 21:55:44.260078 35003 net.cpp:122] Setting up pool2
I0522 21:55:44.260087 35003 net.cpp:129] Top shape: 64 72 14 12 (774144)
I0522 21:55:44.260089 35003 net.cpp:137] Memory required for data: 337527552
I0522 21:55:44.260092 35003 layer_factory.hpp:77] Creating layer conv3_1
I0522 21:55:44.260102 35003 net.cpp:84] Creating Layer conv3_1
I0522 21:55:44.260107 35003 net.cpp:406] conv3_1 <- res2_5_res2_5_0_split_1
I0522 21:55:44.260113 35003 net.cpp:380] conv3_1 -> conv3_1
I0522 21:55:44.264422 35003 net.cpp:122] Setting up conv3_1
I0522 21:55:44.264439 35003 net.cpp:129] Top shape: 64 72 14 12 (774144)
I0522 21:55:44.264443 35003 net.cpp:137] Memory required for data: 340624128
I0522 21:55:44.264451 35003 layer_factory.hpp:77] Creating layer relu3_1
I0522 21:55:44.264463 35003 net.cpp:84] Creating Layer relu3_1
I0522 21:55:44.264469 35003 net.cpp:406] relu3_1 <- conv3_1
I0522 21:55:44.264475 35003 net.cpp:367] relu3_1 -> conv3_1 (in-place)
I0522 21:55:44.264578 35003 net.cpp:122] Setting up relu3_1
I0522 21:55:44.264586 35003 net.cpp:129] Top shape: 64 72 14 12 (774144)
I0522 21:55:44.264590 35003 net.cpp:137] Memory required for data: 343720704
I0522 21:55:44.264600 35003 layer_factory.hpp:77] Creating layer res2_5_p
I0522 21:55:44.264607 35003 net.cpp:84] Creating Layer res2_5_p
I0522 21:55:44.264611 35003 net.cpp:406] res2_5_p <- pool2
I0522 21:55:44.264616 35003 net.cpp:406] res2_5_p <- conv3_1
I0522 21:55:44.264621 35003 net.cpp:380] res2_5_p -> res2_5_p
I0522 21:55:44.264645 35003 net.cpp:122] Setting up res2_5_p
I0522 21:55:44.264652 35003 net.cpp:129] Top shape: 64 72 14 12 (774144)
I0522 21:55:44.264655 35003 net.cpp:137] Memory required for data: 346817280
I0522 21:55:44.264658 35003 layer_factory.hpp:77] Creating layer res2_5_p_res2_5_p_0_split
I0522 21:55:44.264664 35003 net.cpp:84] Creating Layer res2_5_p_res2_5_p_0_split
I0522 21:55:44.264668 35003 net.cpp:406] res2_5_p_res2_5_p_0_split <- res2_5_p
I0522 21:55:44.264673 35003 net.cpp:380] res2_5_p_res2_5_p_0_split -> res2_5_p_res2_5_p_0_split_0
I0522 21:55:44.264680 35003 net.cpp:380] res2_5_p_res2_5_p_0_split -> res2_5_p_res2_5_p_0_split_1
I0522 21:55:44.264710 35003 net.cpp:122] Setting up res2_5_p_res2_5_p_0_split
I0522 21:55:44.264716 35003 net.cpp:129] Top shape: 64 72 14 12 (774144)
I0522 21:55:44.264721 35003 net.cpp:129] Top shape: 64 72 14 12 (774144)
I0522 21:55:44.264724 35003 net.cpp:137] Memory required for data: 353010432
I0522 21:55:44.264727 35003 layer_factory.hpp:77] Creating layer conv3_3
I0522 21:55:44.264736 35003 net.cpp:84] Creating Layer conv3_3
I0522 21:55:44.264740 35003 net.cpp:406] conv3_3 <- res2_5_p_res2_5_p_0_split_0
I0522 21:55:44.264746 35003 net.cpp:380] conv3_3 -> conv3_3
I0522 21:55:44.269202 35003 net.cpp:122] Setting up conv3_3
I0522 21:55:44.269218 35003 net.cpp:129] Top shape: 64 72 14 12 (774144)
I0522 21:55:44.269222 35003 net.cpp:137] Memory required for data: 356107008
I0522 21:55:44.269243 35003 layer_factory.hpp:77] Creating layer relu3_3
I0522 21:55:44.269253 35003 net.cpp:84] Creating Layer relu3_3
I0522 21:55:44.269258 35003 net.cpp:406] relu3_3 <- conv3_3
I0522 21:55:44.269264 35003 net.cpp:367] relu3_3 -> conv3_3 (in-place)
I0522 21:55:44.269378 35003 net.cpp:122] Setting up relu3_3
I0522 21:55:44.269387 35003 net.cpp:129] Top shape: 64 72 14 12 (774144)
I0522 21:55:44.269389 35003 net.cpp:137] Memory required for data: 359203584
I0522 21:55:44.269398 35003 layer_factory.hpp:77] Creating layer res3_3
I0522 21:55:44.269407 35003 net.cpp:84] Creating Layer res3_3
I0522 21:55:44.269412 35003 net.cpp:406] res3_3 <- res2_5_p_res2_5_p_0_split_1
I0522 21:55:44.269417 35003 net.cpp:406] res3_3 <- conv3_3
I0522 21:55:44.269423 35003 net.cpp:380] res3_3 -> res3_3
I0522 21:55:44.269451 35003 net.cpp:122] Setting up res3_3
I0522 21:55:44.269459 35003 net.cpp:129] Top shape: 64 72 14 12 (774144)
I0522 21:55:44.269462 35003 net.cpp:137] Memory required for data: 362300160
I0522 21:55:44.269465 35003 layer_factory.hpp:77] Creating layer res3_3_res3_3_0_split
I0522 21:55:44.269475 35003 net.cpp:84] Creating Layer res3_3_res3_3_0_split
I0522 21:55:44.269480 35003 net.cpp:406] res3_3_res3_3_0_split <- res3_3
I0522 21:55:44.269486 35003 net.cpp:380] res3_3_res3_3_0_split -> res3_3_res3_3_0_split_0
I0522 21:55:44.269493 35003 net.cpp:380] res3_3_res3_3_0_split -> res3_3_res3_3_0_split_1
I0522 21:55:44.269524 35003 net.cpp:122] Setting up res3_3_res3_3_0_split
I0522 21:55:44.269531 35003 net.cpp:129] Top shape: 64 72 14 12 (774144)
I0522 21:55:44.269536 35003 net.cpp:129] Top shape: 64 72 14 12 (774144)
I0522 21:55:44.269538 35003 net.cpp:137] Memory required for data: 368493312
I0522 21:55:44.269542 35003 layer_factory.hpp:77] Creating layer conv3_5
I0522 21:55:44.269554 35003 net.cpp:84] Creating Layer conv3_5
I0522 21:55:44.269559 35003 net.cpp:406] conv3_5 <- res3_3_res3_3_0_split_0
I0522 21:55:44.269567 35003 net.cpp:380] conv3_5 -> conv3_5
I0522 21:55:44.276234 35003 net.cpp:122] Setting up conv3_5
I0522 21:55:44.276252 35003 net.cpp:129] Top shape: 64 72 14 12 (774144)
I0522 21:55:44.276257 35003 net.cpp:137] Memory required for data: 371589888
I0522 21:55:44.276266 35003 layer_factory.hpp:77] Creating layer relu3_5
I0522 21:55:44.276278 35003 net.cpp:84] Creating Layer relu3_5
I0522 21:55:44.276283 35003 net.cpp:406] relu3_5 <- conv3_5
I0522 21:55:44.276289 35003 net.cpp:367] relu3_5 -> conv3_5 (in-place)
I0522 21:55:44.276401 35003 net.cpp:122] Setting up relu3_5
I0522 21:55:44.276409 35003 net.cpp:129] Top shape: 64 72 14 12 (774144)
I0522 21:55:44.276412 35003 net.cpp:137] Memory required for data: 374686464
I0522 21:55:44.276418 35003 layer_factory.hpp:77] Creating layer res3_5
I0522 21:55:44.276425 35003 net.cpp:84] Creating Layer res3_5
I0522 21:55:44.276429 35003 net.cpp:406] res3_5 <- res3_3_res3_3_0_split_1
I0522 21:55:44.276433 35003 net.cpp:406] res3_5 <- conv3_5
I0522 21:55:44.276439 35003 net.cpp:380] res3_5 -> res3_5
I0522 21:55:44.276464 35003 net.cpp:122] Setting up res3_5
I0522 21:55:44.276471 35003 net.cpp:129] Top shape: 64 72 14 12 (774144)
I0522 21:55:44.276474 35003 net.cpp:137] Memory required for data: 377783040
I0522 21:55:44.276477 35003 layer_factory.hpp:77] Creating layer res3_5_res3_5_0_split
I0522 21:55:44.276484 35003 net.cpp:84] Creating Layer res3_5_res3_5_0_split
I0522 21:55:44.276489 35003 net.cpp:406] res3_5_res3_5_0_split <- res3_5
I0522 21:55:44.276494 35003 net.cpp:380] res3_5_res3_5_0_split -> res3_5_res3_5_0_split_0
I0522 21:55:44.276499 35003 net.cpp:380] res3_5_res3_5_0_split -> res3_5_res3_5_0_split_1
I0522 21:55:44.276531 35003 net.cpp:122] Setting up res3_5_res3_5_0_split
I0522 21:55:44.276537 35003 net.cpp:129] Top shape: 64 72 14 12 (774144)
I0522 21:55:44.276542 35003 net.cpp:129] Top shape: 64 72 14 12 (774144)
I0522 21:55:44.276545 35003 net.cpp:137] Memory required for data: 383976192
I0522 21:55:44.276547 35003 layer_factory.hpp:77] Creating layer res3_5_reduce
I0522 21:55:44.276557 35003 net.cpp:84] Creating Layer res3_5_reduce
I0522 21:55:44.276576 35003 net.cpp:406] res3_5_reduce <- res3_5_res3_5_0_split_0
I0522 21:55:44.276583 35003 net.cpp:380] res3_5_reduce -> res3_5_reduce
I0522 21:55:44.285702 35003 net.cpp:122] Setting up res3_5_reduce
I0522 21:55:44.285719 35003 net.cpp:129] Top shape: 64 144 14 12 (1548288)
I0522 21:55:44.285724 35003 net.cpp:137] Memory required for data: 390169344
I0522 21:55:44.285733 35003 layer_factory.hpp:77] Creating layer pool3
I0522 21:55:44.285743 35003 net.cpp:84] Creating Layer pool3
I0522 21:55:44.285748 35003 net.cpp:406] pool3 <- res3_5_reduce
I0522 21:55:44.285753 35003 net.cpp:380] pool3 -> pool3
I0522 21:55:44.285796 35003 net.cpp:122] Setting up pool3
I0522 21:55:44.285804 35003 net.cpp:129] Top shape: 64 144 7 6 (387072)
I0522 21:55:44.285807 35003 net.cpp:137] Memory required for data: 391717632
I0522 21:55:44.285812 35003 layer_factory.hpp:77] Creating layer conv4_1
I0522 21:55:44.285825 35003 net.cpp:84] Creating Layer conv4_1
I0522 21:55:44.285830 35003 net.cpp:406] conv4_1 <- res3_5_res3_5_0_split_1
I0522 21:55:44.285837 35003 net.cpp:380] conv4_1 -> conv4_1
I0522 21:55:44.298847 35003 net.cpp:122] Setting up conv4_1
I0522 21:55:44.298866 35003 net.cpp:129] Top shape: 64 144 7 6 (387072)
I0522 21:55:44.298869 35003 net.cpp:137] Memory required for data: 393265920
I0522 21:55:44.298877 35003 layer_factory.hpp:77] Creating layer relu4_1
I0522 21:55:44.298885 35003 net.cpp:84] Creating Layer relu4_1
I0522 21:55:44.298892 35003 net.cpp:406] relu4_1 <- conv4_1
I0522 21:55:44.298897 35003 net.cpp:367] relu4_1 -> conv4_1 (in-place)
I0522 21:55:44.298996 35003 net.cpp:122] Setting up relu4_1
I0522 21:55:44.299005 35003 net.cpp:129] Top shape: 64 144 7 6 (387072)
I0522 21:55:44.299008 35003 net.cpp:137] Memory required for data: 394814208
I0522 21:55:44.299023 35003 layer_factory.hpp:77] Creating layer res3_5_p
I0522 21:55:44.299031 35003 net.cpp:84] Creating Layer res3_5_p
I0522 21:55:44.299036 35003 net.cpp:406] res3_5_p <- pool3
I0522 21:55:44.299041 35003 net.cpp:406] res3_5_p <- conv4_1
I0522 21:55:44.299047 35003 net.cpp:380] res3_5_p -> res3_5_p
I0522 21:55:44.299075 35003 net.cpp:122] Setting up res3_5_p
I0522 21:55:44.299082 35003 net.cpp:129] Top shape: 64 144 7 6 (387072)
I0522 21:55:44.299085 35003 net.cpp:137] Memory required for data: 396362496
I0522 21:55:44.299089 35003 layer_factory.hpp:77] Creating layer res3_5_p_res3_5_p_0_split
I0522 21:55:44.299096 35003 net.cpp:84] Creating Layer res3_5_p_res3_5_p_0_split
I0522 21:55:44.299101 35003 net.cpp:406] res3_5_p_res3_5_p_0_split <- res3_5_p
I0522 21:55:44.299108 35003 net.cpp:380] res3_5_p_res3_5_p_0_split -> res3_5_p_res3_5_p_0_split_0
I0522 21:55:44.299115 35003 net.cpp:380] res3_5_p_res3_5_p_0_split -> res3_5_p_res3_5_p_0_split_1
I0522 21:55:44.299150 35003 net.cpp:122] Setting up res3_5_p_res3_5_p_0_split
I0522 21:55:44.299157 35003 net.cpp:129] Top shape: 64 144 7 6 (387072)
I0522 21:55:44.299161 35003 net.cpp:129] Top shape: 64 144 7 6 (387072)
I0522 21:55:44.299165 35003 net.cpp:137] Memory required for data: 399459072
I0522 21:55:44.299170 35003 layer_factory.hpp:77] Creating layer conv4_3
I0522 21:55:44.299185 35003 net.cpp:84] Creating Layer conv4_3
I0522 21:55:44.299190 35003 net.cpp:406] conv4_3 <- res3_5_p_res3_5_p_0_split_0
I0522 21:55:44.299198 35003 net.cpp:380] conv4_3 -> conv4_3
I0522 21:55:44.312296 35003 net.cpp:122] Setting up conv4_3
I0522 21:55:44.312312 35003 net.cpp:129] Top shape: 64 144 7 6 (387072)
I0522 21:55:44.312317 35003 net.cpp:137] Memory required for data: 401007360
I0522 21:55:44.312325 35003 layer_factory.hpp:77] Creating layer relu4_3
I0522 21:55:44.312337 35003 net.cpp:84] Creating Layer relu4_3
I0522 21:55:44.312343 35003 net.cpp:406] relu4_3 <- conv4_3
I0522 21:55:44.312350 35003 net.cpp:367] relu4_3 -> conv4_3 (in-place)
I0522 21:55:44.312460 35003 net.cpp:122] Setting up relu4_3
I0522 21:55:44.312469 35003 net.cpp:129] Top shape: 64 144 7 6 (387072)
I0522 21:55:44.312471 35003 net.cpp:137] Memory required for data: 402555648
I0522 21:55:44.312477 35003 layer_factory.hpp:77] Creating layer res4_3
I0522 21:55:44.312499 35003 net.cpp:84] Creating Layer res4_3
I0522 21:55:44.312505 35003 net.cpp:406] res4_3 <- res3_5_p_res3_5_p_0_split_1
I0522 21:55:44.312510 35003 net.cpp:406] res4_3 <- conv4_3
I0522 21:55:44.312515 35003 net.cpp:380] res4_3 -> res4_3
I0522 21:55:44.312542 35003 net.cpp:122] Setting up res4_3
I0522 21:55:44.312549 35003 net.cpp:129] Top shape: 64 144 7 6 (387072)
I0522 21:55:44.312553 35003 net.cpp:137] Memory required for data: 404103936
I0522 21:55:44.312558 35003 layer_factory.hpp:77] Creating layer fc5
I0522 21:55:44.312567 35003 net.cpp:84] Creating Layer fc5
I0522 21:55:44.312572 35003 net.cpp:406] fc5 <- res4_3
I0522 21:55:44.312578 35003 net.cpp:380] fc5 -> fc5
I0522 21:55:44.325120 35003 net.cpp:122] Setting up fc5
I0522 21:55:44.325139 35003 net.cpp:129] Top shape: 64 256 (16384)
I0522 21:55:44.325142 35003 net.cpp:137] Memory required for data: 404169472
I0522 21:55:44.325150 35003 layer_factory.hpp:77] Creating layer fc5_bn
I0522 21:55:44.325165 35003 net.cpp:84] Creating Layer fc5_bn
I0522 21:55:44.325170 35003 net.cpp:406] fc5_bn <- fc5
I0522 21:55:44.325176 35003 net.cpp:367] fc5_bn -> fc5 (in-place)
I0522 21:55:44.325357 35003 net.cpp:122] Setting up fc5_bn
I0522 21:55:44.325366 35003 net.cpp:129] Top shape: 64 256 (16384)
I0522 21:55:44.325369 35003 net.cpp:137] Memory required for data: 404235008
I0522 21:55:44.325377 35003 layer_factory.hpp:77] Creating layer norm1
I0522 21:55:44.325388 35003 net.cpp:84] Creating Layer norm1
I0522 21:55:44.325393 35003 net.cpp:406] norm1 <- fc5
I0522 21:55:44.325399 35003 net.cpp:380] norm1 -> norm1
I0522 21:55:44.325456 35003 net.cpp:122] Setting up norm1
I0522 21:55:44.325464 35003 net.cpp:129] Top shape: 64 256 1 1 (16384)
I0522 21:55:44.325466 35003 net.cpp:137] Memory required for data: 404300544
I0522 21:55:44.325470 35003 layer_factory.hpp:77] Creating layer fc-6_l2
I0522 21:55:44.325479 35003 net.cpp:84] Creating Layer fc-6_l2
I0522 21:55:44.325484 35003 net.cpp:406] fc-6_l2 <- norm1
I0522 21:55:44.325489 35003 net.cpp:380] fc-6_l2 -> fc-6_l2
I0522 21:55:44.368712 35003 net.cpp:122] Setting up fc-6_l2
I0522 21:55:44.368743 35003 net.cpp:129] Top shape: 64 21331 (1365184)
I0522 21:55:44.368748 35003 net.cpp:137] Memory required for data: 409761280
I0522 21:55:44.368757 35003 layer_factory.hpp:77] Creating layer fc-6_margin
I0522 21:55:44.368780 35003 net.cpp:84] Creating Layer fc-6_margin
I0522 21:55:44.368788 35003 net.cpp:406] fc-6_margin <- fc-6_l2
I0522 21:55:44.368794 35003 net.cpp:406] fc-6_margin <- label_data_1_split_0
I0522 21:55:44.368800 35003 net.cpp:380] fc-6_margin -> fc-6_margin
I0522 21:55:44.368840 35003 net.cpp:122] Setting up fc-6_margin
I0522 21:55:44.368849 35003 net.cpp:129] Top shape: 64 21331 (1365184)
I0522 21:55:44.368854 35003 net.cpp:137] Memory required for data: 415222016
I0522 21:55:44.368856 35003 layer_factory.hpp:77] Creating layer fc-6_margin_scale
I0522 21:55:44.368871 35003 net.cpp:84] Creating Layer fc-6_margin_scale
I0522 21:55:44.368876 35003 net.cpp:406] fc-6_margin_scale <- fc-6_margin
I0522 21:55:44.368883 35003 net.cpp:380] fc-6_margin_scale -> fc-6_margin_scale
I0522 21:55:44.369022 35003 net.cpp:122] Setting up fc-6_margin_scale
I0522 21:55:44.369031 35003 net.cpp:129] Top shape: 64 21331 (1365184)
I0522 21:55:44.369035 35003 net.cpp:137] Memory required for data: 420682752
I0522 21:55:44.369040 35003 layer_factory.hpp:77] Creating layer softmax_loss
I0522 21:55:44.369046 35003 net.cpp:84] Creating Layer softmax_loss
I0522 21:55:44.369050 35003 net.cpp:406] softmax_loss <- fc-6_margin_scale
I0522 21:55:44.369055 35003 net.cpp:406] softmax_loss <- label_data_1_split_1
I0522 21:55:44.369061 35003 net.cpp:380] softmax_loss -> softmax_loss
…
