…
I0523 21:53:38.267014 11654 net.cpp:51] Initializing net from parameters: 
name: "2018-05-23_AMImageCdata-b0.3s30_fc_0.35_112x96_b+FaceAdd_MobileFaceNet-bn_zkx_train"
state {
  phase: TRAIN
  level: 0
  stage: ""
}
layer {
  name: "data"
  type: "ImageData"
  top: "data"
  top: "label"
  image_data_param {
    source: "/home/zkx/Data_sdb/TrainData/Data_sdc/Patches/MultiPatches/image_list/train_list/Combine_base_Cmul-Asia-beid-cap10-ZheD_list.txt_label.txt"
    batch_size: 64
    shuffle: true
    root_folder: "/home/zkx/Data_sdb/TrainData/Data_sdc/Patches/MultiPatches/fc_0.35_112x96/"
  }
}
layer {
  name: "conv1"
  type: "Convolution"
  bottom: "data"
  top: "conv1"
  param {
    lr_mult: 1
    decay_mult: 1
  }
  convolution_param {
    num_output: 64
    bias_term: false
    pad: 1
    kernel_size: 3
    stride: 2
    weight_filler {
      type: "xavier"
    }
  }
}
layer {
  name: "conv1/bn"
  type: "BatchNorm"
  bottom: "conv1"
  top: "conv1"
  param {
    lr_mult: 0
    decay_mult: 0
  }
  param {
    lr_mult: 0
    decay_mult: 0
  }
  param {
    lr_mult: 0
    decay_mult: 0
  }
  batch_norm_param {
    use_global_stats: false
  }
}
layer {
  name: "conv1/scale"
  type: "Scale"
  bottom: "conv1"
  top: "conv1"
  param {
    lr_mult: 1
    decay_mult: 0
  }
  param {
    lr_mult: 1
    decay_mult: 0
  }
  scale_param {
    bias_term: true
  }
}
layer {
  name: "relu1"
  type: "PReLU"
  bottom: "conv1"
  top: "conv1"
}
layer {
  name: "conv1_dw"
  type: "DepthwiseConvolution"
  bottom: "conv1"
  top: "conv1_dw"
  param {
    lr_mult: 1
    decay_mult: 1
  }
  convolution_param {
    num_output: 64
    bias_term: false
    pad: 1
    kernel_size: 3
    group: 64
    stride: 1
    weight_filler {
      type: "xavier"
    }
  }
}
layer {
  name: "conv1_dw/bn"
  type: "BatchNorm"
  bottom: "conv1_dw"
  top: "conv1_dw"
  param {
    lr_mult: 0
    decay_mult: 0
  }
  param {
    lr_mult: 0
    decay_mult: 0
  }
  param {
    lr_mult: 0
    decay_mult: 0
  }
  batch_norm_param {
    use_global_stats: false
  }
}
layer {
  name: "conv1_dw/scale"
  type: "Scale"
  bottom: "conv1_dw"
  top: "conv1_dw"
  param {
    lr_mult: 1
    decay_mult: 0
  }
  param {
    lr_mult: 1
    decay_mult: 0
  }
  scale_param {
    bias_term: true
  }
}
layer {
  name: "relu1_dw"
  type: "PReLU"
  bottom: "conv1_dw"
  top: "conv1_dw"
}
layer {
  name: "conv2_ex"
  type: "Convolution"
  bottom: "conv1_dw"
  top: "conv2_ex"
  param {
    lr_mult: 1
    decay_mult: 1
  }
  convolution_param {
    num_output: 128
    bias_term: false
    pad: 0
    kernel_size: 1
    stride: 1
    weight_filler {
      type: "xavier"
    }
  }
}
layer {
  name: "conv2_ex/bn"
  type: "BatchNorm"
  bottom: "conv2_ex"
  top: "conv2_ex"
  param {
    lr_mult: 0
    decay_mult: 0
  }
  param {
    lr_mult: 0
    decay_mult: 0
  }
  param {
    lr_mult: 0
    decay_mult: 0
  }
  batch_norm_param {
    use_global_stats: false
  }
}
layer {
  name: "conv2_ex/scale"
  type: "Scale"
  bottom: "conv2_ex"
  top: "conv2_ex"
  param {
    lr_mult: 1
    decay_mult: 0
  }
  param {
    lr_mult: 1
    decay_mult: 0
  }
  scale_param {
    bias_term: true
  }
}
layer {
  name: "relu2_ex"
  type: "PReLU"
  bottom: "conv2_ex"
  top: "conv2_ex"
}
layer {
  name: "conv2_dw"
  type: "DepthwiseConvolution"
  bottom: "conv2_ex"
  top: "conv2_dw"
  param {
    lr_mult: 1
    decay_mult: 1
  }
  convolution_param {
    num_output: 128
    bias_term: false
    pad: 1
    kernel_size: 3
    group: 128
    stride: 2
    weight_filler {
      type: "xavier"
    }
    engine: CAFFE
  }
}
layer {
  name: "conv2_dw/bn"
  type: "BatchNorm"
  bottom: "conv2_dw"
  top: "conv2_dw"
  param {
    lr_mult: 0
    decay_mult: 0
  }
  param {
    lr_mult: 0
    decay_mult: 0
  }
  param {
    lr_mult: 0
    decay_mult: 0
  }
  batch_norm_param {
    use_global_stats: false
  }
}
layer {
  name: "conv2_dw/scale"
  type: "Scale"
  bottom: "conv2_dw"
  top: "conv2_dw"
  param {
    lr_mult: 1
    decay_mult: 0
  }
  param {
    lr_mult: 1
    decay_mult: 0
  }
  scale_param {
    bias_term: true
  }
}
layer {
  name: "relu2_dw"
  type: "PReLU"
  bottom: "conv2_dw"
  top: "conv2_dw"
}
layer {
  name: "conv2_em"
  type: "Convolution"
  bottom: "conv2_dw"
  top: "conv2_em"
  param {
    lr_mult: 1
    decay_mult: 1
  }
  convolution_param {
    num_output: 64
    bias_term: false
    pad: 0
    kernel_size: 1
    stride: 1
    weight_filler {
      type: "xavier"
    }
  }
}
layer {
  name: "conv2_em/bn"
  type: "BatchNorm"
  bottom: "conv2_em"
  top: "conv2_em"
  param {
    lr_mult: 0
    decay_mult: 0
  }
  param {
    lr_mult: 0
    decay_mult: 0
  }
  param {
    lr_mult: 0
    decay_mult: 0
  }
  batch_norm_param {
    use_global_stats: false
  }
}
layer {
  name: "conv2_em/scale"
  type: "Scale"
  bottom: "conv2_em"
  top: "conv2_em"
  param {
    lr_mult: 1
    decay_mult: 0
  }
  param {
    lr_mult: 1
    decay_mult: 0
  }
  scale_param {
    bias_term: true
  }
}
layer {
  name: "conv2_1_ex"
  type: "Convolution"
  bottom: "conv2_em"
  top: "conv2_1_ex"
  param {
    lr_mult: 1
    decay_mult: 1
  }
  convolution_param {
    num_output: 128
    bias_term: false
    pad: 0
    kernel_size: 1
    stride: 1
    weight_filler {
      type: "xavier"
    }
  }
}
layer {
  name: "conv2_1_ex/bn"
  type: "BatchNorm"
  bottom: "conv2_1_ex"
  top: "conv2_1_ex"
  param {
    lr_mult: 0
    decay_mult: 0
  }
  param {
    lr_mult: 0
    decay_mult: 0
  }
  param {
    lr_mult: 0
    decay_mult: 0
  }
  batch_norm_param {
    use_global_stats: false
  }
}
layer {
  name: "conv2_1_ex/scale"
  type: "Scale"
  bottom: "conv2_1_ex"
  top: "conv2_1_ex"
  param {
    lr_mult: 1
    decay_mult: 0
  }
  param {
    lr_mult: 1
    decay_mult: 0
  }
  scale_param {
    bias_term: true
  }
}
layer {
  name: "relu2_1_ex"
  type: "PReLU"
  bottom: "conv2_1_ex"
  top: "conv2_1_ex"
}
layer {
  name: "conv2_1_dw"
  type: "DepthwiseConvolution"
  bottom: "conv2_1_ex"
  top: "conv2_1_dw"
  param {
    lr_mult: 1
    decay_mult: 1
  }
  convolution_param {
    num_output: 128
    bias_term: false
    pad: 1
    kernel_size: 3
    group: 128
    stride: 1
    weight_filler {
      type: "xavier"
    }
    engine: CAFFE
  }
}
layer {
  name: "conv2_1_dw/bn"
  type: "BatchNorm"
  bottom: "conv2_1_dw"
  top: "conv2_1_dw"
  param {
    lr_mult: 0
    decay_mult: 0
  }
  param {
    lr_mult: 0
    decay_mult: 0
  }
  param {
    lr_mult: 0
    decay_mult: 0
  }
  batch_norm_param {
    use_global_stats: false
  }
}
layer {
  name: "conv2_1_dw/scale"
  type: "Scale"
  bottom: "conv2_1_dw"
  top: "conv2_1_dw"
  param {
    lr_mult: 1
    decay_mult: 0
  }
  param {
    lr_mult: 1
    decay_mult: 0
  }
  scale_param {
    bias_term: true
  }
}
layer {
  name: "relu2_1_dw"
  type: "PReLU"
  bottom: "conv2_1_dw"
  top: "conv2_1_dw"
}
layer {
  name: "conv2_1_em"
  type: "Convolution"
  bottom: "conv2_1_dw"
  top: "conv2_1_em"
  param {
    lr_mult: 1
    decay_mult: 1
  }
  convolution_param {
    num_output: 64
    bias_term: false
    pad: 0
    kernel_size: 1
    stride: 1
    weight_filler {
      type: "xavier"
    }
  }
}
layer {
  name: "conv2_1_em/bn"
  type: "BatchNorm"
  bottom: "conv2_1_em"
  top: "conv2_1_em"
  param {
    lr_mult: 0
    decay_mult: 0
  }
  param {
    lr_mult: 0
    decay_mult: 0
  }
  param {
    lr_mult: 0
    decay_mult: 0
  }
  batch_norm_param {
    use_global_stats: false
  }
}
layer {
  name: "conv2_1_em/scale"
  type: "Scale"
  bottom: "conv2_1_em"
  top: "conv2_1_em"
  param {
    lr_mult: 1
    decay_mult: 0
  }
  param {
    lr_mult: 1
    decay_mult: 0
  }
  scale_param {
    bias_term: true
  }
}
layer {
  name: "res2_1"
  type: "Eltwise"
  bottom: "conv2_em"
  bottom: "conv2_1_em"
  top: "res2_1"
}
layer {
  name: "conv2_2_ex"
  type: "Convolution"
  bottom: "res2_1"
  top: "conv2_2_ex"
  param {
    lr_mult: 1
    decay_mult: 1
  }
  convolution_param {
    num_output: 128
    bias_term: false
    pad: 0
    kernel_size: 1
    stride: 1
    weight_filler {
      type: "xavier"
    }
  }
}
layer {
  name: "conv2_2_ex/bn"
  type: "BatchNorm"
  bottom: "conv2_2_ex"
  top: "conv2_2_ex"
  param {
    lr_mult: 0
    decay_mult: 0
  }
  param {
    lr_mult: 0
    decay_mult: 0
  }
  param {
    lr_mult: 0
    decay_mult: 0
  }
  batch_norm_param {
    use_global_stats: false
  }
}
layer {
  name: "conv2_2_ex/scale"
  type: "Scale"
  bottom: "conv2_2_ex"
  top: "conv2_2_ex"
  param {
    lr_mult: 1
    decay_mult: 0
  }
  param {
    lr_mult: 1
    decay_mult: 0
  }
  scale_param {
    bias_term: true
  }
}
layer {
  name: "relu2_2_ex"
  type: "PReLU"
  bottom: "conv2_2_ex"
  top: "conv2_2_ex"
}
layer {
  name: "conv2_2_dw"
  type: "DepthwiseConvolution"
  bottom: "conv2_2_ex"
  top: "conv2_2_dw"
  param {
    lr_mult: 1
    decay_mult: 1
  }
  convolution_param {
    num_output: 128
    bias_term: false
    pad: 1
    kernel_size: 3
    group: 128
    stride: 1
    weight_filler {
      type: "xavier"
    }
    engine: CAFFE
  }
}
layer {
  name: "conv2_2_dw/bn"
  type: "BatchNorm"
  bottom: "conv2_2_dw"
  top: "conv2_2_dw"
  param {
    lr_mult: 0
    decay_mult: 0
  }
  param {
    lr_mult: 0
    decay_mult: 0
  }
  param {
    lr_mult: 0
    decay_mult: 0
  }
  batch_norm_param {
    use_global_stats: false
  }
}
layer {
  name: "conv2_2_dw/scale"
  type: "Scale"
  bottom: "conv2_2_dw"
  top: "conv2_2_dw"
  param {
    lr_mult: 1
    decay_mult: 0
  }
  param {
    lr_mult: 1
    decay_mult: 0
  }
  scale_param {
    bias_term: true
  }
}
layer {
  name: "relu2_2_dw"
  type: "PReLU"
  bottom: "conv2_2_dw"
  top: "conv2_2_dw"
}
layer {
  name: "conv2_2_em"
  type: "Convolution"
  bottom: "conv2_2_dw"
  top: "conv2_2_em"
  param {
    lr_mult: 1
    decay_mult: 1
  }
  convolution_param {
    num_output: 64
    bias_term: false
    pad: 0
    kernel_size: 1
    stride: 1
    weight_filler {
      type: "xavier"
    }
  }
}
layer {
  name: "conv2_2_em/bn"
  type: "BatchNorm"
  bottom: "conv2_2_em"
  top: "conv2_2_em"
  param {
    lr_mult: 0
    decay_mult: 0
  }
  param {
    lr_mult: 0
    decay_mult: 0
  }
  param {
    lr_mult: 0
    decay_mult: 0
  }
  batch_norm_param {
    use_global_stats: false
  }
}
layer {
  name: "conv2_2_em/scale"
  type: "Scale"
  bottom: "conv2_2_em"
  top: "conv2_2_em"
  param {
    lr_mult: 1
    decay_mult: 0
  }
  param {
    lr_mult: 1
    decay_mult: 0
  }
  scale_param {
    bias_term: true
  }
}
layer {
  name: "res2_2"
  type: "Eltwise"
  bottom: "res2_1"
  bottom: "conv2_2_em"
  top: "res2_2"
}
layer {
  name: "conv2_3_ex"
  type: "Convolution"
  bottom: "res2_2"
  top: "conv2_3_ex"
  param {
    lr_mult: 1
    decay_mult: 1
  }
  convolution_param {
    num_output: 128
    bias_term: false
    pad: 0
    kernel_size: 1
    stride: 1
    weight_filler {
      type: "xavier"
    }
  }
}
layer {
  name: "conv2_3_ex/bn"
  type: "BatchNorm"
  bottom: "conv2_3_ex"
  top: "conv2_3_ex"
  param {
    lr_mult: 0
    decay_mult: 0
  }
  param {
    lr_mult: 0
    decay_mult: 0
  }
  param {
    lr_mult: 0
    decay_mult: 0
  }
  batch_norm_param {
    use_global_stats: false
  }
}
layer {
  name: "conv2_3_ex/scale"
  type: "Scale"
  bottom: "conv2_3_ex"
  top: "conv2_3_ex"
  param {
    lr_mult: 1
    decay_mult: 0
  }
  param {
    lr_mult: 1
    decay_mult: 0
  }
  scale_param {
    bias_term: true
  }
}
layer {
  name: "relu2_3_ex"
  type: "PReLU"
  bottom: "conv2_3_ex"
  top: "conv2_3_ex"
}
layer {
  name: "conv2_3_dw"
  type: "DepthwiseConvolution"
  bottom: "conv2_3_ex"
  top: "conv2_3_dw"
  param {
    lr_mult: 1
    decay_mult: 1
  }
  convolution_param {
    num_output: 128
    bias_term: false
    pad: 1
    kernel_size: 3
    group: 128
    stride: 1
    weight_filler {
      type: "xavier"
    }
    engine: CAFFE
  }
}
layer {
  name: "conv2_3_dw/bn"
  type: "BatchNorm"
  bottom: "conv2_3_dw"
  top: "conv2_3_dw"
  param {
    lr_mult: 0
    decay_mult: 0
  }
  param {
    lr_mult: 0
    decay_mult: 0
  }
  param {
    lr_mult: 0
    decay_mult: 0
  }
  batch_norm_param {
    use_global_stats: false
  }
}
layer {
  name: "conv2_3_dw/scale"
  type: "Scale"
  bottom: "conv2_3_dw"
  top: "conv2_3_dw"
  param {
    lr_mult: 1
    decay_mult: 0
  }
  param {
    lr_mult: 1
    decay_mult: 0
  }
  scale_param {
    bias_term: true
  }
}
layer {
  name: "relu2_3_dw"
  type: "PReLU"
  bottom: "conv2_3_dw"
  top: "conv2_3_dw"
}
layer {
  name: "conv2_3_em"
  type: "Convolution"
  bottom: "conv2_3_dw"
  top: "conv2_3_em"
  param {
    lr_mult: 1
    decay_mult: 1
  }
  convolution_param {
    num_output: 64
    bias_term: false
    pad: 0
    kernel_size: 1
    stride: 1
    weight_filler {
      type: "xavier"
    }
  }
}
layer {
  name: "conv2_3_em/bn"
  type: "BatchNorm"
  bottom: "conv2_3_em"
  top: "conv2_3_em"
  param {
    lr_mult: 0
    decay_mult: 0
  }
  param {
    lr_mult: 0
    decay_mult: 0
  }
  param {
    lr_mult: 0
    decay_mult: 0
  }
  batch_norm_param {
    use_global_stats: false
  }
}
layer {
  name: "conv2_3_em/scale"
  type: "Scale"
  bottom: "conv2_3_em"
  top: "conv2_3_em"
  param {
    lr_mult: 1
    decay_mult: 0
  }
  param {
    lr_mult: 1
    decay_mult: 0
  }
  scale_param {
    bias_term: true
  }
}
layer {
  name: "res2_3"
  type: "Eltwise"
  bottom: "res2_2"
  bottom: "conv2_3_em"
  top: "res2_3"
}
layer {
  name: "conv2_4_ex"
  type: "Convolution"
  bottom: "res2_3"
  top: "conv2_4_ex"
  param {
    lr_mult: 1
    decay_mult: 1
  }
  convolution_param {
    num_output: 128
    bias_term: false
    pad: 0
    kernel_size: 1
    stride: 1
    weight_filler {
      type: "xavier"
    }
  }
}
layer {
  name: "conv2_4_ex/bn"
  type: "BatchNorm"
  bottom: "conv2_4_ex"
  top: "conv2_4_ex"
  param {
    lr_mult: 0
    decay_mult: 0
  }
  param {
    lr_mult: 0
    decay_mult: 0
  }
  param {
    lr_mult: 0
    decay_mult: 0
  }
  batch_norm_param {
    use_global_stats: false
  }
}
layer {
  name: "conv2_4_ex/scale"
  type: "Scale"
  bottom: "conv2_4_ex"
  top: "conv2_4_ex"
  param {
    lr_mult: 1
    decay_mult: 0
  }
  param {
    lr_mult: 1
    decay_mult: 0
  }
  scale_param {
    bias_term: true
  }
}
layer {
  name: "relu2_4_ex"
  type: "PReLU"
  bottom: "conv2_4_ex"
  top: "conv2_4_ex"
}
layer {
  name: "conv2_4_dw"
  type: "DepthwiseConvolution"
  bottom: "conv2_4_ex"
  top: "conv2_4_dw"
  param {
    lr_mult: 1
    decay_mult: 1
  }
  convolution_param {
    num_output: 128
    bias_term: false
    pad: 1
    kernel_size: 3
    group: 128
    stride: 1
    weight_filler {
      type: "xavier"
    }
    engine: CAFFE
  }
}
layer {
  name: "conv2_4_dw/bn"
  type: "BatchNorm"
  bottom: "conv2_4_dw"
  top: "conv2_4_dw"
  param {
    lr_mult: 0
    decay_mult: 0
  }
  param {
    lr_mult: 0
    decay_mult: 0
  }
  param {
    lr_mult: 0
    decay_mult: 0
  }
  batch_norm_param {
    use_global_stats: false
  }
}
layer {
  name: "conv2_4_dw/scale"
  type: "Scale"
  bottom: "conv2_4_dw"
  top: "conv2_4_dw"
  param {
    lr_mult: 1
    decay_mult: 0
  }
  param {
    lr_mult: 1
    decay_mult: 0
  }
  scale_param {
    bias_term: true
  }
}
layer {
  name: "relu2_4_dw"
  type: "PReLU"
  bottom: "conv2_4_dw"
  top: "conv2_4_dw"
}
layer {
  name: "conv2_4_em"
  type: "Convolution"
  bottom: "conv2_4_dw"
  top: "conv2_4_em"
  param {
    lr_mult: 1
    decay_mult: 1
  }
  convolution_param {
    num_output: 64
    bias_term: false
    pad: 0
    kernel_size: 1
    stride: 1
    weight_filler {
      type: "xavier"
    }
  }
}
layer {
  name: "conv2_4_em/bn"
  type: "BatchNorm"
  bottom: "conv2_4_em"
  top: "conv2_4_em"
  param {
    lr_mult: 0
    decay_mult: 0
  }
  param {
    lr_mult: 0
    decay_mult: 0
  }
  param {
    lr_mult: 0
    decay_mult: 0
  }
  batch_norm_param {
    use_global_stats: false
  }
}
layer {
  name: "conv2_4_em/scale"
  type: "Scale"
  bottom: "conv2_4_em"
  top: "conv2_4_em"
  param {
    lr_mult: 1
    decay_mult: 0
  }
  param {
    lr_mult: 1
    decay_mult: 0
  }
  scale_param {
    bias_term: true
  }
}
layer {
  name: "res2_4"
  type: "Eltwise"
  bottom: "res2_3"
  bottom: "conv2_4_em"
  top: "res2_4"
}
layer {
  name: "conv3_ex"
  type: "Convolution"
  bottom: "res2_4"
  top: "conv3_ex"
  param {
    lr_mult: 1
    decay_mult: 1
  }
  convolution_param {
    num_output: 256
    bias_term: false
    pad: 0
    kernel_size: 1
    stride: 1
    weight_filler {
      type: "xavier"
    }
  }
}
layer {
  name: "conv3_ex/bn"
  type: "BatchNorm"
  bottom: "conv3_ex"
  top: "conv3_ex"
  param {
    lr_mult: 0
    decay_mult: 0
  }
  param {
    lr_mult: 0
    decay_mult: 0
  }
  param {
    lr_mult: 0
    decay_mult: 0
  }
  batch_norm_param {
    use_global_stats: false
  }
}
layer {
  name: "conv3_ex/scale"
  type: "Scale"
  bottom: "conv3_ex"
  top: "conv3_ex"
  param {
    lr_mult: 1
    decay_mult: 0
  }
  param {
    lr_mult: 1
    decay_mult: 0
  }
  scale_param {
    bias_term: true
  }
}
layer {
  name: "relu3_ex"
  type: "PReLU"
  bottom: "conv3_ex"
  top: "conv3_ex"
}
layer {
  name: "conv3_dw"
  type: "DepthwiseConvolution"
  bottom: "conv3_ex"
  top: "conv3_dw"
  param {
    lr_mult: 1
    decay_mult: 1
  }
  convolution_param {
    num_output: 256
    bias_term: false
    pad: 1
    kernel_size: 3
    group: 256
    stride: 2
    weight_filler {
      type: "xavier"
    }
    engine: CAFFE
  }
}
layer {
  name: "conv3_dw/bn"
  type: "BatchNorm"
  bottom: "conv3_dw"
  top: "conv3_dw"
  param {
    lr_mult: 0
    decay_mult: 0
  }
  param {
    lr_mult: 0
    decay_mult: 0
  }
  param {
    lr_mult: 0
    decay_mult: 0
  }
  batch_norm_param {
    use_global_stats: false
  }
}
layer {
  name: "conv3_dw/scale"
  type: "Scale"
  bottom: "conv3_dw"
  top: "conv3_dw"
  param {
    lr_mult: 1
    decay_mult: 0
  }
  param {
    lr_mult: 1
    decay_mult: 0
  }
  scale_param {
    bias_term: true
  }
}
layer {
  name: "relu3_dw"
  type: "PReLU"
  bottom: "conv3_dw"
  top: "conv3_dw"
}
layer {
  name: "conv3_em"
  type: "Convolution"
  bottom: "conv3_dw"
  top: "conv3_em"
  param {
    lr_mult: 1
    decay_mult: 1
  }
  convolution_param {
    num_output: 128
    bias_term: false
    pad: 0
    kernel_size: 1
    stride: 1
    weight_filler {
      type: "xavier"
    }
  }
}
layer {
  name: "conv3_em/bn"
  type: "BatchNorm"
  bottom: "conv3_em"
  top: "conv3_em"
  param {
    lr_mult: 0
    decay_mult: 0
  }
  param {
    lr_mult: 0
    decay_mult: 0
  }
  param {
    lr_mult: 0
    decay_mult: 0
  }
  batch_norm_param {
    use_global_stats: false
  }
}
layer {
  name: "conv3_em/scale"
  type: "Scale"
  bottom: "conv3_em"
  top: "conv3_em"
  param {
    lr_mult: 1
    decay_mult: 0
  }
  param {
    lr_mult: 1
    decay_mult: 0
  }
  scale_param {
    bias_term: true
  }
}
layer {
  name: "conv3_1_ex"
  type: "Convolution"
  bottom: "conv3_em"
  top: "conv3_1_ex"
  param {
    lr_mult: 1
    decay_mult: 1
  }
  convolution_param {
    num_output: 256
    bias_term: false
    pad: 0
    kernel_size: 1
    stride: 1
    weight_filler {
      type: "xavier"
    }
  }
}
layer {
  name: "conv3_1_ex/bn"
  type: "BatchNorm"
  bottom: "conv3_1_ex"
  top: "conv3_1_ex"
  param {
    lr_mult: 0
    decay_mult: 0
  }
  param {
    lr_mult: 0
    decay_mult: 0
  }
  param {
    lr_mult: 0
    decay_mult: 0
  }
  batch_norm_param {
    use_global_stats: false
  }
}
layer {
  name: "conv3_1_ex/scale"
  type: "Scale"
  bottom: "conv3_1_ex"
  top: "conv3_1_ex"
  param {
    lr_mult: 1
    decay_mult: 0
  }
  param {
    lr_mult: 1
    decay_mult: 0
  }
  scale_param {
    bias_term: true
  }
}
layer {
  name: "relu3_1_ex"
  type: "PReLU"
  bottom: "conv3_1_ex"
  top: "conv3_1_ex"
}
layer {
  name: "conv3_1_dw"
  type: "DepthwiseConvolution"
  bottom: "conv3_1_ex"
  top: "conv3_1_dw"
  param {
    lr_mult: 1
    decay_mult: 1
  }
  convolution_param {
    num_output: 256
    bias_term: false
    pad: 1
    kernel_size: 3
    group: 256
    stride: 1
    weight_filler {
      type: "xavier"
    }
    engine: CAFFE
  }
}
layer {
  name: "conv3_1_dw/bn"
  type: "BatchNorm"
  bottom: "conv3_1_dw"
  top: "conv3_1_dw"
  param {
    lr_mult: 0
    decay_mult: 0
  }
  param {
    lr_mult: 0
    decay_mult: 0
  }
  param {
    lr_mult: 0
    decay_mult: 0
  }
  batch_norm_param {
    use_global_stats: false
  }
}
layer {
  name: "conv3_1_dw/scale"
  type: "Scale"
  bottom: "conv3_1_dw"
  top: "conv3_1_dw"
  param {
    lr_mult: 1
    decay_mult: 0
  }
  param {
    lr_mult: 1
    decay_mult: 0
  }
  scale_param {
    bias_term: true
  }
}
layer {
  name: "relu3_1_dw"
  type: "PReLU"
  bottom: "conv3_1_dw"
  top: "conv3_1_dw"
}
layer {
  name: "conv3_1_em"
  type: "Convolution"
  bottom: "conv3_1_dw"
  top: "conv3_1_em"
  param {
    lr_mult: 1
    decay_mult: 1
  }
  convolution_param {
    num_output: 128
    bias_term: false
    pad: 0
    kernel_size: 1
    stride: 1
    weight_filler {
      type: "xavier"
    }
  }
}
layer {
  name: "conv3_1_em/bn"
  type: "BatchNorm"
  bottom: "conv3_1_em"
  top: "conv3_1_em"
  param {
    lr_mult: 0
    decay_mult: 0
  }
  param {
    lr_mult: 0
    decay_mult: 0
  }
  param {
    lr_mult: 0
    decay_mult: 0
  }
  batch_norm_param {
    use_global_stats: false
  }
}
layer {
  name: "conv3_1_em/scale"
  type: "Scale"
  bottom: "conv3_1_em"
  top: "conv3_1_em"
  param {
    lr_mult: 1
    decay_mult: 0
  }
  param {
    lr_mult: 1
    decay_mult: 0
  }
  scale_param {
    bias_term: true
  }
}
layer {
  name: "res3_1"
  type: "Eltwise"
  bottom: "conv3_em"
  bottom: "conv3_1_em"
  top: "res3_1"
}
layer {
  name: "conv3_2_ex"
  type: "Convolution"
  bottom: "res3_1"
  top: "conv3_2_ex"
  param {
    lr_mult: 1
    decay_mult: 1
  }
  convolution_param {
    num_output: 256
    bias_term: false
    pad: 0
    kernel_size: 1
    stride: 1
    weight_filler {
      type: "xavier"
    }
  }
}
layer {
  name: "conv3_2_ex/bn"
  type: "BatchNorm"
  bottom: "conv3_2_ex"
  top: "conv3_2_ex"
  param {
    lr_mult: 0
    decay_mult: 0
  }
  param {
    lr_mult: 0
    decay_mult: 0
  }
  param {
    lr_mult: 0
    decay_mult: 0
  }
  batch_norm_param {
    use_global_stats: false
  }
}
layer {
  name: "conv3_2_ex/scale"
  type: "Scale"
  bottom: "conv3_2_ex"
  top: "conv3_2_ex"
  param {
    lr_mult: 1
    decay_mult: 0
  }
  param {
    lr_mult: 1
    decay_mult: 0
  }
  scale_param {
    bias_term: true
  }
}
layer {
  name: "relu3_2_ex"
  type: "PReLU"
  bottom: "conv3_2_ex"
  top: "conv3_2_ex"
}
layer {
  name: "conv3_2_dw"
  type: "DepthwiseConvolution"
  bottom: "conv3_2_ex"
  top: "conv3_2_dw"
  param {
    lr_mult: 1
    decay_mult: 1
  }
  convolution_param {
    num_output: 256
    bias_term: false
    pad: 1
    kernel_size: 3
    group: 256
    stride: 1
    weight_filler {
      type: "xavier"
    }
    engine: CAFFE
  }
}
layer {
  name: "conv3_2_dw/bn"
  type: "BatchNorm"
  bottom: "conv3_2_dw"
  top: "conv3_2_dw"
  param {
    lr_mult: 0
    decay_mult: 0
  }
  param {
    lr_mult: 0
    decay_mult: 0
  }
  param {
    lr_mult: 0
    decay_mult: 0
  }
  batch_norm_param {
    use_global_stats: false
  }
}
layer {
  name: "conv3_2_dw/scale"
  type: "Scale"
  bottom: "conv3_2_dw"
  top: "conv3_2_dw"
  param {
    lr_mult: 1
    decay_mult: 0
  }
  param {
    lr_mult: 1
    decay_mult: 0
  }
  scale_param {
    bias_term: true
  }
}
layer {
  name: "relu3_2_dw"
  type: "PReLU"
  bottom: "conv3_2_dw"
  top: "conv3_2_dw"
}
layer {
  name: "conv3_2_em"
  type: "Convolution"
  bottom: "conv3_2_dw"
  top: "conv3_2_em"
  param {
    lr_mult: 1
    decay_mult: 1
  }
  convolution_param {
    num_output: 128
    bias_term: false
    pad: 0
    kernel_size: 1
    stride: 1
    weight_filler {
      type: "xavier"
    }
  }
}
layer {
  name: "conv3_2_em/bn"
  type: "BatchNorm"
  bottom: "conv3_2_em"
  top: "conv3_2_em"
  param {
    lr_mult: 0
    decay_mult: 0
  }
  param {
    lr_mult: 0
    decay_mult: 0
  }
  param {
    lr_mult: 0
    decay_mult: 0
  }
  batch_norm_param {
    use_global_stats: false
  }
}
layer {
  name: "conv3_2_em/scale"
  type: "Scale"
  bottom: "conv3_2_em"
  top: "conv3_2_em"
  param {
    lr_mult: 1
    decay_mult: 0
  }
  param {
    lr_mult: 1
    decay_mult: 0
  }
  scale_param {
    bias_term: true
  }
}
layer {
  name: "res3_2"
  type: "Eltwise"
  bottom: "res3_1"
  bottom: "conv3_2_em"
  top: "res3_2"
}
layer {
  name: "conv3_3_ex"
  type: "Convolution"
  bottom: "res3_2"
  top: "conv3_3_ex"
  param {
    lr_mult: 1
    decay_mult: 1
  }
  convolution_param {
    num_output: 256
    bias_term: false
    pad: 0
    kernel_size: 1
    stride: 1
    weight_filler {
      type: "xavier"
    }
  }
}
layer {
  name: "conv3_3_ex/bn"
  type: "BatchNorm"
  bottom: "conv3_3_ex"
  top: "conv3_3_ex"
  param {
    lr_mult: 0
    decay_mult: 0
  }
  param {
    lr_mult: 0
    decay_mult: 0
  }
  param {
    lr_mult: 0
    decay_mult: 0
  }
  batch_norm_param {
    use_global_stats: false
  }
}
layer {
  name: "conv3_3_ex/scale"
  type: "Scale"
  bottom: "conv3_3_ex"
  top: "conv3_3_ex"
  param {
    lr_mult: 1
    decay_mult: 0
  }
  param {
    lr_mult: 1
    decay_mult: 0
  }
  scale_param {
    bias_term: true
  }
}
layer {
  name: "relu3_3_ex"
  type: "PReLU"
  bottom: "conv3_3_ex"
  top: "conv3_3_ex"
}
layer {
  name: "conv3_3_dw"
  type: "DepthwiseConvolution"
  bottom: "conv3_3_ex"
  top: "conv3_3_dw"
  param {
    lr_mult: 1
    decay_mult: 1
  }
  convolution_param {
    num_output: 256
    bias_term: false
    pad: 1
    kernel_size: 3
    group: 256
    stride: 1
    weight_filler {
      type: "xavier"
    }
    engine: CAFFE
  }
}
layer {
  name: "conv3_3_dw/bn"
  type: "BatchNorm"
  bottom: "conv3_3_dw"
  top: "conv3_3_dw"
  param {
    lr_mult: 0
    decay_mult: 0
  }
  param {
    lr_mult: 0
    decay_mult: 0
  }
  param {
    lr_mult: 0
    decay_mult: 0
  }
  batch_norm_param {
    use_global_stats: false
  }
}
layer {
  name: "conv3_3_dw/scale"
  type: "Scale"
  bottom: "conv3_3_dw"
  top: "conv3_3_dw"
  param {
    lr_mult: 1
    decay_mult: 0
  }
  param {
    lr_mult: 1
    decay_mult: 0
  }
  scale_param {
    bias_term: true
  }
}
layer {
  name: "relu3_3_dw"
  type: "PReLU"
  bottom: "conv3_3_dw"
  top: "conv3_3_dw"
}
layer {
  name: "conv3_3_em"
  type: "Convolution"
  bottom: "conv3_3_dw"
  top: "conv3_3_em"
  param {
    lr_mult: 1
    decay_mult: 1
  }
  convolution_param {
    num_output: 128
    bias_term: false
    pad: 0
    kernel_size: 1
    stride: 1
    weight_filler {
      type: "xavier"
    }
  }
}
layer {
  name: "conv3_3_em/bn"
  type: "BatchNorm"
  bottom: "conv3_3_em"
  top: "conv3_3_em"
  param {
    lr_mult: 0
    decay_mult: 0
  }
  param {
    lr_mult: 0
    decay_mult: 0
  }
  param {
    lr_mult: 0
    decay_mult: 0
  }
  batch_norm_param {
    use_global_stats: false
  }
}
layer {
  name: "conv3_3_em/scale"
  type: "Scale"
  bottom: "conv3_3_em"
  top: "conv3_3_em"
  param {
    lr_mult: 1
    decay_mult: 0
  }
  param {
    lr_mult: 1
    decay_mult: 0
  }
  scale_param {
    bias_term: true
  }
}
layer {
  name: "res3_3"
  type: "Eltwise"
  bottom: "res3_2"
  bottom: "conv3_3_em"
  top: "res3_3"
}
layer {
  name: "conv3_4_ex"
  type: "Convolution"
  bottom: "res3_3"
  top: "conv3_4_ex"
  param {
    lr_mult: 1
    decay_mult: 1
  }
  convolution_param {
    num_output: 256
    bias_term: false
    pad: 0
    kernel_size: 1
    stride: 1
    weight_filler {
      type: "xavier"
    }
  }
}
layer {
  name: "conv3_4_ex/bn"
  type: "BatchNorm"
  bottom: "conv3_4_ex"
  top: "conv3_4_ex"
  param {
    lr_mult: 0
    decay_mult: 0
  }
  param {
    lr_mult: 0
    decay_mult: 0
  }
  param {
    lr_mult: 0
    decay_mult: 0
  }
  batch_norm_param {
    use_global_stats: false
  }
}
layer {
  name: "conv3_4_ex/scale"
  type: "Scale"
  bottom: "conv3_4_ex"
  top: "conv3_4_ex"
  param {
    lr_mult: 1
    decay_mult: 0
  }
  param {
    lr_mult: 1
    decay_mult: 0
  }
  scale_param {
    bias_term: true
  }
}
layer {
  name: "relu3_4_ex"
  type: "PReLU"
  bottom: "conv3_4_ex"
  top: "conv3_4_ex"
}
layer {
  name: "conv3_4_dw"
  type: "DepthwiseConvolution"
  bottom: "conv3_4_ex"
  top: "conv3_4_dw"
  param {
    lr_mult: 1
    decay_mult: 1
  }
  convolution_param {
    num_output: 256
    bias_term: false
    pad: 1
    kernel_size: 3
    group: 256
    stride: 1
    weight_filler {
      type: "xavier"
    }
    engine: CAFFE
  }
}
layer {
  name: "conv3_4_dw/bn"
  type: "BatchNorm"
  bottom: "conv3_4_dw"
  top: "conv3_4_dw"
  param {
    lr_mult: 0
    decay_mult: 0
  }
  param {
    lr_mult: 0
    decay_mult: 0
  }
  param {
    lr_mult: 0
    decay_mult: 0
  }
  batch_norm_param {
    use_global_stats: false
  }
}
layer {
  name: "conv3_4_dw/scale"
  type: "Scale"
  bottom: "conv3_4_dw"
  top: "conv3_4_dw"
  param {
    lr_mult: 1
    decay_mult: 0
  }
  param {
    lr_mult: 1
    decay_mult: 0
  }
  scale_param {
    bias_term: true
  }
}
layer {
  name: "relu3_4_dw"
  type: "PReLU"
  bottom: "conv3_4_dw"
  top: "conv3_4_dw"
}
layer {
  name: "conv3_4_em"
  type: "Convolution"
  bottom: "conv3_4_dw"
  top: "conv3_4_em"
  param {
    lr_mult: 1
    decay_mult: 1
  }
  convolution_param {
    num_output: 128
    bias_term: false
    pad: 0
    kernel_size: 1
    stride: 1
    weight_filler {
      type: "xavier"
    }
  }
}
layer {
  name: "conv3_4_em/bn"
  type: "BatchNorm"
  bottom: "conv3_4_em"
  top: "conv3_4_em"
  param {
    lr_mult: 0
    decay_mult: 0
  }
  param {
    lr_mult: 0
    decay_mult: 0
  }
  param {
    lr_mult: 0
    decay_mult: 0
  }
  batch_norm_param {
    use_global_stats: false
  }
}
layer {
  name: "conv3_4_em/scale"
  type: "Scale"
  bottom: "conv3_4_em"
  top: "conv3_4_em"
  param {
    lr_mult: 1
    decay_mult: 0
  }
  param {
    lr_mult: 1
    decay_mult: 0
  }
  scale_param {
    bias_term: true
  }
}
layer {
  name: "res3_4"
  type: "Eltwise"
  bottom: "res3_3"
  bottom: "conv3_4_em"
  top: "res3_4"
}
layer {
  name: "conv3_5_ex"
  type: "Convolution"
  bottom: "res3_4"
  top: "conv3_5_ex"
  param {
  
I0523 21:53:38.267935 11654 layer_factory.hpp:77] Creating layer data
I0523 21:53:38.267997 11654 net.cpp:84] Creating Layer data
I0523 21:53:38.268005 11654 net.cpp:380] data -> data
I0523 21:53:38.268028 11654 net.cpp:380] data -> label
I0523 21:53:38.268040 11654 image_data_layer.cpp:38] Opening file /home/zkx/Data_sdb/TrainData/Data_sdc/Patches/MultiPatches/image_list/train_list/Combine_base_Cmul-Asia-beid-cap10-ZheD_list.txt_label.txt
I0523 21:53:39.161262 11654 image_data_layer.cpp:53] Shuffling data
I0523 21:53:39.588524 11654 image_data_layer.cpp:63] A total of 2075438 images.
I0523 21:53:39.591207 11654 image_data_layer.cpp:90] output data size: 64,3,112,96
I0523 21:53:39.615473 11654 net.cpp:122] Setting up data
I0523 21:53:39.615507 11654 net.cpp:129] Top shape: 64 3 112 96 (2064384)
I0523 21:53:39.615514 11654 net.cpp:129] Top shape: 64 (64)
I0523 21:53:39.615556 11654 net.cpp:137] Memory required for data: 8257792
I0523 21:53:39.615586 11654 layer_factory.hpp:77] Creating layer label_data_1_split
I0523 21:53:39.615645 11654 net.cpp:84] Creating Layer label_data_1_split
I0523 21:53:39.615654 11654 net.cpp:406] label_data_1_split <- label
I0523 21:53:39.615670 11654 net.cpp:380] label_data_1_split -> label_data_1_split_0
I0523 21:53:39.615685 11654 net.cpp:380] label_data_1_split -> label_data_1_split_1
I0523 21:53:39.615774 11654 net.cpp:122] Setting up label_data_1_split
I0523 21:53:39.615784 11654 net.cpp:129] Top shape: 64 (64)
I0523 21:53:39.615788 11654 net.cpp:129] Top shape: 64 (64)
I0523 21:53:39.615792 11654 net.cpp:137] Memory required for data: 8258304
I0523 21:53:39.615794 11654 layer_factory.hpp:77] Creating layer conv1
I0523 21:53:39.615829 11654 net.cpp:84] Creating Layer conv1
I0523 21:53:39.615835 11654 net.cpp:406] conv1 <- data
I0523 21:53:39.615844 11654 net.cpp:380] conv1 -> conv1
I0523 21:53:40.129374 11654 net.cpp:122] Setting up conv1
I0523 21:53:40.129426 11654 net.cpp:129] Top shape: 64 64 56 48 (11010048)
I0523 21:53:40.129431 11654 net.cpp:137] Memory required for data: 52298496
I0523 21:53:40.129456 11654 layer_factory.hpp:77] Creating layer conv1/bn
I0523 21:53:40.129496 11654 net.cpp:84] Creating Layer conv1/bn
I0523 21:53:40.129503 11654 net.cpp:406] conv1/bn <- conv1
I0523 21:53:40.129513 11654 net.cpp:367] conv1/bn -> conv1 (in-place)
I0523 21:53:40.129693 11654 net.cpp:122] Setting up conv1/bn
I0523 21:53:40.129701 11654 net.cpp:129] Top shape: 64 64 56 48 (11010048)
I0523 21:53:40.129705 11654 net.cpp:137] Memory required for data: 96338688
I0523 21:53:40.129717 11654 layer_factory.hpp:77] Creating layer conv1/scale
I0523 21:53:40.129734 11654 net.cpp:84] Creating Layer conv1/scale
I0523 21:53:40.129739 11654 net.cpp:406] conv1/scale <- conv1
I0523 21:53:40.129745 11654 net.cpp:367] conv1/scale -> conv1 (in-place)
I0523 21:53:40.129787 11654 layer_factory.hpp:77] Creating layer conv1/scale
I0523 21:53:40.129895 11654 net.cpp:122] Setting up conv1/scale
I0523 21:53:40.129904 11654 net.cpp:129] Top shape: 64 64 56 48 (11010048)
I0523 21:53:40.129906 11654 net.cpp:137] Memory required for data: 140378880
I0523 21:53:40.129915 11654 layer_factory.hpp:77] Creating layer relu1
I0523 21:53:40.129926 11654 net.cpp:84] Creating Layer relu1
I0523 21:53:40.129931 11654 net.cpp:406] relu1 <- conv1
I0523 21:53:40.129945 11654 net.cpp:367] relu1 -> conv1 (in-place)
I0523 21:53:40.131722 11654 net.cpp:122] Setting up relu1
I0523 21:53:40.131738 11654 net.cpp:129] Top shape: 64 64 56 48 (11010048)
I0523 21:53:40.131743 11654 net.cpp:137] Memory required for data: 184419072
I0523 21:53:40.131749 11654 layer_factory.hpp:77] Creating layer conv1_dw
I0523 21:53:40.131770 11654 net.cpp:84] Creating Layer conv1_dw
I0523 21:53:40.131775 11654 net.cpp:406] conv1_dw <- conv1
I0523 21:53:40.131783 11654 net.cpp:380] conv1_dw -> conv1_dw
I0523 21:53:40.133514 11654 net.cpp:122] Setting up conv1_dw
I0523 21:53:40.133528 11654 net.cpp:129] Top shape: 64 64 56 48 (11010048)
I0523 21:53:40.133532 11654 net.cpp:137] Memory required for data: 228459264
I0523 21:53:40.133553 11654 layer_factory.hpp:77] Creating layer conv1_dw/bn
I0523 21:53:40.133561 11654 net.cpp:84] Creating Layer conv1_dw/bn
I0523 21:53:40.133568 11654 net.cpp:406] conv1_dw/bn <- conv1_dw
I0523 21:53:40.133574 11654 net.cpp:367] conv1_dw/bn -> conv1_dw (in-place)
I0523 21:53:40.133776 11654 net.cpp:122] Setting up conv1_dw/bn
I0523 21:53:40.133783 11654 net.cpp:129] Top shape: 64 64 56 48 (11010048)
I0523 21:53:40.133787 11654 net.cpp:137] Memory required for data: 272499456
I0523 21:53:40.133800 11654 layer_factory.hpp:77] Creating layer conv1_dw/scale
I0523 21:53:40.133810 11654 net.cpp:84] Creating Layer conv1_dw/scale
I0523 21:53:40.133814 11654 net.cpp:406] conv1_dw/scale <- conv1_dw
I0523 21:53:40.133821 11654 net.cpp:367] conv1_dw/scale -> conv1_dw (in-place)
I0523 21:53:40.133857 11654 layer_factory.hpp:77] Creating layer conv1_dw/scale
I0523 21:53:40.133958 11654 net.cpp:122] Setting up conv1_dw/scale
I0523 21:53:40.133987 11654 net.cpp:129] Top shape: 64 64 56 48 (11010048)
I0523 21:53:40.133991 11654 net.cpp:137] Memory required for data: 316539648
I0523 21:53:40.133998 11654 layer_factory.hpp:77] Creating layer relu1_dw
I0523 21:53:40.134006 11654 net.cpp:84] Creating Layer relu1_dw
I0523 21:53:40.134009 11654 net.cpp:406] relu1_dw <- conv1_dw
I0523 21:53:40.134014 11654 net.cpp:367] relu1_dw -> conv1_dw (in-place)
I0523 21:53:40.134220 11654 net.cpp:122] Setting up relu1_dw
I0523 21:53:40.134228 11654 net.cpp:129] Top shape: 64 64 56 48 (11010048)
I0523 21:53:40.134232 11654 net.cpp:137] Memory required for data: 360579840
I0523 21:53:40.134236 11654 layer_factory.hpp:77] Creating layer conv2_ex
I0523 21:53:40.134246 11654 net.cpp:84] Creating Layer conv2_ex
I0523 21:53:40.134250 11654 net.cpp:406] conv2_ex <- conv1_dw
I0523 21:53:40.134256 11654 net.cpp:380] conv2_ex -> conv2_ex
I0523 21:53:40.136838 11654 net.cpp:122] Setting up conv2_ex
I0523 21:53:40.136853 11654 net.cpp:129] Top shape: 64 128 56 48 (22020096)
I0523 21:53:40.136857 11654 net.cpp:137] Memory required for data: 448660224
I0523 21:53:40.136862 11654 layer_factory.hpp:77] Creating layer conv2_ex/bn
I0523 21:53:40.136868 11654 net.cpp:84] Creating Layer conv2_ex/bn
I0523 21:53:40.136873 11654 net.cpp:406] conv2_ex/bn <- conv2_ex
I0523 21:53:40.136878 11654 net.cpp:367] conv2_ex/bn -> conv2_ex (in-place)
I0523 21:53:40.137064 11654 net.cpp:122] Setting up conv2_ex/bn
I0523 21:53:40.137073 11654 net.cpp:129] Top shape: 64 128 56 48 (22020096)
I0523 21:53:40.137076 11654 net.cpp:137] Memory required for data: 536740608
I0523 21:53:40.137089 11654 layer_factory.hpp:77] Creating layer conv2_ex/scale
I0523 21:53:40.137097 11654 net.cpp:84] Creating Layer conv2_ex/scale
I0523 21:53:40.137101 11654 net.cpp:406] conv2_ex/scale <- conv2_ex
I0523 21:53:40.137106 11654 net.cpp:367] conv2_ex/scale -> conv2_ex (in-place)
I0523 21:53:40.137141 11654 layer_factory.hpp:77] Creating layer conv2_ex/scale
I0523 21:53:40.137235 11654 net.cpp:122] Setting up conv2_ex/scale
I0523 21:53:40.137243 11654 net.cpp:129] Top shape: 64 128 56 48 (22020096)
I0523 21:53:40.137246 11654 net.cpp:137] Memory required for data: 624820992
I0523 21:53:40.137251 11654 layer_factory.hpp:77] Creating layer relu2_ex
I0523 21:53:40.137256 11654 net.cpp:84] Creating Layer relu2_ex
I0523 21:53:40.137259 11654 net.cpp:406] relu2_ex <- conv2_ex
I0523 21:53:40.137264 11654 net.cpp:367] relu2_ex -> conv2_ex (in-place)
I0523 21:53:40.139058 11654 net.cpp:122] Setting up relu2_ex
I0523 21:53:40.139075 11654 net.cpp:129] Top shape: 64 128 56 48 (22020096)
I0523 21:53:40.139078 11654 net.cpp:137] Memory required for data: 712901376
I0523 21:53:40.139083 11654 layer_factory.hpp:77] Creating layer conv2_dw
I0523 21:53:40.139096 11654 net.cpp:84] Creating Layer conv2_dw
I0523 21:53:40.139101 11654 net.cpp:406] conv2_dw <- conv2_ex
I0523 21:53:40.139108 11654 net.cpp:380] conv2_dw -> conv2_dw
I0523 21:53:40.139288 11654 net.cpp:122] Setting up conv2_dw
I0523 21:53:40.139302 11654 net.cpp:129] Top shape: 64 128 28 24 (5505024)
I0523 21:53:40.139304 11654 net.cpp:137] Memory required for data: 734921472
I0523 21:53:40.139309 11654 layer_factory.hpp:77] Creating layer conv2_dw/bn
I0523 21:53:40.139317 11654 net.cpp:84] Creating Layer conv2_dw/bn
I0523 21:53:40.139322 11654 net.cpp:406] conv2_dw/bn <- conv2_dw
I0523 21:53:40.139327 11654 net.cpp:367] conv2_dw/bn -> conv2_dw (in-place)
I0523 21:53:40.139489 11654 net.cpp:122] Setting up conv2_dw/bn
I0523 21:53:40.139497 11654 net.cpp:129] Top shape: 64 128 28 24 (5505024)
I0523 21:53:40.139500 11654 net.cpp:137] Memory required for data: 756941568
I0523 21:53:40.139508 11654 layer_factory.hpp:77] Creating layer conv2_dw/scale
I0523 21:53:40.139515 11654 net.cpp:84] Creating Layer conv2_dw/scale
I0523 21:53:40.139518 11654 net.cpp:406] conv2_dw/scale <- conv2_dw
I0523 21:53:40.139523 11654 net.cpp:367] conv2_dw/scale -> conv2_dw (in-place)
I0523 21:53:40.139557 11654 layer_factory.hpp:77] Creating layer conv2_dw/scale
I0523 21:53:40.139668 11654 net.cpp:122] Setting up conv2_dw/scale
I0523 21:53:40.139689 11654 net.cpp:129] Top shape: 64 128 28 24 (5505024)
I0523 21:53:40.139693 11654 net.cpp:137] Memory required for data: 778961664
I0523 21:53:40.139698 11654 layer_factory.hpp:77] Creating layer relu2_dw
I0523 21:53:40.139703 11654 net.cpp:84] Creating Layer relu2_dw
I0523 21:53:40.139708 11654 net.cpp:406] relu2_dw <- conv2_dw
I0523 21:53:40.139711 11654 net.cpp:367] relu2_dw -> conv2_dw (in-place)
I0523 21:53:40.139840 11654 net.cpp:122] Setting up relu2_dw
I0523 21:53:40.139848 11654 net.cpp:129] Top shape: 64 128 28 24 (5505024)
I0523 21:53:40.139852 11654 net.cpp:137] Memory required for data: 800981760
I0523 21:53:40.139855 11654 layer_factory.hpp:77] Creating layer conv2_em
I0523 21:53:40.139866 11654 net.cpp:84] Creating Layer conv2_em
I0523 21:53:40.139873 11654 net.cpp:406] conv2_em <- conv2_dw
I0523 21:53:40.139879 11654 net.cpp:380] conv2_em -> conv2_em
I0523 21:53:40.140923 11654 net.cpp:122] Setting up conv2_em
I0523 21:53:40.140938 11654 net.cpp:129] Top shape: 64 64 28 24 (2752512)
I0523 21:53:40.140957 11654 net.cpp:137] Memory required for data: 811991808
I0523 21:53:40.140965 11654 layer_factory.hpp:77] Creating layer conv2_em/bn
I0523 21:53:40.140974 11654 net.cpp:84] Creating Layer conv2_em/bn
I0523 21:53:40.140992 11654 net.cpp:406] conv2_em/bn <- conv2_em
I0523 21:53:40.140998 11654 net.cpp:367] conv2_em/bn -> conv2_em (in-place)
I0523 21:53:40.141175 11654 net.cpp:122] Setting up conv2_em/bn
I0523 21:53:40.141185 11654 net.cpp:129] Top shape: 64 64 28 24 (2752512)
I0523 21:53:40.141187 11654 net.cpp:137] Memory required for data: 823001856
I0523 21:53:40.141194 11654 layer_factory.hpp:77] Creating layer conv2_em/scale
I0523 21:53:40.141201 11654 net.cpp:84] Creating Layer conv2_em/scale
I0523 21:53:40.141206 11654 net.cpp:406] conv2_em/scale <- conv2_em
I0523 21:53:40.141212 11654 net.cpp:367] conv2_em/scale -> conv2_em (in-place)
I0523 21:53:40.141265 11654 layer_factory.hpp:77] Creating layer conv2_em/scale
I0523 21:53:40.141381 11654 net.cpp:122] Setting up conv2_em/scale
I0523 21:53:40.141388 11654 net.cpp:129] Top shape: 64 64 28 24 (2752512)
I0523 21:53:40.141391 11654 net.cpp:137] Memory required for data: 834011904
I0523 21:53:40.141402 11654 layer_factory.hpp:77] Creating layer conv2_em_conv2_em/scale_0_split
I0523 21:53:40.141418 11654 net.cpp:84] Creating Layer conv2_em_conv2_em/scale_0_split
I0523 21:53:40.141422 11654 net.cpp:406] conv2_em_conv2_em/scale_0_split <- conv2_em
I0523 21:53:40.141427 11654 net.cpp:380] conv2_em_conv2_em/scale_0_split -> conv2_em_conv2_em/scale_0_split_0
I0523 21:53:40.141433 11654 net.cpp:380] conv2_em_conv2_em/scale_0_split -> conv2_em_conv2_em/scale_0_split_1
I0523 21:53:40.141469 11654 net.cpp:122] Setting up conv2_em_conv2_em/scale_0_split
I0523 21:53:40.141475 11654 net.cpp:129] Top shape: 64 64 28 24 (2752512)
I0523 21:53:40.141479 11654 net.cpp:129] Top shape: 64 64 28 24 (2752512)
I0523 21:53:40.141482 11654 net.cpp:137] Memory required for data: 856032000
I0523 21:53:40.141485 11654 layer_factory.hpp:77] Creating layer conv2_1_ex
I0523 21:53:40.141495 11654 net.cpp:84] Creating Layer conv2_1_ex
I0523 21:53:40.141501 11654 net.cpp:406] conv2_1_ex <- conv2_em_conv2_em/scale_0_split_0
I0523 21:53:40.141507 11654 net.cpp:380] conv2_1_ex -> conv2_1_ex
I0523 21:53:40.142558 11654 net.cpp:122] Setting up conv2_1_ex
I0523 21:53:40.142573 11654 net.cpp:129] Top shape: 64 128 28 24 (5505024)
I0523 21:53:40.142593 11654 net.cpp:137] Memory required for data: 878052096
I0523 21:53:40.142601 11654 layer_factory.hpp:77] Creating layer conv2_1_ex/bn
I0523 21:53:40.142608 11654 net.cpp:84] Creating Layer conv2_1_ex/bn
I0523 21:53:40.142614 11654 net.cpp:406] conv2_1_ex/bn <- conv2_1_ex
I0523 21:53:40.142621 11654 net.cpp:367] conv2_1_ex/bn -> conv2_1_ex (in-place)
I0523 21:53:40.142818 11654 net.cpp:122] Setting up conv2_1_ex/bn
I0523 21:53:40.142827 11654 net.cpp:129] Top shape: 64 128 28 24 (5505024)
I0523 21:53:40.142830 11654 net.cpp:137] Memory required for data: 900072192
I0523 21:53:40.142838 11654 layer_factory.hpp:77] Creating layer conv2_1_ex/scale
I0523 21:53:40.142858 11654 net.cpp:84] Creating Layer conv2_1_ex/scale
I0523 21:53:40.142863 11654 net.cpp:406] conv2_1_ex/scale <- conv2_1_ex
I0523 21:53:40.142870 11654 net.cpp:367] conv2_1_ex/scale -> conv2_1_ex (in-place)
I0523 21:53:40.142911 11654 layer_factory.hpp:77] Creating layer conv2_1_ex/scale
I0523 21:53:40.143013 11654 net.cpp:122] Setting up conv2_1_ex/scale
I0523 21:53:40.143026 11654 net.cpp:129] Top shape: 64 128 28 24 (5505024)
I0523 21:53:40.143030 11654 net.cpp:137] Memory required for data: 922092288
I0523 21:53:40.143035 11654 layer_factory.hpp:77] Creating layer relu2_1_ex
I0523 21:53:40.143043 11654 net.cpp:84] Creating Layer relu2_1_ex
I0523 21:53:40.143048 11654 net.cpp:406] relu2_1_ex <- conv2_1_ex
I0523 21:53:40.143051 11654 net.cpp:367] relu2_1_ex -> conv2_1_ex (in-place)
I0523 21:53:40.143185 11654 net.cpp:122] Setting up relu2_1_ex
I0523 21:53:40.143194 11654 net.cpp:129] Top shape: 64 128 28 24 (5505024)
I0523 21:53:40.143198 11654 net.cpp:137] Memory required for data: 944112384
I0523 21:53:40.143201 11654 layer_factory.hpp:77] Creating layer conv2_1_dw
I0523 21:53:40.143211 11654 net.cpp:84] Creating Layer conv2_1_dw
I0523 21:53:40.143218 11654 net.cpp:406] conv2_1_dw <- conv2_1_ex
I0523 21:53:40.143223 11654 net.cpp:380] conv2_1_dw -> conv2_1_dw
I0523 21:53:40.143404 11654 net.cpp:122] Setting up conv2_1_dw
I0523 21:53:40.143412 11654 net.cpp:129] Top shape: 64 128 28 24 (5505024)
I0523 21:53:40.143415 11654 net.cpp:137] Memory required for data: 966132480
I0523 21:53:40.143420 11654 layer_factory.hpp:77] Creating layer conv2_1_dw/bn
I0523 21:53:40.143427 11654 net.cpp:84] Creating Layer conv2_1_dw/bn
I0523 21:53:40.143430 11654 net.cpp:406] conv2_1_dw/bn <- conv2_1_dw
I0523 21:53:40.143435 11654 net.cpp:367] conv2_1_dw/bn -> conv2_1_dw (in-place)
I0523 21:53:40.143617 11654 net.cpp:122] Setting up conv2_1_dw/bn
I0523 21:53:40.143625 11654 net.cpp:129] Top shape: 64 128 28 24 (5505024)
I0523 21:53:40.143628 11654 net.cpp:137] Memory required for data: 988152576
I0523 21:53:40.143635 11654 layer_factory.hpp:77] Creating layer conv2_1_dw/scale
I0523 21:53:40.143641 11654 net.cpp:84] Creating Layer conv2_1_dw/scale
I0523 21:53:40.143646 11654 net.cpp:406] conv2_1_dw/scale <- conv2_1_dw
I0523 21:53:40.143651 11654 net.cpp:367] conv2_1_dw/scale -> conv2_1_dw (in-place)
I0523 21:53:40.143683 11654 layer_factory.hpp:77] Creating layer conv2_1_dw/scale
I0523 21:53:40.143780 11654 net.cpp:122] Setting up conv2_1_dw/scale
I0523 21:53:40.143788 11654 net.cpp:129] Top shape: 64 128 28 24 (5505024)
I0523 21:53:40.143791 11654 net.cpp:137] Memory required for data: 1010172672
I0523 21:53:40.143796 11654 layer_factory.hpp:77] Creating layer relu2_1_dw
I0523 21:53:40.143801 11654 net.cpp:84] Creating Layer relu2_1_dw
I0523 21:53:40.143805 11654 net.cpp:406] relu2_1_dw <- conv2_1_dw
I0523 21:53:40.143810 11654 net.cpp:367] relu2_1_dw -> conv2_1_dw (in-place)
I0523 21:53:40.143945 11654 net.cpp:122] Setting up relu2_1_dw
I0523 21:53:40.143954 11654 net.cpp:129] Top shape: 64 128 28 24 (5505024)
I0523 21:53:40.143956 11654 net.cpp:137] Memory required for data: 1032192768
I0523 21:53:40.143961 11654 layer_factory.hpp:77] Creating layer conv2_1_em
I0523 21:53:40.143970 11654 net.cpp:84] Creating Layer conv2_1_em
I0523 21:53:40.143973 11654 net.cpp:406] conv2_1_em <- conv2_1_dw
I0523 21:53:40.143980 11654 net.cpp:380] conv2_1_em -> conv2_1_em
I0523 21:53:40.145051 11654 net.cpp:122] Setting up conv2_1_em
I0523 21:53:40.145066 11654 net.cpp:129] Top shape: 64 64 28 24 (2752512)
I0523 21:53:40.145087 11654 net.cpp:137] Memory required for data: 1043202816
I0523 21:53:40.145092 11654 layer_factory.hpp:77] Creating layer conv2_1_em/bn
I0523 21:53:40.145102 11654 net.cpp:84] Creating Layer conv2_1_em/bn
I0523 21:53:40.145107 11654 net.cpp:406] conv2_1_em/bn <- conv2_1_em
I0523 21:53:40.145112 11654 net.cpp:367] conv2_1_em/bn -> conv2_1_em (in-place)
I0523 21:53:40.145296 11654 net.cpp:122] Setting up conv2_1_em/bn
I0523 21:53:40.145304 11654 net.cpp:129] Top shape: 64 64 28 24 (2752512)
I0523 21:53:40.145320 11654 net.cpp:137] Memory required for data: 1054212864
I0523 21:53:40.145344 11654 layer_factory.hpp:77] Creating layer conv2_1_em/scale
I0523 21:53:40.145354 11654 net.cpp:84] Creating Layer conv2_1_em/scale
I0523 21:53:40.145359 11654 net.cpp:406] conv2_1_em/scale <- conv2_1_em
I0523 21:53:40.145364 11654 net.cpp:367] conv2_1_em/scale -> conv2_1_em (in-place)
I0523 21:53:40.145402 11654 layer_factory.hpp:77] Creating layer conv2_1_em/scale
I0523 21:53:40.145509 11654 net.cpp:122] Setting up conv2_1_em/scale
I0523 21:53:40.145515 11654 net.cpp:129] Top shape: 64 64 28 24 (2752512)
I0523 21:53:40.145519 11654 net.cpp:137] Memory required for data: 1065222912
I0523 21:53:40.145524 11654 layer_factory.hpp:77] Creating layer res2_1
I0523 21:53:40.145529 11654 net.cpp:84] Creating Layer res2_1
I0523 21:53:40.145534 11654 net.cpp:406] res2_1 <- conv2_em_conv2_em/scale_0_split_1
I0523 21:53:40.145539 11654 net.cpp:406] res2_1 <- conv2_1_em
I0523 21:53:40.145543 11654 net.cpp:380] res2_1 -> res2_1
I0523 21:53:40.145566 11654 net.cpp:122] Setting up res2_1
I0523 21:53:40.145572 11654 net.cpp:129] Top shape: 64 64 28 24 (2752512)
I0523 21:53:40.145576 11654 net.cpp:137] Memory required for data: 1076232960
I0523 21:53:40.145581 11654 layer_factory.hpp:77] Creating layer res2_1_res2_1_0_split
I0523 21:53:40.145586 11654 net.cpp:84] Creating Layer res2_1_res2_1_0_split
I0523 21:53:40.145588 11654 net.cpp:406] res2_1_res2_1_0_split <- res2_1
I0523 21:53:40.145593 11654 net.cpp:380] res2_1_res2_1_0_split -> res2_1_res2_1_0_split_0
I0523 21:53:40.145598 11654 net.cpp:380] res2_1_res2_1_0_split -> res2_1_res2_1_0_split_1
I0523 21:53:40.145629 11654 net.cpp:122] Setting up res2_1_res2_1_0_split
I0523 21:53:40.145635 11654 net.cpp:129] Top shape: 64 64 28 24 (2752512)
I0523 21:53:40.145640 11654 net.cpp:129] Top shape: 64 64 28 24 (2752512)
I0523 21:53:40.145642 11654 net.cpp:137] Memory required for data: 1098253056
I0523 21:53:40.145645 11654 layer_factory.hpp:77] Creating layer conv2_2_ex
I0523 21:53:40.145655 11654 net.cpp:84] Creating Layer conv2_2_ex
I0523 21:53:40.145660 11654 net.cpp:406] conv2_2_ex <- res2_1_res2_1_0_split_0
I0523 21:53:40.145666 11654 net.cpp:380] conv2_2_ex -> conv2_2_ex
I0523 21:53:40.146764 11654 net.cpp:122] Setting up conv2_2_ex
I0523 21:53:40.146780 11654 net.cpp:129] Top shape: 64 128 28 24 (5505024)
I0523 21:53:40.146783 11654 net.cpp:137] Memory required for data: 1120273152
I0523 21:53:40.146790 11654 layer_factory.hpp:77] Creating layer conv2_2_ex/bn
I0523 21:53:40.146797 11654 net.cpp:84] Creating Layer conv2_2_ex/bn
I0523 21:53:40.146801 11654 net.cpp:406] conv2_2_ex/bn <- conv2_2_ex
I0523 21:53:40.146807 11654 net.cpp:367] conv2_2_ex/bn -> conv2_2_ex (in-place)
I0523 21:53:40.146986 11654 net.cpp:122] Setting up conv2_2_ex/bn
I0523 21:53:40.146994 11654 net.cpp:129] Top shape: 64 128 28 24 (5505024)
I0523 21:53:40.146998 11654 net.cpp:137] Memory required for data: 1142293248
I0523 21:53:40.147006 11654 layer_factory.hpp:77] Creating layer conv2_2_ex/scale
I0523 21:53:40.147017 11654 net.cpp:84] Creating Layer conv2_2_ex/scale
I0523 21:53:40.147019 11654 net.cpp:406] conv2_2_ex/scale <- conv2_2_ex
I0523 21:53:40.147025 11654 net.cpp:367] conv2_2_ex/scale -> conv2_2_ex (in-place)
I0523 21:53:40.147063 11654 layer_factory.hpp:77] Creating layer conv2_2_ex/scale
I0523 21:53:40.147163 11654 net.cpp:122] Setting up conv2_2_ex/scale
I0523 21:53:40.147171 11654 net.cpp:129] Top shape: 64 128 28 24 (5505024)
I0523 21:53:40.147174 11654 net.cpp:137] Memory required for data: 1164313344
I0523 21:53:40.147181 11654 layer_factory.hpp:77] Creating layer relu2_2_ex
I0523 21:53:40.147187 11654 net.cpp:84] Creating Layer relu2_2_ex
I0523 21:53:40.147192 11654 net.cpp:406] relu2_2_ex <- conv2_2_ex
I0523 21:53:40.147197 11654 net.cpp:367] relu2_2_ex -> conv2_2_ex (in-place)
I0523 21:53:40.147341 11654 net.cpp:122] Setting up relu2_2_ex
I0523 21:53:40.147348 11654 net.cpp:129] Top shape: 64 128 28 24 (5505024)
I0523 21:53:40.147351 11654 net.cpp:137] Memory required for data: 1186333440
I0523 21:53:40.147369 11654 layer_factory.hpp:77] Creating layer conv2_2_dw
I0523 21:53:40.147378 11654 net.cpp:84] Creating Layer conv2_2_dw
I0523 21:53:40.147382 11654 net.cpp:406] conv2_2_dw <- conv2_2_ex
I0523 21:53:40.147387 11654 net.cpp:380] conv2_2_dw -> conv2_2_dw
I0523 21:53:40.147581 11654 net.cpp:122] Setting up conv2_2_dw
I0523 21:53:40.147589 11654 net.cpp:129] Top shape: 64 128 28 24 (5505024)
I0523 21:53:40.147593 11654 net.cpp:137] Memory required for data: 1208353536
I0523 21:53:40.147598 11654 layer_factory.hpp:77] Creating layer conv2_2_dw/bn
I0523 21:53:40.147603 11654 net.cpp:84] Creating Layer conv2_2_dw/bn
I0523 21:53:40.147606 11654 net.cpp:406] conv2_2_dw/bn <- conv2_2_dw
I0523 21:53:40.147613 11654 net.cpp:367] conv2_2_dw/bn -> conv2_2_dw (in-place)
I0523 21:53:40.147775 11654 net.cpp:122] Setting up conv2_2_dw/bn
I0523 21:53:40.147783 11654 net.cpp:129] Top shape: 64 128 28 24 (5505024)
I0523 21:53:40.147785 11654 net.cpp:137] Memory required for data: 1230373632
I0523 21:53:40.147800 11654 layer_factory.hpp:77] Creating layer conv2_2_dw/scale
I0523 21:53:40.147809 11654 net.cpp:84] Creating Layer conv2_2_dw/scale
I0523 21:53:40.147814 11654 net.cpp:406] conv2_2_dw/scale <- conv2_2_dw
I0523 21:53:40.147819 11654 net.cpp:367] conv2_2_dw/scale -> conv2_2_dw (in-place)
I0523 21:53:40.147853 11654 layer_factory.hpp:77] Creating layer conv2_2_dw/scale
I0523 21:53:40.147950 11654 net.cpp:122] Setting up conv2_2_dw/scale
I0523 21:53:40.147958 11654 net.cpp:129] Top shape: 64 128 28 24 (5505024)
I0523 21:53:40.147961 11654 net.cpp:137] Memory required for data: 1252393728
I0523 21:53:40.147966 11654 layer_factory.hpp:77] Creating layer relu2_2_dw
I0523 21:53:40.147972 11654 net.cpp:84] Creating Layer relu2_2_dw
I0523 21:53:40.147975 11654 net.cpp:406] relu2_2_dw <- conv2_2_dw
I0523 21:53:40.147980 11654 net.cpp:367] relu2_2_dw -> conv2_2_dw (in-place)
I0523 21:53:40.149590 11654 net.cpp:122] Setting up relu2_2_dw
I0523 21:53:40.149605 11654 net.cpp:129] Top shape: 64 128 28 24 (5505024)
I0523 21:53:40.149608 11654 net.cpp:137] Memory required for data: 1274413824
I0523 21:53:40.149615 11654 layer_factory.hpp:77] Creating layer conv2_2_em
I0523 21:53:40.149626 11654 net.cpp:84] Creating Layer conv2_2_em
I0523 21:53:40.149631 11654 net.cpp:406] conv2_2_em <- conv2_2_dw
I0523 21:53:40.149637 11654 net.cpp:380] conv2_2_em -> conv2_2_em
I0523 21:53:40.150750 11654 net.cpp:122] Setting up conv2_2_em
I0523 21:53:40.150765 11654 net.cpp:129] Top shape: 64 64 28 24 (2752512)
I0523 21:53:40.150770 11654 net.cpp:137] Memory required for data: 1285423872
I0523 21:53:40.150775 11654 layer_factory.hpp:77] Creating layer conv2_2_em/bn
I0523 21:53:40.150786 11654 net.cpp:84] Creating Layer conv2_2_em/bn
I0523 21:53:40.150790 11654 net.cpp:406] conv2_2_em/bn <- conv2_2_em
I0523 21:53:40.150797 11654 net.cpp:367] conv2_2_em/bn -> conv2_2_em (in-place)
I0523 21:53:40.150990 11654 net.cpp:122] Setting up conv2_2_em/bn
I0523 21:53:40.150998 11654 net.cpp:129] Top shape: 64 64 28 24 (2752512)
I0523 21:53:40.151002 11654 net.cpp:137] Memory required for data: 1296433920
I0523 21:53:40.151010 11654 layer_factory.hpp:77] Creating layer conv2_2_em/scale
I0523 21:53:40.151020 11654 net.cpp:84] Creating Layer conv2_2_em/scale
I0523 21:53:40.151026 11654 net.cpp:406] conv2_2_em/scale <- conv2_2_em
I0523 21:53:40.151031 11654 net.cpp:367] conv2_2_em/scale -> conv2_2_em (in-place)
I0523 21:53:40.151069 11654 layer_factory.hpp:77] Creating layer conv2_2_em/scale
I0523 21:53:40.151182 11654 net.cpp:122] Setting up conv2_2_em/scale
I0523 21:53:40.151190 11654 net.cpp:129] Top shape: 64 64 28 24 (2752512)
I0523 21:53:40.151193 11654 net.cpp:137] Memory required for data: 1307443968
I0523 21:53:40.151198 11654 layer_factory.hpp:77] Creating layer res2_2
I0523 21:53:40.151204 11654 net.cpp:84] Creating Layer res2_2
I0523 21:53:40.151208 11654 net.cpp:406] res2_2 <- res2_1_res2_1_0_split_1
I0523 21:53:40.151213 11654 net.cpp:406] res2_2 <- conv2_2_em
I0523 21:53:40.151218 11654 net.cpp:380] res2_2 -> res2_2
I0523 21:53:40.151257 11654 net.cpp:122] Setting up res2_2
I0523 21:53:40.151264 11654 net.cpp:129] Top shape: 64 64 28 24 (2752512)
I0523 21:53:40.151268 11654 net.cpp:137] Memory required for data: 1318454016
I0523 21:53:40.151270 11654 layer_factory.hpp:77] Creating layer res2_2_res2_2_0_split
I0523 21:53:40.151276 11654 net.cpp:84] Creating Layer res2_2_res2_2_0_split
I0523 21:53:40.151279 11654 net.cpp:406] res2_2_res2_2_0_split <- res2_2
I0523 21:53:40.151284 11654 net.cpp:380] res2_2_res2_2_0_split -> res2_2_res2_2_0_split_0
I0523 21:53:40.151290 11654 net.cpp:380] res2_2_res2_2_0_split -> res2_2_res2_2_0_split_1
I0523 21:53:40.151322 11654 net.cpp:122] Setting up res2_2_res2_2_0_split
I0523 21:53:40.151329 11654 net.cpp:129] Top shape: 64 64 28 24 (2752512)
I0523 21:53:40.151334 11654 net.cpp:129] Top shape: 64 64 28 24 (2752512)
I0523 21:53:40.151336 11654 net.cpp:137] Memory required for data: 1340474112
I0523 21:53:40.151340 11654 layer_factory.hpp:77] Creating layer conv2_3_ex
I0523 21:53:40.151350 11654 net.cpp:84] Creating Layer conv2_3_ex
I0523 21:53:40.151355 11654 net.cpp:406] conv2_3_ex <- res2_2_res2_2_0_split_0
I0523 21:53:40.151361 11654 net.cpp:380] conv2_3_ex -> conv2_3_ex
I0523 21:53:40.152478 11654 net.cpp:122] Setting up conv2_3_ex
I0523 21:53:40.152493 11654 net.cpp:129] Top shape: 64 128 28 24 (5505024)
I0523 21:53:40.152498 11654 net.cpp:137] Memory required for data: 1362494208
I0523 21:53:40.152503 11654 layer_factory.hpp:77] Creating layer conv2_3_ex/bn
I0523 21:53:40.152513 11654 net.cpp:84] Creating Layer conv2_3_ex/bn
I0523 21:53:40.152515 11654 net.cpp:406] conv2_3_ex/bn <- conv2_3_ex
I0523 21:53:40.152521 11654 net.cpp:367] conv2_3_ex/bn -> conv2_3_ex (in-place)
I0523 21:53:40.152700 11654 net.cpp:122] Setting up conv2_3_ex/bn
I0523 21:53:40.152709 11654 net.cpp:129] Top shape: 64 128 28 24 (5505024)
I0523 21:53:40.152711 11654 net.cpp:137] Memory required for data: 1384514304
I0523 21:53:40.152719 11654 layer_factory.hpp:77] Creating layer conv2_3_ex/scale
I0523 21:53:40.152725 11654 net.cpp:84] Creating Layer conv2_3_ex/scale
I0523 21:53:40.152729 11654 net.cpp:406] conv2_3_ex/scale <- conv2_3_ex
I0523 21:53:40.152734 11654 net.cpp:367] conv2_3_ex/scale -> conv2_3_ex (in-place)
I0523 21:53:40.152770 11654 layer_factory.hpp:77] Creating layer conv2_3_ex/scale
I0523 21:53:40.152874 11654 net.cpp:122] Setting up conv2_3_ex/scale
I0523 21:53:40.152882 11654 net.cpp:129] Top shape: 64 128 28 24 (5505024)
I0523 21:53:40.152885 11654 net.cpp:137] Memory required for data: 1406534400
I0523 21:53:40.152890 11654 layer_factory.hpp:77] Creating layer relu2_3_ex
I0523 21:53:40.152896 11654 net.cpp:84] Creating Layer relu2_3_ex
I0523 21:53:40.152899 11654 net.cpp:406] relu2_3_ex <- conv2_3_ex
I0523 21:53:40.152904 11654 net.cpp:367] relu2_3_ex -> conv2_3_ex (in-place)
I0523 21:53:40.153035 11654 net.cpp:122] Setting up relu2_3_ex
I0523 21:53:40.153043 11654 net.cpp:129] Top shape: 64 128 28 24 (5505024)
I0523 21:53:40.153045 11654 net.cpp:137] Memory required for data: 1428554496
I0523 21:53:40.153053 11654 layer_factory.hpp:77] Creating layer conv2_3_dw
I0523 21:53:40.153061 11654 net.cpp:84] Creating Layer conv2_3_dw
I0523 21:53:40.153066 11654 net.cpp:406] conv2_3_dw <- conv2_3_ex
I0523 21:53:40.153072 11654 net.cpp:380] conv2_3_dw -> conv2_3_dw
I0523 21:53:40.153273 11654 net.cpp:122] Setting up conv2_3_dw
I0523 21:53:40.153281 11654 net.cpp:129] Top shape: 64 128 28 24 (5505024)
I0523 21:53:40.153285 11654 net.cpp:137] Memory required for data: 1450574592
I0523 21:53:40.153288 11654 layer_factory.hpp:77] Creating layer conv2_3_dw/bn
I0523 21:53:40.153295 11654 net.cpp:84] Creating Layer conv2_3_dw/bn
I0523 21:53:40.153298 11654 net.cpp:406] conv2_3_dw/bn <- conv2_3_dw
I0523 21:53:40.153304 11654 net.cpp:367] conv2_3_dw/bn -> conv2_3_dw (in-place)
I0523 21:53:40.153481 11654 net.cpp:122] Setting up conv2_3_dw/bn
I0523 21:53:40.153502 11654 net.cpp:129] Top shape: 64 128 28 24 (5505024)
I0523 21:53:40.153506 11654 net.cpp:137] Memory required for data: 1472594688
I0523 21:53:40.153512 11654 layer_factory.hpp:77] Creating layer conv2_3_dw/scale
I0523 21:53:40.153530 11654 net.cpp:84] Creating Layer conv2_3_dw/scale
I0523 21:53:40.153534 11654 net.cpp:406] conv2_3_dw/scale <- conv2_3_dw
I0523 21:53:40.153539 11654 net.cpp:367] conv2_3_dw/scale -> conv2_3_dw (in-place)
I0523 21:53:40.153576 11654 layer_factory.hpp:77] Creating layer conv2_3_dw/scale
I0523 21:53:40.153676 11654 net.cpp:122] Setting up conv2_3_dw/scale
I0523 21:53:40.153684 11654 net.cpp:129] Top shape: 64 128 28 24 (5505024)
I0523 21:53:40.153687 11654 net.cpp:137] Memory required for data: 1494614784
I0523 21:53:40.153692 11654 layer_factory.hpp:77] Creating layer relu2_3_dw
I0523 21:53:40.153699 11654 net.cpp:84] Creating Layer relu2_3_dw
I0523 21:53:40.153703 11654 net.cpp:406] relu2_3_dw <- conv2_3_dw
I0523 21:53:40.153707 11654 net.cpp:367] relu2_3_dw -> conv2_3_dw (in-place)
I0523 21:53:40.153841 11654 net.cpp:122] Setting up relu2_3_dw
I0523 21:53:40.153848 11654 net.cpp:129] Top shape: 64 128 28 24 (5505024)
I0523 21:53:40.153851 11654 net.cpp:137] Memory required for data: 1516634880
I0523 21:53:40.153857 11654 layer_factory.hpp:77] Creating layer conv2_3_em
I0523 21:53:40.153865 11654 net.cpp:84] Creating Layer conv2_3_em
I0523 21:53:40.153872 11654 net.cpp:406] conv2_3_em <- conv2_3_dw
I0523 21:53:40.153877 11654 net.cpp:380] conv2_3_em -> conv2_3_em
I0523 21:53:40.155004 11654 net.cpp:122] Setting up conv2_3_em
I0523 21:53:40.155035 11654 net.cpp:129] Top shape: 64 64 28 24 (2752512)
I0523 21:53:40.155040 11654 net.cpp:137] Memory required for data: 1527644928
I0523 21:53:40.155059 11654 layer_factory.hpp:77] Creating layer conv2_3_em/bn
I0523 21:53:40.155068 11654 net.cpp:84] Creating Layer conv2_3_em/bn
I0523 21:53:40.155072 11654 net.cpp:406] conv2_3_em/bn <- conv2_3_em
I0523 21:53:40.155079 11654 net.cpp:367] conv2_3_em/bn -> conv2_3_em (in-place)
I0523 21:53:40.155277 11654 net.cpp:122] Setting up conv2_3_em/bn
I0523 21:53:40.155284 11654 net.cpp:129] Top shape: 64 64 28 24 (2752512)
I0523 21:53:40.155288 11654 net.cpp:137] Memory required for data: 1538654976
I0523 21:53:40.155295 11654 layer_factory.hpp:77] Creating layer conv2_3_em/scale
I0523 21:53:40.155306 11654 net.cpp:84] Creating Layer conv2_3_em/scale
I0523 21:53:40.155313 11654 net.cpp:406] conv2_3_em/scale <- conv2_3_em
I0523 21:53:40.155318 11654 net.cpp:367] conv2_3_em/scale -> conv2_3_em (in-place)
I0523 21:53:40.155359 11654 layer_factory.hpp:77] Creating layer conv2_3_em/scale
I0523 21:53:40.155472 11654 net.cpp:122] Setting up conv2_3_em/scale
I0523 21:53:40.155479 11654 net.cpp:129] Top shape: 64 64 28 24 (2752512)
I0523 21:53:40.155483 11654 net.cpp:137] Memory required for data: 1549665024
I0523 21:53:40.155488 11654 layer_factory.hpp:77] Creating layer res2_3
I0523 21:53:40.155496 11654 net.cpp:84] Creating Layer res2_3
I0523 21:53:40.155500 11654 net.cpp:406] res2_3 <- res2_2_res2_2_0_split_1
I0523 21:53:40.155505 11654 net.cpp:406] res2_3 <- conv2_3_em
I0523 21:53:40.155510 11654 net.cpp:380] res2_3 -> res2_3
I0523 21:53:40.155534 11654 net.cpp:122] Setting up res2_3
I0523 21:53:40.155540 11654 net.cpp:129] Top shape: 64 64 28 24 (2752512)
I0523 21:53:40.155544 11654 net.cpp:137] Memory required for data: 1560675072
I0523 21:53:40.155546 11654 layer_factory.hpp:77] Creating layer res2_3_res2_3_0_split
I0523 21:53:40.155552 11654 net.cpp:84] Creating Layer res2_3_res2_3_0_split
I0523 21:53:40.155555 11654 net.cpp:406] res2_3_res2_3_0_split <- res2_3
I0523 21:53:40.155560 11654 net.cpp:380] res2_3_res2_3_0_split -> res2_3_res2_3_0_split_0
I0523 21:53:40.155566 11654 net.cpp:380] res2_3_res2_3_0_split -> res2_3_res2_3_0_split_1
I0523 21:53:40.155622 11654 net.cpp:122] Setting up res2_3_res2_3_0_split
I0523 21:53:40.155628 11654 net.cpp:129] Top shape: 64 64 28 24 (2752512)
I0523 21:53:40.155632 11654 net.cpp:129] Top shape: 64 64 28 24 (2752512)
I0523 21:53:40.155635 11654 net.cpp:137] Memory required for data: 1582695168
I0523 21:53:40.155638 11654 layer_factory.hpp:77] Creating layer conv2_4_ex
I0523 21:53:40.155648 11654 net.cpp:84] Creating Layer conv2_4_ex
I0523 21:53:40.155680 11654 net.cpp:406] conv2_4_ex <- res2_3_res2_3_0_split_0
I0523 21:53:40.155688 11654 net.cpp:380] conv2_4_ex -> conv2_4_ex
I0523 21:53:40.156791 11654 net.cpp:122] Setting up conv2_4_ex
I0523 21:53:40.156807 11654 net.cpp:129] Top shape: 64 128 28 24 (5505024)
I0523 21:53:40.156811 11654 net.cpp:137] Memory required for data: 1604715264
I0523 21:53:40.156817 11654 layer_factory.hpp:77] Creating layer conv2_4_ex/bn
I0523 21:53:40.156826 11654 net.cpp:84] Creating Layer conv2_4_ex/bn
I0523 21:53:40.156831 11654 net.cpp:406] conv2_4_ex/bn <- conv2_4_ex
I0523 21:53:40.156836 11654 net.cpp:367] conv2_4_ex/bn -> conv2_4_ex (in-place)
I0523 21:53:40.157027 11654 net.cpp:122] Setting up conv2_4_ex/bn
I0523 21:53:40.157035 11654 net.cpp:129] Top shape: 64 128 28 24 (5505024)
I0523 21:53:40.157038 11654 net.cpp:137] Memory required for data: 1626735360
I0523 21:53:40.157048 11654 layer_factory.hpp:77] Creating layer conv2_4_ex/scale
I0523 21:53:40.157057 11654 net.cpp:84] Creating Layer conv2_4_ex/scale
I0523 21:53:40.157060 11654 net.cpp:406] conv2_4_ex/scale <- conv2_4_ex
I0523 21:53:40.157065 11654 net.cpp:367] conv2_4_ex/scale -> conv2_4_ex (in-place)
I0523 21:53:40.157104 11654 layer_factory.hpp:77] Creating layer conv2_4_ex/scale
I0523 21:53:40.157212 11654 net.cpp:122] Setting up conv2_4_ex/scale
I0523 21:53:40.157219 11654 net.cpp:129] Top shape: 64 128 28 24 (5505024)
I0523 21:53:40.157223 11654 net.cpp:137] Memory required for data: 1648755456
I0523 21:53:40.157228 11654 layer_factory.hpp:77] Creating layer relu2_4_ex
I0523 21:53:40.157239 11654 net.cpp:84] Creating Layer relu2_4_ex
I0523 21:53:40.157244 11654 net.cpp:406] relu2_4_ex <- conv2_4_ex
I0523 21:53:40.157249 11654 net.cpp:367] relu2_4_ex -> conv2_4_ex (in-place)
I0523 21:53:40.157387 11654 net.cpp:122] Setting up relu2_4_ex
I0523 21:53:40.157395 11654 net.cpp:129] Top shape: 64 128 28 24 (5505024)
I0523 21:53:40.157398 11654 net.cpp:137] Memory required for data: 1670775552
I0523 21:53:40.157404 11654 layer_factory.hpp:77] Creating layer conv2_4_dw
I0523 21:53:40.157414 11654 net.cpp:84] Creating Layer conv2_4_dw
I0523 21:53:40.157419 11654 net.cpp:406] conv2_4_dw <- conv2_4_ex
I0523 21:53:40.157425 11654 net.cpp:380] conv2_4_dw -> conv2_4_dw
I0523 21:53:40.157619 11654 net.cpp:122] Setting up conv2_4_dw
I0523 21:53:40.157627 11654 net.cpp:129] Top shape: 64 128 28 24 (5505024)
I0523 21:53:40.157630 11654 net.cpp:137] Memory required for data: 1692795648
I0523 21:53:40.157634 11654 layer_factory.hpp:77] Creating layer conv2_4_dw/bn
I0523 21:53:40.157641 11654 net.cpp:84] Creating Layer conv2_4_dw/bn
I0523 21:53:40.157644 11654 net.cpp:406] conv2_4_dw/bn <- conv2_4_dw
I0523 21:53:40.157650 11654 net.cpp:367] conv2_4_dw/bn -> conv2_4_dw (in-place)
I0523 21:53:40.157830 11654 net.cpp:122] Setting up conv2_4_dw/bn
I0523 21:53:40.157837 11654 net.cpp:129] Top shape: 64 128 28 24 (5505024)
I0523 21:53:40.157841 11654 net.cpp:137] Memory required for data: 1714815744
I0523 21:53:40.157850 11654 layer_factory.hpp:77] Creating layer conv2_4_dw/scale
I0523 21:53:40.157857 11654 net.cpp:84] Creating Layer conv2_4_dw/scale
I0523 21:53:40.157860 11654 net.cpp:406] conv2_4_dw/scale <- conv2_4_dw
I0523 21:53:40.157866 11654 net.cpp:367] conv2_4_dw/scale -> conv2_4_dw (in-place)
I0523 21:53:40.157903 11654 layer_factory.hpp:77] Creating layer conv2_4_dw/scale
I0523 21:53:40.158010 11654 net.cpp:122] Setting up conv2_4_dw/scale
I0523 21:53:40.158016 11654 net.cpp:129] Top shape: 64 128 28 24 (5505024)
I0523 21:53:40.158020 11654 net.cpp:137] Memory required for data: 1736835840
I0523 21:53:40.158025 11654 layer_factory.hpp:77] Creating layer relu2_4_dw
I0523 21:53:40.158032 11654 net.cpp:84] Creating Layer relu2_4_dw
I0523 21:53:40.158035 11654 net.cpp:406] relu2_4_dw <- conv2_4_dw
I0523 21:53:40.158041 11654 net.cpp:367] relu2_4_dw -> conv2_4_dw (in-place)
I0523 21:53:40.158179 11654 net.cpp:122] Setting up relu2_4_dw
I0523 21:53:40.158185 11654 net.cpp:129] Top shape: 64 128 28 24 (5505024)
I0523 21:53:40.158190 11654 net.cpp:137] Memory required for data: 1758855936
I0523 21:53:40.158206 11654 layer_factory.hpp:77] Creating layer conv2_4_em
I0523 21:53:40.158216 11654 net.cpp:84] Creating Layer conv2_4_em
I0523 21:53:40.158222 11654 net.cpp:406] conv2_4_em <- conv2_4_dw
I0523 21:53:40.158227 11654 net.cpp:380] conv2_4_em -> conv2_4_em
I0523 21:53:40.159368 11654 net.cpp:122] Setting up conv2_4_em
I0523 21:53:40.159384 11654 net.cpp:129] Top shape: 64 64 28 24 (2752512)
I0523 21:53:40.159389 11654 net.cpp:137] Memory required for data: 1769865984
I0523 21:53:40.159394 11654 layer_factory.hpp:77] Creating layer conv2_4_em/bn
I0523 21:53:40.159404 11654 net.cpp:84] Creating Layer conv2_4_em/bn
I0523 21:53:40.159407 11654 net.cpp:406] conv2_4_em/bn <- conv2_4_em
I0523 21:53:40.159415 11654 net.cpp:367] conv2_4_em/bn -> conv2_4_em (in-place)
I0523 21:53:40.159607 11654 net.cpp:122] Setting up conv2_4_em/bn
I0523 21:53:40.159615 11654 net.cpp:129] Top shape: 64 64 28 24 (2752512)
I0523 21:53:40.159620 11654 net.cpp:137] Memory required for data: 1780876032
I0523 21:53:40.159626 11654 layer_factory.hpp:77] Creating layer conv2_4_em/scale
I0523 21:53:40.159634 11654 net.cpp:84] Creating Layer conv2_4_em/scale
I0523 21:53:40.159637 11654 net.cpp:406] conv2_4_em/scale <- conv2_4_em
I0523 21:53:40.159643 11654 net.cpp:367] conv2_4_em/scale -> conv2_4_em (in-place)
I0523 21:53:40.159682 11654 layer_factory.hpp:77] Creating layer conv2_4_em/scale
I0523 21:53:40.159795 11654 net.cpp:122] Setting up conv2_4_em/scale
I0523 21:53:40.159803 11654 net.cpp:129] Top shape: 64 64 28 24 (2752512)
I0523 21:53:40.159806 11654 net.cpp:137] Memory required for data: 1791886080
I0523 21:53:40.159811 11654 layer_factory.hpp:77] Creating layer res2_4
I0523 21:53:40.159817 11654 net.cpp:84] Creating Layer res2_4
I0523 21:53:40.159821 11654 net.cpp:406] res2_4 <- res2_3_res2_3_0_split_1
I0523 21:53:40.159826 11654 net.cpp:406] res2_4 <- conv2_4_em
I0523 21:53:40.159832 11654 net.cpp:380] res2_4 -> res2_4
I0523 21:53:40.159857 11654 net.cpp:122] Setting up res2_4
I0523 21:53:40.159863 11654 net.cpp:129] Top shape: 64 64 28 24 (2752512)
I0523 21:53:40.159868 11654 net.cpp:137] Memory required for data: 1802896128
I0523 21:53:40.159869 11654 layer_factory.hpp:77] Creating layer conv3_ex
I0523 21:53:40.159880 11654 net.cpp:84] Creating Layer conv3_ex
I0523 21:53:40.159886 11654 net.cpp:406] conv3_ex <- res2_4
I0523 21:53:40.159893 11654 net.cpp:380] conv3_ex -> conv3_ex
I0523 21:53:40.161043 11654 net.cpp:122] Setting up conv3_ex
I0523 21:53:40.161058 11654 net.cpp:129] Top shape: 64 256 28 24 (11010048)
I0523 21:53:40.161062 11654 net.cpp:137] Memory required for data: 1846936320
I0523 21:53:40.161070 11654 layer_factory.hpp:77] Creating layer conv3_ex/bn
I0523 21:53:40.161078 11654 net.cpp:84] Creating Layer conv3_ex/bn
I0523 21:53:40.161082 11654 net.cpp:406] conv3_ex/bn <- conv3_ex
I0523 21:53:40.161089 11654 net.cpp:367] conv3_ex/bn -> conv3_ex (in-place)
I0523 21:53:40.161280 11654 net.cpp:122] Setting up conv3_ex/bn
I0523 21:53:40.161288 11654 net.cpp:129] Top shape: 64 256 28 24 (11010048)
I0523 21:53:40.161291 11654 net.cpp:137] Memory required for data: 1890976512
I0523 21:53:40.161299 11654 layer_factory.hpp:77] Creating layer conv3_ex/scale
I0523 21:53:40.161306 11654 net.cpp:84] Creating Layer conv3_ex/scale
I0523 21:53:40.161311 11654 net.cpp:406] conv3_ex/scale <- conv3_ex
I0523 21:53:40.161316 11654 net.cpp:367] conv3_ex/scale -> conv3_ex (in-place)
I0523 21:53:40.161356 11654 layer_factory.hpp:77] Creating layer conv3_ex/scale
I0523 21:53:40.161464 11654 net.cpp:122] Setting up conv3_ex/scale
I0523 21:53:40.161471 11654 net.cpp:129] Top shape: 64 256 28 24 (11010048)
I0523 21:53:40.161474 11654 net.cpp:137] Memory required for data: 1935016704
I0523 21:53:40.161480 11654 layer_factory.hpp:77] Creating layer relu3_ex
I0523 21:53:40.161486 11654 net.cpp:84] Creating Layer relu3_ex
I0523 21:53:40.161489 11654 net.cpp:406] relu3_ex <- conv3_ex
I0523 21:53:40.161494 11654 net.cpp:367] relu3_ex -> conv3_ex (in-place)
I0523 21:53:40.163229 11654 net.cpp:122] Setting up relu3_ex
I0523 21:53:40.163255 11654 net.cpp:129] Top shape: 64 256 28 24 (11010048)
I0523 21:53:40.163259 11654 net.cpp:137] Memory required for data: 1979056896
I0523 21:53:40.163280 11654 layer_factory.hpp:77] Creating layer conv3_dw
I0523 21:53:40.163295 11654 net.cpp:84] Creating Layer conv3_dw
I0523 21:53:40.163300 11654 net.cpp:406] conv3_dw <- conv3_ex
I0523 21:53:40.163306 11654 net.cpp:380] conv3_dw -> conv3_dw
I0523 21:53:40.163537 11654 net.cpp:122] Setting up conv3_dw
I0523 21:53:40.163547 11654 net.cpp:129] Top shape: 64 256 14 12 (2752512)
I0523 21:53:40.163549 11654 net.cpp:137] Memory required for data: 1990066944
I0523 21:53:40.163554 11654 layer_factory.hpp:77] Creating layer conv3_dw/bn
I0523 21:53:40.163561 11654 net.cpp:84] Creating Layer conv3_dw/bn
I0523 21:53:40.163564 11654 net.cpp:406] conv3_dw/bn <- conv3_dw
I0523 21:53:40.163569 11654 net.cpp:367] conv3_dw/bn -> conv3_dw (in-place)
I0523 21:53:40.163748 11654 net.cpp:122] Setting up conv3_dw/bn
I0523 21:53:40.163755 11654 net.cpp:129] Top shape: 64 256 14 12 (2752512)
I0523 21:53:40.163758 11654 net.cpp:137] Memory required for data: 2001076992
I0523 21:53:40.163766 11654 layer_factory.hpp:77] Creating layer conv3_dw/scale
I0523 21:53:40.163774 11654 net.cpp:84] Creating Layer conv3_dw/scale
I0523 21:53:40.163776 11654 net.cpp:406] conv3_dw/scale <- conv3_dw
I0523 21:53:40.163781 11654 net.cpp:367] conv3_dw/scale -> conv3_dw (in-place)
I0523 21:53:40.163820 11654 layer_factory.hpp:77] Creating layer conv3_dw/scale
I0523 21:53:40.163923 11654 net.cpp:122] Setting up conv3_dw/scale
I0523 21:53:40.163930 11654 net.cpp:129] Top shape: 64 256 14 12 (2752512)
I0523 21:53:40.163933 11654 net.cpp:137] Memory required for data: 2012087040
I0523 21:53:40.163939 11654 layer_factory.hpp:77] Creating layer relu3_dw
I0523 21:53:40.163946 11654 net.cpp:84] Creating Layer relu3_dw
I0523 21:53:40.163950 11654 net.cpp:406] relu3_dw <- conv3_dw
I0523 21:53:40.163954 11654 net.cpp:367] relu3_dw -> conv3_dw (in-place)
I0523 21:53:40.165637 11654 net.cpp:122] Setting up relu3_dw
I0523 21:53:40.165652 11654 net.cpp:129] Top shape: 64 256 14 12 (2752512)
I0523 21:53:40.165670 11654 net.cpp:137] Memory required for data: 2023097088
I0523 21:53:40.165678 11654 layer_factory.hpp:77] Creating layer conv3_em
I0523 21:53:40.165704 11654 net.cpp:84] Creating Layer conv3_em
I0523 21:53:40.165710 11654 net.cpp:406] conv3_em <- conv3_dw
I0523 21:53:40.165716 11654 net.cpp:380] conv3_em -> conv3_em
I0523 21:53:40.166764 11654 net.cpp:122] Setting up conv3_em
I0523 21:53:40.166776 11654 net.cpp:129] Top shape: 64 128 14 12 (1376256)
I0523 21:53:40.166796 11654 net.cpp:137] Memory required for data: 2028602112
I0523 21:53:40.166827 11654 layer_factory.hpp:77] Creating layer conv3_em/bn
I0523 21:53:40.166836 11654 net.cpp:84] Creating Layer conv3_em/bn
I0523 21:53:40.166842 11654 net.cpp:406] conv3_em/bn <- conv3_em
I0523 21:53:40.166848 11654 net.cpp:367] conv3_em/bn -> conv3_em (in-place)
I0523 21:53:40.167039 11654 net.cpp:122] Setting up conv3_em/bn
I0523 21:53:40.167047 11654 net.cpp:129] Top shape: 64 128 14 12 (1376256)
I0523 21:53:40.167050 11654 net.cpp:137] Memory required for data: 2034107136
I0523 21:53:40.167058 11654 layer_factory.hpp:77] Creating layer conv3_em/scale
I0523 21:53:40.167068 11654 net.cpp:84] Creating Layer conv3_em/scale
I0523 21:53:40.167083 11654 net.cpp:406] conv3_em/scale <- conv3_em
I0523 21:53:40.167088 11654 net.cpp:367] conv3_em/scale -> conv3_em (in-place)
I0523 21:53:40.167143 11654 layer_factory.hpp:77] Creating layer conv3_em/scale
I0523 21:53:40.167248 11654 net.cpp:122] Setting up conv3_em/scale
I0523 21:53:40.167254 11654 net.cpp:129] Top shape: 64 128 14 12 (1376256)
I0523 21:53:40.167258 11654 net.cpp:137] Memory required for data: 2039612160
I0523 21:53:40.167263 11654 layer_factory.hpp:77] Creating layer conv3_em_conv3_em/scale_0_split
I0523 21:53:40.167268 11654 net.cpp:84] Creating Layer conv3_em_conv3_em/scale_0_split
I0523 21:53:40.167271 11654 net.cpp:406] conv3_em_conv3_em/scale_0_split <- conv3_em
I0523 21:53:40.167276 11654 net.cpp:380] conv3_em_conv3_em/scale_0_split -> conv3_em_conv3_em/scale_0_split_0
I0523 21:53:40.167297 11654 net.cpp:380] conv3_em_conv3_em/scale_0_split -> conv3_em_conv3_em/scale_0_split_1
I0523 21:53:40.167333 11654 net.cpp:122] Setting up conv3_em_conv3_em/scale_0_split
I0523 21:53:40.167340 11654 net.cpp:129] Top shape: 64 128 14 12 (1376256)
I0523 21:53:40.167346 11654 net.cpp:129] Top shape: 64 128 14 12 (1376256)
I0523 21:53:40.167348 11654 net.cpp:137] Memory required for data: 2050622208
I0523 21:53:40.167353 11654 layer_factory.hpp:77] Creating layer conv3_1_ex
I0523 21:53:40.167361 11654 net.cpp:84] Creating Layer conv3_1_ex
I0523 21:53:40.167382 11654 net.cpp:406] conv3_1_ex <- conv3_em_conv3_em/scale_0_split_0
I0523 21:53:40.167388 11654 net.cpp:380] conv3_1_ex -> conv3_1_ex
I0523 21:53:40.168638 11654 net.cpp:122] Setting up conv3_1_ex
I0523 21:53:40.168653 11654 net.cpp:129] Top shape: 64 256 14 12 (2752512)
I0523 21:53:40.168658 11654 net.cpp:137] Memory required for data: 2061632256
I0523 21:53:40.168663 11654 layer_factory.hpp:77] Creating layer conv3_1_ex/bn
I0523 21:53:40.168670 11654 net.cpp:84] Creating Layer conv3_1_ex/bn
I0523 21:53:40.168674 11654 net.cpp:406] conv3_1_ex/bn <- conv3_1_ex
I0523 21:53:40.168680 11654 net.cpp:367] conv3_1_ex/bn -> conv3_1_ex (in-place)
I0523 21:53:40.168884 11654 net.cpp:122] Setting up conv3_1_ex/bn
I0523 21:53:40.168892 11654 net.cpp:129] Top shape: 64 256 14 12 (2752512)
I0523 21:53:40.168895 11654 net.cpp:137] Memory required for data: 2072642304
I0523 21:53:40.168902 11654 layer_factory.hpp:77] Creating layer conv3_1_ex/scale
I0523 21:53:40.168912 11654 net.cpp:84] Creating Layer conv3_1_ex/scale
I0523 21:53:40.168916 11654 net.cpp:406] conv3_1_ex/scale <- conv3_1_ex
I0523 21:53:40.168922 11654 net.cpp:367] conv3_1_ex/scale -> conv3_1_ex (in-place)
I0523 21:53:40.168962 11654 layer_factory.hpp:77] Creating layer conv3_1_ex/scale
I0523 21:53:40.169073 11654 net.cpp:122] Setting up conv3_1_ex/scale
I0523 21:53:40.169081 11654 net.cpp:129] Top shape: 64 256 14 12 (2752512)
I0523 21:53:40.169085 11654 net.cpp:137] Memory required for data: 2083652352
I0523 21:53:40.169090 11654 layer_factory.hpp:77] Creating layer relu3_1_ex
I0523 21:53:40.169097 11654 net.cpp:84] Creating Layer relu3_1_ex
I0523 21:53:40.169101 11654 net.cpp:406] relu3_1_ex <- conv3_1_ex
I0523 21:53:40.169107 11654 net.cpp:367] relu3_1_ex -> conv3_1_ex (in-place)
I0523 21:53:40.169219 11654 net.cpp:122] Setting up relu3_1_ex
I0523 21:53:40.169227 11654 net.cpp:129] Top shape: 64 256 14 12 (2752512)
I0523 21:53:40.169230 11654 net.cpp:137] Memory required for data: 2094662400
I0523 21:53:40.169234 11654 layer_factory.hpp:77] Creating layer conv3_1_dw
I0523 21:53:40.169245 11654 net.cpp:84] Creating Layer conv3_1_dw
I0523 21:53:40.169250 11654 net.cpp:406] conv3_1_dw <- conv3_1_ex
I0523 21:53:40.169257 11654 net.cpp:380] conv3_1_dw -> conv3_1_dw
I0523 21:53:40.169462 11654 net.cpp:122] Setting up conv3_1_dw
I0523 21:53:40.169471 11654 net.cpp:129] Top shape: 64 256 14 12 (2752512)
I0523 21:53:40.169473 11654 net.cpp:137] Memory required for data: 2105672448
I0523 21:53:40.169477 11654 layer_factory.hpp:77] Creating layer conv3_1_dw/bn
I0523 21:53:40.169484 11654 net.cpp:84] Creating Layer conv3_1_dw/bn
I0523 21:53:40.169487 11654 net.cpp:406] conv3_1_dw/bn <- conv3_1_dw
I0523 21:53:40.169493 11654 net.cpp:367] conv3_1_dw/bn -> conv3_1_dw (in-place)
I0523 21:53:40.169687 11654 net.cpp:122] Setting up conv3_1_dw/bn
I0523 21:53:40.169693 11654 net.cpp:129] Top shape: 64 256 14 12 (2752512)
I0523 21:53:40.169697 11654 net.cpp:137] Memory required for data: 2116682496
I0523 21:53:40.169713 11654 layer_factory.hpp:77] Creating layer conv3_1_dw/scale
I0523 21:53:40.169721 11654 net.cpp:84] Creating Layer conv3_1_dw/scale
I0523 21:53:40.169725 11654 net.cpp:406] conv3_1_dw/scale <- conv3_1_dw
I0523 21:53:40.169731 11654 net.cpp:367] conv3_1_dw/scale -> conv3_1_dw (in-place)
I0523 21:53:40.169770 11654 layer_factory.hpp:77] Creating layer conv3_1_dw/scale
I0523 21:53:40.169876 11654 net.cpp:122] Setting up conv3_1_dw/scale
I0523 21:53:40.169894 11654 net.cpp:129] Top shape: 64 256 14 12 (2752512)
I0523 21:53:40.169898 11654 net.cpp:137] Memory required for data: 2127692544
I0523 21:53:40.169905 11654 layer_factory.hpp:77] Creating layer relu3_1_dw
I0523 21:53:40.169911 11654 net.cpp:84] Creating Layer relu3_1_dw
I0523 21:53:40.169914 11654 net.cpp:406] relu3_1_dw <- conv3_1_dw
I0523 21:53:40.169920 11654 net.cpp:367] relu3_1_dw -> conv3_1_dw (in-place)
I0523 21:53:40.170030 11654 net.cpp:122] Setting up relu3_1_dw
I0523 21:53:40.170038 11654 net.cpp:129] Top shape: 64 256 14 12 (2752512)
I0523 21:53:40.170042 11654 net.cpp:137] Memory required for data: 2138702592
I0523 21:53:40.170045 11654 layer_factory.hpp:77] Creating layer conv3_1_em
I0523 21:53:40.170055 11654 net.cpp:84] Creating Layer conv3_1_em
I0523 21:53:40.170061 11654 net.cpp:406] conv3_1_em <- conv3_1_dw
I0523 21:53:40.170068 11654 net.cpp:380] conv3_1_em -> conv3_1_em
I0523 21:53:40.171378 11654 net.cpp:122] Setting up conv3_1_em
I0523 21:53:40.171394 11654 net.cpp:129] Top shape: 64 128 14 12 (1376256)
I0523 21:53:40.171398 11654 net.cpp:137] Memory required for data: 2144207616
I0523 21:53:40.171403 11654 layer_factory.hpp:77] Creating layer conv3_1_em/bn
I0523 21:53:40.171411 11654 net.cpp:84] Creating Layer conv3_1_em/bn
I0523 21:53:40.171416 11654 net.cpp:406] conv3_1_em/bn <- conv3_1_em
I0523 21:53:40.171422 11654 net.cpp:367] conv3_1_em/bn -> conv3_1_em (in-place)
I0523 21:53:40.171614 11654 net.cpp:122] Setting up conv3_1_em/bn
I0523 21:53:40.171622 11654 net.cpp:129] Top shape: 64 128 14 12 (1376256)
I0523 21:53:40.171625 11654 net.cpp:137] Memory required for data: 2149712640
I0523 21:53:40.171633 11654 layer_factory.hpp:77] Creating layer conv3_1_em/scale
I0523 21:53:40.171638 11654 net.cpp:84] Creating Layer conv3_1_em/scale
I0523 21:53:40.171643 11654 net.cpp:406] conv3_1_em/scale <- conv3_1_em
I0523 21:53:40.171648 11654 net.cpp:367] conv3_1_em/scale -> conv3_1_em (in-place)
I0523 21:53:40.171686 11654 layer_factory.hpp:77] Creating layer conv3_1_em/scale
I0523 21:53:40.171795 11654 net.cpp:122] Setting up conv3_1_em/scale
I0523 21:53:40.171803 11654 net.cpp:129] Top shape: 64 128 14 12 (1376256)
I0523 21:53:40.171806 11654 net.cpp:137] Memory required for data: 2155217664
I0523 21:53:40.171814 11654 layer_factory.hpp:77] Creating layer res3_1
I0523 21:53:40.171823 11654 net.cpp:84] Creating Layer res3_1
I0523 21:53:40.171828 11654 net.cpp:406] res3_1 <- conv3_em_conv3_em/scale_0_split_1
I0523 21:53:40.171833 11654 net.cpp:406] res3_1 <- conv3_1_em
I0523 21:53:40.171838 11654 net.cpp:380] res3_1 -> res3_1
I0523 21:53:40.171864 11654 net.cpp:122] Setting up res3_1
I0523 21:53:40.171870 11654 net.cpp:129] Top shape: 64 128 14 12 (1376256)
I0523 21:53:40.171875 11654 net.cpp:137] Memory required for data: 2160722688
I0523 21:53:40.171876 11654 layer_factory.hpp:77] Creating layer res3_1_res3_1_0_split
I0523 21:53:40.171882 11654 net.cpp:84] Creating Layer res3_1_res3_1_0_split
I0523 21:53:40.171886 11654 net.cpp:406] res3_1_res3_1_0_split <- res3_1
I0523 21:53:40.171891 11654 net.cpp:380] res3_1_res3_1_0_split -> res3_1_res3_1_0_split_0
I0523 21:53:40.171896 11654 net.cpp:380] res3_1_res3_1_0_split -> res3_1_res3_1_0_split_1
I0523 21:53:40.171931 11654 net.cpp:122] Setting up res3_1_res3_1_0_split
I0523 21:53:40.171937 11654 net.cpp:129] Top shape: 64 128 14 12 (1376256)
I0523 21:53:40.171941 11654 net.cpp:129] Top shape: 64 128 14 12 (1376256)
I0523 21:53:40.171943 11654 net.cpp:137] Memory required for data: 2171732736
I0523 21:53:40.171947 11654 layer_factory.hpp:77] Creating layer conv3_2_ex
I0523 21:53:40.171955 11654 net.cpp:84] Creating Layer conv3_2_ex
I0523 21:53:40.171962 11654 net.cpp:406] conv3_2_ex <- res3_1_res3_1_0_split_0
I0523 21:53:40.171967 11654 net.cpp:380] conv3_2_ex -> conv3_2_ex
I0523 21:53:40.173250 11654 net.cpp:122] Setting up conv3_2_ex
I0523 21:53:40.173265 11654 net.cpp:129] Top shape: 64 256 14 12 (2752512)
I0523 21:53:40.173285 11654 net.cpp:137] Memory required for data: 2182742784
I0523 21:53:40.173290 11654 layer_factory.hpp:77] Creating layer conv3_2_ex/bn
I0523 21:53:40.173311 11654 net.cpp:84] Creating Layer conv3_2_ex/bn
I0523 21:53:40.173316 11654 net.cpp:406] conv3_2_ex/bn <- conv3_2_ex
I0523 21:53:40.173323 11654 net.cpp:367] conv3_2_ex/bn -> conv3_2_ex (in-place)
I0523 21:53:40.173516 11654 net.cpp:122] Setting up conv3_2_ex/bn
I0523 21:53:40.173523 11654 net.cpp:129] Top shape: 64 256 14 12 (2752512)
I0523 21:53:40.173527 11654 net.cpp:137] Memory required for data: 2193752832
I0523 21:53:40.173535 11654 layer_factory.hpp:77] Creating layer conv3_2_ex/scale
I0523 21:53:40.173545 11654 net.cpp:84] Creating Layer conv3_2_ex/scale
I0523 21:53:40.173550 11654 net.cpp:406] conv3_2_ex/scale <- conv3_2_ex
I0523 21:53:40.173555 11654 net.cpp:367] conv3_2_ex/scale -> conv3_2_ex (in-place)
I0523 21:53:40.173595 11654 layer_factory.hpp:77] Creating layer conv3_2_ex/scale
I0523 21:53:40.173704 11654 net.cpp:122] Setting up conv3_2_ex/scale
I0523 21:53:40.173712 11654 net.cpp:129] Top shape: 64 256 14 12 (2752512)
I0523 21:53:40.173715 11654 net.cpp:137] Memory required for data: 2204762880
I0523 21:53:40.173720 11654 layer_factory.hpp:77] Creating layer relu3_2_ex
I0523 21:53:40.173727 11654 net.cpp:84] Creating Layer relu3_2_ex
I0523 21:53:40.173729 11654 net.cpp:406] relu3_2_ex <- conv3_2_ex
I0523 21:53:40.173734 11654 net.cpp:367] relu3_2_ex -> conv3_2_ex (in-place)
I0523 21:53:40.173844 11654 net.cpp:122] Setting up relu3_2_ex
I0523 21:53:40.173852 11654 net.cpp:129] Top shape: 64 256 14 12 (2752512)
I0523 21:53:40.173856 11654 net.cpp:137] Memory required for data: 2215772928
I0523 21:53:40.173861 11654 layer_factory.hpp:77] Creating layer conv3_2_dw
I0523 21:53:40.173868 11654 net.cpp:84] Creating Layer conv3_2_dw
I0523 21:53:40.173871 11654 net.cpp:406] conv3_2_dw <- conv3_2_ex
I0523 21:53:40.173877 11654 net.cpp:380] conv3_2_dw -> conv3_2_dw
I0523 21:53:40.174082 11654 net.cpp:122] Setting up conv3_2_dw
I0523 21:53:40.174090 11654 net.cpp:129] Top shape: 64 256 14 12 (2752512)
I0523 21:53:40.174093 11654 net.cpp:137] Memory required for data: 2226782976
I0523 21:53:40.174098 11654 layer_factory.hpp:77] Creating layer conv3_2_dw/bn
I0523 21:53:40.174106 11654 net.cpp:84] Creating Layer conv3_2_dw/bn
I0523 21:53:40.174109 11654 net.cpp:406] conv3_2_dw/bn <- conv3_2_dw
I0523 21:53:40.174115 11654 net.cpp:367] conv3_2_dw/bn -> conv3_2_dw (in-place)
I0523 21:53:40.174300 11654 net.cpp:122] Setting up conv3_2_dw/bn
I0523 21:53:40.174307 11654 net.cpp:129] Top shape: 64 256 14 12 (2752512)
I0523 21:53:40.174310 11654 net.cpp:137] Memory required for data: 2237793024
I0523 21:53:40.174317 11654 layer_factory.hpp:77] Creating layer conv3_2_dw/scale
I0523 21:53:40.174325 11654 net.cpp:84] Creating Layer conv3_2_dw/scale
I0523 21:53:40.174330 11654 net.cpp:406] conv3_2_dw/scale <- conv3_2_dw
I0523 21:53:40.174335 11654 net.cpp:367] conv3_2_dw/scale -> conv3_2_dw (in-place)
I0523 21:53:40.174372 11654 layer_factory.hpp:77] Creating layer conv3_2_dw/scale
I0523 21:53:40.174479 11654 net.cpp:122] Setting up conv3_2_dw/scale
I0523 21:53:40.174485 11654 net.cpp:129] Top shape: 64 256 14 12 (2752512)
I0523 21:53:40.174489 11654 net.cpp:137] Memory required for data: 2248803072
I0523 21:53:40.174494 11654 layer_factory.hpp:77] Creating layer relu3_2_dw
I0523 21:53:40.174499 11654 net.cpp:84] Creating Layer relu3_2_dw
I0523 21:53:40.174502 11654 net.cpp:406] relu3_2_dw <- conv3_2_dw
I0523 21:53:40.174507 11654 net.cpp:367] relu3_2_dw -> conv3_2_dw (in-place)
I0523 21:53:40.174614 11654 net.cpp:122] Setting up relu3_2_dw
I0523 21:53:40.174623 11654 net.cpp:129] Top shape: 64 256 14 12 (2752512)
I0523 21:53:40.174625 11654 net.cpp:137] Memory required for data: 2259813120
I0523 21:53:40.174629 11654 layer_factory.hpp:77] Creating layer conv3_2_em
I0523 21:53:40.174639 11654 net.cpp:84] Creating Layer conv3_2_em
I0523 21:53:40.174643 11654 net.cpp:406] conv3_2_em <- conv3_2_dw
I0523 21:53:40.174649 11654 net.cpp:380] conv3_2_em -> conv3_2_em
I0523 21:53:40.175928 11654 net.cpp:122] Setting up conv3_2_em
I0523 21:53:40.175943 11654 net.cpp:129] Top shape: 64 128 14 12 (1376256)
I0523 21:53:40.175973 11654 net.cpp:137] Memory required for data: 2265318144
I0523 21:53:40.175981 11654 layer_factory.hpp:77] Creating layer conv3_2_em/bn
I0523 21:53:40.175992 11654 net.cpp:84] Creating Layer conv3_2_em/bn
I0523 21:53:40.175997 11654 net.cpp:406] conv3_2_em/bn <- conv3_2_em
I0523 21:53:40.176002 11654 net.cpp:367] conv3_2_em/bn -> conv3_2_em (in-place)
I0523 21:53:40.176203 11654 net.cpp:122] Setting up conv3_2_em/bn
I0523 21:53:40.176211 11654 net.cpp:129] Top shape: 64 128 14 12 (1376256)
I0523 21:53:40.176214 11654 net.cpp:137] Memory required for data: 2270823168
I0523 21:53:40.176223 11654 layer_factory.hpp:77] Creating layer conv3_2_em/scale
I0523 21:53:40.176229 11654 net.cpp:84] Creating Layer conv3_2_em/scale
I0523 21:53:40.176234 11654 net.cpp:406] conv3_2_em/scale <- conv3_2_em
I0523 21:53:40.176239 11654 net.cpp:367] conv3_2_em/scale -> conv3_2_em (in-place)
I0523 21:53:40.176278 11654 layer_factory.hpp:77] Creating layer conv3_2_em/scale
I0523 21:53:40.176389 11654 net.cpp:122] Setting up conv3_2_em/scale
I0523 21:53:40.176396 11654 net.cpp:129] Top shape: 64 128 14 12 (1376256)
I0523 21:53:40.176399 11654 net.cpp:137] Memory required for data: 2276328192
I0523 21:53:40.176405 11654 layer_factory.hpp:77] Creating layer res3_2
I0523 21:53:40.176412 11654 net.cpp:84] Creating Layer res3_2
I0523 21:53:40.176416 11654 net.cpp:406] res3_2 <- res3_1_res3_1_0_split_1
I0523 21:53:40.176430 11654 net.cpp:406] res3_2 <- conv3_2_em
I0523 21:53:40.176436 11654 net.cpp:380] res3_2 -> res3_2
I0523 21:53:40.176460 11654 net.cpp:122] Setting up res3_2
I0523 21:53:40.176466 11654 net.cpp:129] Top shape: 64 128 14 12 (1376256)
I0523 21:53:40.176470 11654 net.cpp:137] Memory required for data: 2281833216
I0523 21:53:40.176472 11654 layer_factory.hpp:77] Creating layer res3_2_res3_2_0_split
I0523 21:53:40.176479 11654 net.cpp:84] Creating Layer res3_2_res3_2_0_split
I0523 21:53:40.176483 11654 net.cpp:406] res3_2_res3_2_0_split <- res3_2
I0523 21:53:40.176488 11654 net.cpp:380] res3_2_res3_2_0_split -> res3_2_res3_2_0_split_0
I0523 21:53:40.176494 11654 net.cpp:380] res3_2_res3_2_0_split -> res3_2_res3_2_0_split_1
I0523 21:53:40.176543 11654 net.cpp:122] Setting up res3_2_res3_2_0_split
I0523 21:53:40.176550 11654 net.cpp:129] Top shape: 64 128 14 12 (1376256)
I0523 21:53:40.176554 11654 net.cpp:129] Top shape: 64 128 14 12 (1376256)
I0523 21:53:40.176556 11654 net.cpp:137] Memory required for data: 2292843264
I0523 21:53:40.176559 11654 layer_factory.hpp:77] Creating layer conv3_3_ex
I0523 21:53:40.176568 11654 net.cpp:84] Creating Layer conv3_3_ex
I0523 21:53:40.176571 11654 net.cpp:406] conv3_3_ex <- res3_2_res3_2_0_split_0
I0523 21:53:40.176578 11654 net.cpp:380] conv3_3_ex -> conv3_3_ex
I0523 21:53:40.177893 11654 net.cpp:122] Setting up conv3_3_ex
I0523 21:53:40.177908 11654 net.cpp:129] Top shape: 64 256 14 12 (2752512)
I0523 21:53:40.177928 11654 net.cpp:137] Memory required for data: 2303853312
I0523 21:53:40.177933 11654 layer_factory.hpp:77] Creating layer conv3_3_ex/bn
I0523 21:53:40.177942 11654 net.cpp:84] Creating Layer conv3_3_ex/bn
I0523 21:53:40.177948 11654 net.cpp:406] conv3_3_ex/bn <- conv3_3_ex
I0523 21:53:40.177955 11654 net.cpp:367] conv3_3_ex/bn -> conv3_3_ex (in-place)
I0523 21:53:40.178151 11654 net.cpp:122] Setting up conv3_3_ex/bn
I0523 21:53:40.178159 11654 net.cpp:129] Top shape: 64 256 14 12 (2752512)
I0523 21:53:40.178162 11654 net.cpp:137] Memory required for data: 2314863360
I0523 21:53:40.178169 11654 layer_factory.hpp:77] Creating layer conv3_3_ex/scale
I0523 21:53:40.178180 11654 net.cpp:84] Creating Layer conv3_3_ex/scale
I0523 21:53:40.178184 11654 net.cpp:406] conv3_3_ex/scale <- conv3_3_ex
I0523 21:53:40.178190 11654 net.cpp:367] conv3_3_ex/scale -> conv3_3_ex (in-place)
I0523 21:53:40.178231 11654 layer_factory.hpp:77] Creating layer conv3_3_ex/scale
I0523 21:53:40.178345 11654 net.cpp:122] Setting up conv3_3_ex/scale
I0523 21:53:40.178354 11654 net.cpp:129] Top shape: 64 256 14 12 (2752512)
I0523 21:53:40.178356 11654 net.cpp:137] Memory required for data: 2325873408
I0523 21:53:40.178375 11654 layer_factory.hpp:77] Creating layer relu3_3_ex
I0523 21:53:40.178382 11654 net.cpp:84] Creating Layer relu3_3_ex
I0523 21:53:40.178386 11654 net.cpp:406] relu3_3_ex <- conv3_3_ex
I0523 21:53:40.178391 11654 net.cpp:367] relu3_3_ex -> conv3_3_ex (in-place)
I0523 21:53:40.178508 11654 net.cpp:122] Setting up relu3_3_ex
I0523 21:53:40.178515 11654 net.cpp:129] Top shape: 64 256 14 12 (2752512)
I0523 21:53:40.178519 11654 net.cpp:137] Memory required for data: 2336883456
I0523 21:53:40.178522 11654 layer_factory.hpp:77] Creating layer conv3_3_dw
I0523 21:53:40.178530 11654 net.cpp:84] Creating Layer conv3_3_dw
I0523 21:53:40.178534 11654 net.cpp:406] conv3_3_dw <- conv3_3_ex
I0523 21:53:40.178540 11654 net.cpp:380] conv3_3_dw -> conv3_3_dw
I0523 21:53:40.178761 11654 net.cpp:122] Setting up conv3_3_dw
I0523 21:53:40.178769 11654 net.cpp:129] Top shape: 64 256 14 12 (2752512)
I0523 21:53:40.178772 11654 net.cpp:137] Memory required for data: 2347893504
I0523 21:53:40.178777 11654 layer_factory.hpp:77] Creating layer conv3_3_dw/bn
I0523 21:53:40.178786 11654 net.cpp:84] Creating Layer conv3_3_dw/bn
I0523 21:53:40.178788 11654 net.cpp:406] conv3_3_dw/bn <- conv3_3_dw
I0523 21:53:40.178794 11654 net.cpp:367] conv3_3_dw/bn -> conv3_3_dw (in-place)
I0523 21:53:40.178982 11654 net.cpp:122] Setting up conv3_3_dw/bn
I0523 21:53:40.178989 11654 net.cpp:129] Top shape: 64 256 14 12 (2752512)
I0523 21:53:40.178992 11654 net.cpp:137] Memory required for data: 2358903552
I0523 21:53:40.178999 11654 layer_factory.hpp:77] Creating layer conv3_3_dw/scale
I0523 21:53:40.179008 11654 net.cpp:84] Creating Layer conv3_3_dw/scale
I0523 21:53:40.179013 11654 net.cpp:406] conv3_3_dw/scale <- conv3_3_dw
I0523 21:53:40.179018 11654 net.cpp:367] conv3_3_dw/scale -> conv3_3_dw (in-place)
I0523 21:53:40.179057 11654 layer_factory.hpp:77] Creating layer conv3_3_dw/scale
I0523 21:53:40.179168 11654 net.cpp:122] Setting up conv3_3_dw/scale
I0523 21:53:40.179175 11654 net.cpp:129] Top shape: 64 256 14 12 (2752512)
I0523 21:53:40.179179 11654 net.cpp:137] Memory required for data: 2369913600
I0523 21:53:40.179185 11654 layer_factory.hpp:77] Creating layer relu3_3_dw
I0523 21:53:40.179193 11654 net.cpp:84] Creating Layer relu3_3_dw
I0523 21:53:40.179195 11654 net.cpp:406] relu3_3_dw <- conv3_3_dw
I0523 21:53:40.179200 11654 net.cpp:367] relu3_3_dw -> conv3_3_dw (in-place)
I0523 21:53:40.179311 11654 net.cpp:122] Setting up relu3_3_dw
I0523 21:53:40.179319 11654 net.cpp:129] Top shape: 64 256 14 12 (2752512)
I0523 21:53:40.179322 11654 net.cpp:137] Memory required for data: 2380923648
I0523 21:53:40.179327 11654 layer_factory.hpp:77] Creating layer conv3_3_em
I0523 21:53:40.179337 11654 net.cpp:84] Creating Layer conv3_3_em
I0523 21:53:40.179340 11654 net.cpp:406] conv3_3_em <- conv3_3_dw
I0523 21:53:40.179347 11654 net.cpp:380] conv3_3_em -> conv3_3_em
I0523 21:53:40.182134 11654 net.cpp:122] Setting up conv3_3_em
I0523 21:53:40.182149 11654 net.cpp:129] Top shape: 64 128 14 12 (1376256)
I0523 21:53:40.182169 11654 net.cpp:137] Memory required for data: 2386428672
I0523 21:53:40.182174 11654 layer_factory.hpp:77] Creating layer conv3_3_em/bn
I0523 21:53:40.182184 11654 net.cpp:84] Creating Layer conv3_3_em/bn
I0523 21:53:40.182190 11654 net.cpp:406] conv3_3_em/bn <- conv3_3_em
I0523 21:53:40.182196 11654 net.cpp:367] conv3_3_em/bn -> conv3_3_em (in-place)
I0523 21:53:40.182404 11654 net.cpp:122] Setting up conv3_3_em/bn
I0523 21:53:40.182411 11654 net.cpp:129] Top shape: 64 128 14 12 (1376256)
I0523 21:53:40.182415 11654 net.cpp:137] Memory required for data: 2391933696
I0523 21:53:40.182421 11654 layer_factory.hpp:77] Creating layer conv3_3_em/scale
I0523 21:53:40.182431 11654 net.cpp:84] Creating Layer conv3_3_em/scale
I0523 21:53:40.182435 11654 net.cpp:406] conv3_3_em/scale <- conv3_3_em
I0523 21:53:40.182440 11654 net.cpp:367] conv3_3_em/scale -> conv3_3_em (in-place)
I0523 21:53:40.182485 11654 layer_factory.hpp:77] Creating layer conv3_3_em/scale
I0523 21:53:40.182601 11654 net.cpp:122] Setting up conv3_3_em/scale
I0523 21:53:40.182622 11654 net.cpp:129] Top shape: 64 128 14 12 (1376256)
I0523 21:53:40.182626 11654 net.cpp:137] Memory required for data: 2397438720
I0523 21:53:40.182631 11654 layer_factory.hpp:77] Creating layer res3_3
I0523 21:53:40.182641 11654 net.cpp:84] Creating Layer res3_3
I0523 21:53:40.182646 11654 net.cpp:406] res3_3 <- res3_2_res3_2_0_split_1
I0523 21:53:40.182651 11654 net.cpp:406] res3_3 <- conv3_3_em
I0523 21:53:40.182656 11654 net.cpp:380] res3_3 -> res3_3
I0523 21:53:40.182703 11654 net.cpp:122] Setting up res3_3
I0523 21:53:40.182713 11654 net.cpp:129] Top shape: 64 128 14 12 (1376256)
I0523 21:53:40.182715 11654 net.cpp:137] Memory required for data: 2402943744
I0523 21:53:40.182718 11654 layer_factory.hpp:77] Creating layer res3_3_res3_3_0_split
I0523 21:53:40.182724 11654 net.cpp:84] Creating Layer res3_3_res3_3_0_split
I0523 21:53:40.182727 11654 net.cpp:406] res3_3_res3_3_0_split <- res3_3
I0523 21:53:40.182735 11654 net.cpp:380] res3_3_res3_3_0_split -> res3_3_res3_3_0_split_0
I0523 21:53:40.182741 11654 net.cpp:380] res3_3_res3_3_0_split -> res3_3_res3_3_0_split_1
I0523 21:53:40.182780 11654 net.cpp:122] Setting up res3_3_res3_3_0_split
I0523 21:53:40.182786 11654 net.cpp:129] Top shape: 64 128 14 12 (1376256)
I0523 21:53:40.182790 11654 net.cpp:129] Top shape: 64 128 14 12 (1376256)
I0523 21:53:40.182793 11654 net.cpp:137] Memory required for data: 2413953792
I0523 21:53:40.182796 11654 layer_factory.hpp:77] Creating layer conv3_4_ex
I0523 21:53:40.182804 11654 net.cpp:84] Creating Layer conv3_4_ex
I0523 21:53:40.182808 11654 net.cpp:406] conv3_4_ex <- res3_3_res3_3_0_split_0
I0523 21:53:40.182816 11654 net.cpp:380] conv3_4_ex -> conv3_4_ex
I0523 21:53:40.184198 11654 net.cpp:122] Setting up conv3_4_ex
I0523 21:53:40.184214 11654 net.cpp:129] Top shape: 64 256 14 12 (2752512)
I0523 21:53:40.184218 11654 net.cpp:137] Memory required for data: 2424963840
I0523 21:53:40.184226 11654 layer_factory.hpp:77] Creating layer conv3_4_ex/bn
I0523 21:53:40.184236 11654 net.cpp:84] Creating Layer conv3_4_ex/bn
I0523 21:53:40.184248 11654 net.cpp:406] conv3_4_ex/bn <- conv3_4_ex
I0523 21:53:40.184254 11654 net.cpp:367] conv3_4_ex/bn -> conv3_4_ex (in-place)
I0523 21:53:40.184466 11654 net.cpp:122] Setting up conv3_4_ex/bn
I0523 21:53:40.184474 11654 net.cpp:129] Top shape: 64 256 14 12 (2752512)
I0523 21:53:40.184478 11654 net.cpp:137] Memory required for data: 2435973888
I0523 21:53:40.184484 11654 layer_factory.hpp:77] Creating layer conv3_4_ex/scale
I0523 21:53:40.184494 11654 net.cpp:84] Creating Layer conv3_4_ex/scale
I0523 21:53:40.184499 11654 net.cpp:406] conv3_4_ex/scale <- conv3_4_ex
I0523 21:53:40.184504 11654 net.cpp:367] conv3_4_ex/scale -> conv3_4_ex (in-place)
I0523 21:53:40.184546 11654 layer_factory.hpp:77] Creating layer conv3_4_ex/scale
I0523 21:53:40.184667 11654 net.cpp:122] Setting up conv3_4_ex/scale
I0523 21:53:40.184674 11654 net.cpp:129] Top shape: 64 256 14 12 (2752512)
I0523 21:53:40.184679 11654 net.cpp:137] Memory required for data: 2446983936
I0523 21:53:40.184684 11654 layer_factory.hpp:77] Creating layer relu3_4_ex
I0523 21:53:40.184692 11654 net.cpp:84] Creating Layer relu3_4_ex
I0523 21:53:40.184697 11654 net.cpp:406] relu3_4_ex <- conv3_4_ex
I0523 21:53:40.184715 11654 net.cpp:367] relu3_4_ex -> conv3_4_ex (in-place)
I0523 21:53:40.184829 11654 net.cpp:122] Setting up relu3_4_ex
I0523 21:53:40.184837 11654 net.cpp:129] Top shape: 64 256 14 12 (2752512)
I0523 21:53:40.184841 11654 net.cpp:137] Memory required for data: 2457993984
I0523 21:53:40.184845 11654 layer_factory.hpp:77] Creating layer conv3_4_dw
I0523 21:53:40.184864 11654 net.cpp:84] Creating Layer conv3_4_dw
I0523 21:53:40.184870 11654 net.cpp:406] conv3_4_dw <- conv3_4_ex
I0523 21:53:40.184876 11654 net.cpp:380] conv3_4_dw -> conv3_4_dw
I0523 21:53:40.185099 11654 net.cpp:122] Setting up conv3_4_dw
I0523 21:53:40.185108 11654 net.cpp:129] Top shape: 64 256 14 12 (2752512)
I0523 21:53:40.185111 11654 net.cpp:137] Memory required for data: 2469004032
I0523 21:53:40.185117 11654 layer_factory.hpp:77] Creating layer conv3_4_dw/bn
I0523 21:53:40.185140 11654 net.cpp:84] Creating Layer conv3_4_dw/bn
I0523 21:53:40.185147 11654 net.cpp:406] conv3_4_dw/bn <- conv3_4_dw
I0523 21:53:40.185151 11654 net.cpp:367] conv3_4_dw/bn -> conv3_4_dw (in-place)
I0523 21:53:40.185353 11654 net.cpp:122] Setting up conv3_4_dw/bn
I0523 21:53:40.185361 11654 net.cpp:129] Top shape: 64 256 14 12 (2752512)
I0523 21:53:40.185364 11654 net.cpp:137] Memory required for data: 2480014080
I0523 21:53:40.185371 11654 layer_factory.hpp:77] Creating layer conv3_4_dw/scale
I0523 21:53:40.185384 11654 net.cpp:84] Creating Layer conv3_4_dw/scale
I0523 21:53:40.185386 11654 net.cpp:406] conv3_4_dw/scale <- conv3_4_dw
I0523 21:53:40.185391 11654 net.cpp:367] conv3_4_dw/scale -> conv3_4_dw (in-place)
I0523 21:53:40.185441 11654 layer_factory.hpp:77] Creating layer conv3_4_dw/scale
I0523 21:53:40.185564 11654 net.cpp:122] Setting up conv3_4_dw/scale
I0523 21:53:40.185571 11654 net.cpp:129] Top shape: 64 256 14 12 (2752512)
I0523 21:53:40.185575 11654 net.cpp:137] Memory required for data: 2491024128
I0523 21:53:40.185580 11654 layer_factory.hpp:77] Creating layer relu3_4_dw
I0523 21:53:40.185586 11654 net.cpp:84] Creating Layer relu3_4_dw
I0523 21:53:40.185590 11654 net.cpp:406] relu3_4_dw <- conv3_4_dw
I0523 21:53:40.185596 11654 net.cpp:367] relu3_4_dw -> conv3_4_dw (in-place)
I0523 21:53:40.185709 11654 net.cpp:122] Setting up relu3_4_dw
I0523 21:53:40.185717 11654 net.cpp:129] Top shape: 64 256 14 12 (2752512)
I0523 21:53:40.185720 11654 net.cpp:137] Memory required for data: 2502034176
I0523 21:53:40.185725 11654 layer_factory.hpp:77] Creating layer conv3_4_em
I0523 21:53:40.185736 11654 net.cpp:84] Creating Layer conv3_4_em
I0523 21:53:40.185741 11654 net.cpp:406] conv3_4_em <- conv3_4_dw
I0523 21:53:40.185746 11654 net.cpp:380] conv3_4_em -> conv3_4_em
I0523 21:53:40.187427 11654 net.cpp:122] Setting up conv3_4_em
I0523 21:53:40.187444 11654 net.cpp:129] Top shape: 64 128 14 12 (1376256)
I0523 21:53:40.187448 11654 net.cpp:137] Memory required for data: 2507539200
I0523 21:53:40.187453 11654 layer_factory.hpp:77] Creating layer conv3_4_em/bn
I0523 21:53:40.187465 11654 net.cpp:84] Creating Layer conv3_4_em/bn
I0523 21:53:40.187471 11654 net.cpp:406] conv3_4_em/bn <- conv3_4_em
I0523 21:53:40.187480 11654 net.cpp:367] conv3_4_em/bn -> conv3_4_em (in-place)
I0523 21:53:40.187695 11654 net.cpp:122] Setting up conv3_4_em/bn
I0523 21:53:40.187703 11654 net.cpp:129] Top shape: 64 128 14 12 (1376256)
I0523 21:53:40.187707 11654 net.cpp:137] Memory required for data: 2513044224
I0523 21:53:40.187714 11654 layer_factory.hpp:77] Creating layer conv3_4_em/scale
I0523 21:53:40.187723 11654 net.cpp:84] Creating Layer conv3_4_em/scale
I0523 21:53:40.187728 11654 net.cpp:406] conv3_4_em/scale <- conv3_4_em
I0523 21:53:40.187733 11654 net.cpp:367] conv3_4_em/scale -> conv3_4_em (in-place)
I0523 21:53:40.187777 11654 layer_factory.hpp:77] Creating layer conv3_4_em/scale
I0523 21:53:40.187901 11654 net.cpp:122] Setting up conv3_4_em/scale
I0523 21:53:40.187911 11654 net.cpp:129] Top shape: 64 128 14 12 (1376256)
I0523 21:53:40.187913 11654 net.cpp:137] Memory required for data: 2518549248
I0523 21:53:40.187919 11654 layer_factory.hpp:77] Creating layer res3_4
I0523 21:53:40.187927 11654 net.cpp:84] Creating Layer res3_4
I0523 21:53:40.187933 11654 net.cpp:406] res3_4 <- res3_3_res3_3_0_split_1
I0523 21:53:40.187938 11654 net.cpp:406] res3_4 <- conv3_4_em
I0523 21:53:40.187942 11654 net.cpp:380] res3_4 -> res3_4
I0523 21:53:40.187970 11654 net.cpp:122] Setting up res3_4
I0523 21:53:40.187978 11654 net.cpp:129] Top shape: 64 128 14 12 (1376256)
I0523 21:53:40.187980 11654 net.cpp:137] Memory required for data: 2524054272
I0523 21:53:40.187984 11654 layer_factory.hpp:77] Creating layer res3_4_res3_4_0_split
I0523 21:53:40.187989 11654 net.cpp:84] Creating Layer res3_4_res3_4_0_split
I0523 21:53:40.187994 11654 net.cpp:406] res3_4_res3_4_0_split <- res3_4
I0523 21:53:40.188001 11654 net.cpp:380] res3_4_res3_4_0_split -> res3_4_res3_4_0_split_0
I0523 21:53:40.188007 11654 net.cpp:380] res3_4_res3_4_0_split -> res3_4_res3_4_0_split_1
I0523 21:53:40.188060 11654 net.cpp:122] Setting up res3_4_res3_4_0_split
I0523 21:53:40.188066 11654 net.cpp:129] Top shape: 64 128 14 12 (1376256)
I0523 21:53:40.188071 11654 net.cpp:129] Top shape: 64 128 14 12 (1376256)
I0523 21:53:40.188074 11654 net.cpp:137] Memory required for data: 2535064320
I0523 21:53:40.188077 11654 layer_factory.hpp:77] Creating layer conv3_5_ex
I0523 21:53:40.188093 11654 net.cpp:84] Creating Layer conv3_5_ex
I0523 21:53:40.188099 11654 net.cpp:406] conv3_5_ex <- res3_4_res3_4_0_split_0
I0523 21:53:40.188105 11654 net.cpp:380] conv3_5_ex -> conv3_5_ex
I0523 21:53:40.189473 11654 net.cpp:122] Setting up conv3_5_ex
I0523 21:53:40.189489 11654 net.cpp:129] Top shape: 64 256 14 12 (2752512)
I0523 21:53:40.189493 11654 net.cpp:137] Memory required for data: 2546074368
I0523 21:53:40.189498 11654 layer_factory.hpp:77] Creating layer conv3_5_ex/bn
I0523 21:53:40.189507 11654 net.cpp:84] Creating Layer conv3_5_ex/bn
I0523 21:53:40.189510 11654 net.cpp:406] conv3_5_ex/bn <- conv3_5_ex
I0523 21:53:40.189518 11654 net.cpp:367] conv3_5_ex/bn -> conv3_5_ex (in-place)
I0523 21:53:40.189751 11654 net.cpp:122] Setting up conv3_5_ex/bn
I0523 21:53:40.189759 11654 net.cpp:129] Top shape: 64 256 14 12 (2752512)
I0523 21:53:40.189762 11654 net.cpp:137] Memory required for data: 2557084416
I0523 21:53:40.189769 11654 layer_factory.hpp:77] Creating layer conv3_5_ex/scale
I0523 21:53:40.189791 11654 net.cpp:84] Creating Layer conv3_5_ex/scale
I0523 21:53:40.189796 11654 net.cpp:406] conv3_5_ex/scale <- conv3_5_ex
I0523 21:53:40.189803 11654 net.cpp:367] conv3_5_ex/scale -> conv3_5_ex (in-place)
I0523 21:53:40.189846 11654 layer_factory.hpp:77] Creating layer conv3_5_ex/scale
I0523 21:53:40.189970 11654 net.cpp:122] Setting up conv3_5_ex/scale
I0523 21:53:40.189978 11654 net.cpp:129] Top shape: 64 256 14 12 (2752512)
I0523 21:53:40.189981 11654 net.cpp:137] Memory required for data: 2568094464
I0523 21:53:40.189988 11654 layer_factory.hpp:77] Creating layer relu3_5_ex
I0523 21:53:40.189997 11654 net.cpp:84] Creating Layer relu3_5_ex
I0523 21:53:40.190001 11654 net.cpp:406] relu3_5_ex <- conv3_5_ex
I0523 21:53:40.190006 11654 net.cpp:367] relu3_5_ex -> conv3_5_ex (in-place)
I0523 21:53:40.190124 11654 net.cpp:122] Setting up relu3_5_ex
I0523 21:53:40.190132 11654 net.cpp:129] Top shape: 64 256 14 12 (2752512)
I0523 21:53:40.190135 11654 net.cpp:137] Memory required for data: 2579104512
I0523 21:53:40.190140 11654 layer_factory.hpp:77] Creating layer conv3_5_dw
I0523 21:53:40.190147 11654 net.cpp:84] Creating Layer conv3_5_dw
I0523 21:53:40.190150 11654 net.cpp:406] conv3_5_dw <- conv3_5_ex
I0523 21:53:40.190158 11654 net.cpp:380] conv3_5_dw -> conv3_5_dw
I0523 21:53:40.190392 11654 net.cpp:122] Setting up conv3_5_dw
I0523 21:53:40.190399 11654 net.cpp:129] Top shape: 64 256 14 12 (2752512)
I0523 21:53:40.190403 11654 net.cpp:137] Memory required for data: 2590114560
I0523 21:53:40.190407 11654 layer_factory.hpp:77] Creating layer conv3_5_dw/bn
I0523 21:53:40.190415 11654 net.cpp:84] Creating Layer conv3_5_dw/bn
I0523 21:53:40.190419 11654 net.cpp:406] conv3_5_dw/bn <- conv3_5_dw
I0523 21:53:40.190424 11654 net.cpp:367] conv3_5_dw/bn -> conv3_5_dw (in-place)
I0523 21:53:40.190634 11654 net.cpp:122] Setting up conv3_5_dw/bn
I0523 21:53:40.190641 11654 net.cpp:129] Top shape: 64 256 14 12 (2752512)
I0523 21:53:40.190644 11654 net.cpp:137] Memory required for data: 2601124608
I0523 21:53:40.190651 11654 layer_factory.hpp:77] Creating layer conv3_5_dw/scale
I0523 21:53:40.190661 11654 net.cpp:84] Creating Layer conv3_5_dw/scale
I0523 21:53:40.190665 11654 net.cpp:406] conv3_5_dw/scale <- conv3_5_dw
I0523 21:53:40.190670 11654 net.cpp:367] conv3_5_dw/scale -> conv3_5_dw (in-place)
I0523 21:53:40.190721 11654 layer_factory.hpp:77] Creating layer conv3_5_dw/scale
I0523 21:53:40.190845 11654 net.cpp:122] Setting up conv3_5_dw/scale
I0523 21:53:40.190852 11654 net.cpp:129] Top shape: 64 256 14 12 (2752512)
I0523 21:53:40.190855 11654 net.cpp:137] Memory required for data: 2612134656
I0523 21:53:40.190876 11654 layer_factory.hpp:77] Creating layer relu3_5_dw
I0523 21:53:40.190884 11654 net.cpp:84] Creating Layer relu3_5_dw
I0523 21:53:40.190889 11654 net.cpp:406] relu3_5_dw <- conv3_5_dw
I0523 21:53:40.190894 11654 net.cpp:367] relu3_5_dw -> conv3_5_dw (in-place)
I0523 21:53:40.191011 11654 net.cpp:122] Setting up relu3_5_dw
I0523 21:53:40.191020 11654 net.cpp:129] Top shape: 64 256 14 12 (2752512)
I0523 21:53:40.191023 11654 net.cpp:137] Memory required for data: 2623144704
I0523 21:53:40.191027 11654 layer_factory.hpp:77] Creating layer conv3_5_em
I0523 21:53:40.191040 11654 net.cpp:84] Creating Layer conv3_5_em
I0523 21:53:40.191045 11654 net.cpp:406] conv3_5_em <- conv3_5_dw
I0523 21:53:40.191049 11654 net.cpp:380] conv3_5_em -> conv3_5_em
I0523 21:53:40.192078 11654 net.cpp:122] Setting up conv3_5_em
I0523 21:53:40.192093 11654 net.cpp:129] Top shape: 64 128 14 12 (1376256)
I0523 21:53:40.192096 11654 net.cpp:137] Memory required for data: 2628649728
I0523 21:53:40.192102 11654 layer_factory.hpp:77] Creating layer conv3_5_em/bn
I0523 21:53:40.192111 11654 net.cpp:84] Creating Layer conv3_5_em/bn
I0523 21:53:40.192116 11654 net.cpp:406] conv3_5_em/bn <- conv3_5_em
I0523 21:53:40.192121 11654 net.cpp:367] conv3_5_em/bn -> conv3_5_em (in-place)
I0523 21:53:40.192335 11654 net.cpp:122] Setting up conv3_5_em/bn
I0523 21:53:40.192343 11654 net.cpp:129] Top shape: 64 128 14 12 (1376256)
I0523 21:53:40.192347 11654 net.cpp:137] Memory required for data: 2634154752
I0523 21:53:40.192354 11654 layer_factory.hpp:77] Creating layer conv3_5_em/scale
I0523 21:53:40.192363 11654 net.cpp:84] Creating Layer conv3_5_em/scale
I0523 21:53:40.192368 11654 net.cpp:406] conv3_5_em/scale <- conv3_5_em
I0523 21:53:40.192373 11654 net.cpp:367] conv3_5_em/scale -> conv3_5_em (in-place)
I0523 21:53:40.192427 11654 layer_factory.hpp:77] Creating layer conv3_5_em/scale
I0523 21:53:40.192545 11654 net.cpp:122] Setting up conv3_5_em/scale
I0523 21:53:40.192553 11654 net.cpp:129] Top shape: 64 128 14 12 (1376256)
I0523 21:53:40.192556 11654 net.cpp:137] Memory required for data: 2639659776
I0523 21:53:40.192561 11654 layer_factory.hpp:77] Creating layer res3_5
I0523 21:53:40.192567 11654 net.cpp:84] Creating Layer res3_5
I0523 21:53:40.192571 11654 net.cpp:406] res3_5 <- res3_4_res3_4_0_split_1
I0523 21:53:40.192575 11654 net.cpp:406] res3_5 <- conv3_5_em
I0523 21:53:40.192582 11654 net.cpp:380] res3_5 -> res3_5
I0523 21:53:40.192605 11654 net.cpp:122] Setting up res3_5
I0523 21:53:40.192611 11654 net.cpp:129] Top shape: 64 128 14 12 (1376256)
I0523 21:53:40.192615 11654 net.cpp:137] Memory required for data: 2645164800
I0523 21:53:40.192617 11654 layer_factory.hpp:77] Creating layer res3_5_res3_5_0_split
I0523 21:53:40.192631 11654 net.cpp:84] Creating Layer res3_5_res3_5_0_split
I0523 21:53:40.192636 11654 net.cpp:406] res3_5_res3_5_0_split <- res3_5
I0523 21:53:40.192641 11654 net.cpp:380] res3_5_res3_5_0_split -> res3_5_res3_5_0_split_0
I0523 21:53:40.192646 11654 net.cpp:380] res3_5_res3_5_0_split -> res3_5_res3_5_0_split_1
I0523 21:53:40.192682 11654 net.cpp:122] Setting up res3_5_res3_5_0_split
I0523 21:53:40.192688 11654 net.cpp:129] Top shape: 64 128 14 12 (1376256)
I0523 21:53:40.192693 11654 net.cpp:129] Top shape: 64 128 14 12 (1376256)
I0523 21:53:40.192695 11654 net.cpp:137] Memory required for data: 2656174848
I0523 21:53:40.192698 11654 layer_factory.hpp:77] Creating layer conv3_6_ex
I0523 21:53:40.192705 11654 net.cpp:84] Creating Layer conv3_6_ex
I0523 21:53:40.192709 11654 net.cpp:406] conv3_6_ex <- res3_5_res3_5_0_split_0
I0523 21:53:40.192716 11654 net.cpp:380] conv3_6_ex -> conv3_6_ex
I0523 21:53:40.194046 11654 net.cpp:122] Setting up conv3_6_ex
I0523 21:53:40.194061 11654 net.cpp:129] Top shape: 64 256 14 12 (2752512)
I0523 21:53:40.194080 11654 net.cpp:137] Memory required for data: 2667184896
I0523 21:53:40.194087 11654 layer_factory.hpp:77] Creating layer conv3_6_ex/bn
I0523 21:53:40.194097 11654 net.cpp:84] Creating Layer conv3_6_ex/bn
I0523 21:53:40.194102 11654 net.cpp:406] conv3_6_ex/bn <- conv3_6_ex
I0523 21:53:40.194121 11654 net.cpp:367] conv3_6_ex/bn -> conv3_6_ex (in-place)
I0523 21:53:40.194360 11654 net.cpp:122] Setting up conv3_6_ex/bn
I0523 21:53:40.194368 11654 net.cpp:129] Top shape: 64 256 14 12 (2752512)
I0523 21:53:40.194371 11654 net.cpp:137] Memory required for data: 2678194944
I0523 21:53:40.194378 11654 layer_factory.hpp:77] Creating layer conv3_6_ex/scale
I0523 21:53:40.194387 11654 net.cpp:84] Creating Layer conv3_6_ex/scale
I0523 21:53:40.194392 11654 net.cpp:406] conv3_6_ex/scale <- conv3_6_ex
I0523 21:53:40.194397 11654 net.cpp:367] conv3_6_ex/scale -> conv3_6_ex (in-place)
I0523 21:53:40.194442 11654 layer_factory.hpp:77] Creating layer conv3_6_ex/scale
I0523 21:53:40.194576 11654 net.cpp:122] Setting up conv3_6_ex/scale
I0523 21:53:40.194598 11654 net.cpp:129] Top shape: 64 256 14 12 (2752512)
I0523 21:53:40.194602 11654 net.cpp:137] Memory required for data: 2689204992
I0523 21:53:40.194607 11654 layer_factory.hpp:77] Creating layer relu3_6_ex
I0523 21:53:40.194614 11654 net.cpp:84] Creating Layer relu3_6_ex
I0523 21:53:40.194617 11654 net.cpp:406] relu3_6_ex <- conv3_6_ex
I0523 21:53:40.194624 11654 net.cpp:367] relu3_6_ex -> conv3_6_ex (in-place)
I0523 21:53:40.194752 11654 net.cpp:122] Setting up relu3_6_ex
I0523 21:53:40.194770 11654 net.cpp:129] Top shape: 64 256 14 12 (2752512)
I0523 21:53:40.194773 11654 net.cpp:137] Memory required for data: 2700215040
I0523 21:53:40.194778 11654 layer_factory.hpp:77] Creating layer conv3_6_dw
I0523 21:53:40.194787 11654 net.cpp:84] Creating Layer conv3_6_dw
I0523 21:53:40.194790 11654 net.cpp:406] conv3_6_dw <- conv3_6_ex
I0523 21:53:40.194799 11654 net.cpp:380] conv3_6_dw -> conv3_6_dw
I0523 21:53:40.195024 11654 net.cpp:122] Setting up conv3_6_dw
I0523 21:53:40.195032 11654 net.cpp:129] Top shape: 64 256 14 12 (2752512)
I0523 21:53:40.195035 11654 net.cpp:137] Memory required for data: 2711225088
I0523 21:53:40.195040 11654 layer_factory.hpp:77] Creating layer conv3_6_dw/bn
I0523 21:53:40.195045 11654 net.cpp:84] Creating Layer conv3_6_dw/bn
I0523 21:53:40.195050 11654 net.cpp:406] conv3_6_dw/bn <- conv3_6_dw
I0523 21:53:40.195053 11654 net.cpp:367] conv3_6_dw/bn -> conv3_6_dw (in-place)
I0523 21:53:40.195263 11654 net.cpp:122] Setting up conv3_6_dw/bn
I0523 21:53:40.195271 11654 net.cpp:129] Top shape: 64 256 14 12 (2752512)
I0523 21:53:40.195274 11654 net.cpp:137] Memory required for data: 2722235136
I0523 21:53:40.195282 11654 layer_factory.hpp:77] Creating layer conv3_6_dw/scale
I0523 21:53:40.195291 11654 net.cpp:84] Creating Layer conv3_6_dw/scale
I0523 21:53:40.195296 11654 net.cpp:406] conv3_6_dw/scale <- conv3_6_dw
I0523 21:53:40.195299 11654 net.cpp:367] conv3_6_dw/scale -> conv3_6_dw (in-place)
I0523 21:53:40.195343 11654 layer_factory.hpp:77] Creating layer conv3_6_dw/scale
I0523 21:53:40.195464 11654 net.cpp:122] Setting up conv3_6_dw/scale
I0523 21:53:40.195472 11654 net.cpp:129] Top shape: 64 256 14 12 (2752512)
I0523 21:53:40.195475 11654 net.cpp:137] Memory required for data: 2733245184
I0523 21:53:40.195480 11654 layer_factory.hpp:77] Creating layer relu3_6_dw
I0523 21:53:40.195485 11654 net.cpp:84] Creating Layer relu3_6_dw
I0523 21:53:40.195489 11654 net.cpp:406] relu3_6_dw <- conv3_6_dw
I0523 21:53:40.195495 11654 net.cpp:367] relu3_6_dw -> conv3_6_dw (in-place)
I0523 21:53:40.195608 11654 net.cpp:122] Setting up relu3_6_dw
I0523 21:53:40.195616 11654 net.cpp:129] Top shape: 64 256 14 12 (2752512)
I0523 21:53:40.195619 11654 net.cpp:137] Memory required for data: 2744255232
I0523 21:53:40.195626 11654 layer_factory.hpp:77] Creating layer conv3_6_em
I0523 21:53:40.195636 11654 net.cpp:84] Creating Layer conv3_6_em
I0523 21:53:40.195641 11654 net.cpp:406] conv3_6_em <- conv3_6_dw
I0523 21:53:40.195647 11654 net.cpp:380] conv3_6_em -> conv3_6_em
I0523 21:53:40.196995 11654 net.cpp:122] Setting up conv3_6_em
I0523 21:53:40.197029 11654 net.cpp:129] Top shape: 64 128 14 12 (1376256)
I0523 21:53:40.197033 11654 net.cpp:137] Memory required for data: 2749760256
I0523 21:53:40.197054 11654 layer_factory.hpp:77] Creating layer conv3_6_em/bn
I0523 21:53:40.197074 11654 net.cpp:84] Creating Layer conv3_6_em/bn
I0523 21:53:40.197080 11654 net.cpp:406] conv3_6_em/bn <- conv3_6_em
I0523 21:53:40.197089 11654 net.cpp:367] conv3_6_em/bn -> conv3_6_em (in-place)
I0523 21:53:40.197309 11654 net.cpp:122] Setting up conv3_6_em/bn
I0523 21:53:40.197317 11654 net.cpp:129] Top shape: 64 128 14 12 (1376256)
I0523 21:53:40.197321 11654 net.cpp:137] Memory required for data: 2755265280
I0523 21:53:40.197329 11654 layer_factory.hpp:77] Creating layer conv3_6_em/scale
I0523 21:53:40.197335 11654 net.cpp:84] Creating Layer conv3_6_em/scale
I0523 21:53:40.197340 11654 net.cpp:406] conv3_6_em/scale <- conv3_6_em
I0523 21:53:40.197345 11654 net.cpp:367] conv3_6_em/scale -> conv3_6_em (in-place)
I0523 21:53:40.197387 11654 layer_factory.hpp:77] Creating layer conv3_6_em/scale
I0523 21:53:40.197510 11654 net.cpp:122] Setting up conv3_6_em/scale
I0523 21:53:40.197520 11654 net.cpp:129] Top shape: 64 128 14 12 (1376256)
I0523 21:53:40.197525 11654 net.cpp:137] Memory required for data: 2760770304
I0523 21:53:40.197531 11654 layer_factory.hpp:77] Creating layer res3_6
I0523 21:53:40.197538 11654 net.cpp:84] Creating Layer res3_6
I0523 21:53:40.197544 11654 net.cpp:406] res3_6 <- res3_5_res3_5_0_split_1
I0523 21:53:40.197548 11654 net.cpp:406] res3_6 <- conv3_6_em
I0523 21:53:40.197553 11654 net.cpp:380] res3_6 -> res3_6
I0523 21:53:40.197607 11654 net.cpp:122] Setting up res3_6
I0523 21:53:40.197614 11654 net.cpp:129] Top shape: 64 128 14 12 (1376256)
I0523 21:53:40.197618 11654 net.cpp:137] Memory required for data: 2766275328
I0523 21:53:40.197621 11654 layer_factory.hpp:77] Creating layer conv4_ex
I0523 21:53:40.197631 11654 net.cpp:84] Creating Layer conv4_ex
I0523 21:53:40.197635 11654 net.cpp:406] conv4_ex <- res3_6
I0523 21:53:40.197643 11654 net.cpp:380] conv4_ex -> conv4_ex
I0523 21:53:40.200716 11654 net.cpp:122] Setting up conv4_ex
I0523 21:53:40.200752 11654 net.cpp:129] Top shape: 64 512 14 12 (5505024)
I0523 21:53:40.200755 11654 net.cpp:137] Memory required for data: 2788295424
I0523 21:53:40.200762 11654 layer_factory.hpp:77] Creating layer conv4_ex/bn
I0523 21:53:40.200770 11654 net.cpp:84] Creating Layer conv4_ex/bn
I0523 21:53:40.200774 11654 net.cpp:406] conv4_ex/bn <- conv4_ex
I0523 21:53:40.200783 11654 net.cpp:367] conv4_ex/bn -> conv4_ex (in-place)
I0523 21:53:40.201027 11654 net.cpp:122] Setting up conv4_ex/bn
I0523 21:53:40.201036 11654 net.cpp:129] Top shape: 64 512 14 12 (5505024)
I0523 21:53:40.201040 11654 net.cpp:137] Memory required for data: 2810315520
I0523 21:53:40.201081 11654 layer_factory.hpp:77] Creating layer conv4_ex/scale
I0523 21:53:40.201090 11654 net.cpp:84] Creating Layer conv4_ex/scale
I0523 21:53:40.201094 11654 net.cpp:406] conv4_ex/scale <- conv4_ex
I0523 21:53:40.201099 11654 net.cpp:367] conv4_ex/scale -> conv4_ex (in-place)
I0523 21:53:40.201143 11654 layer_factory.hpp:77] Creating layer conv4_ex/scale
I0523 21:53:40.201268 11654 net.cpp:122] Setting up conv4_ex/scale
I0523 21:53:40.201277 11654 net.cpp:129] Top shape: 64 512 14 12 (5505024)
I0523 21:53:40.201279 11654 net.cpp:137] Memory required for data: 2832335616
I0523 21:53:40.201287 11654 layer_factory.hpp:77] Creating layer relu4_ex
I0523 21:53:40.201292 11654 net.cpp:84] Creating Layer relu4_ex
I0523 21:53:40.201297 11654 net.cpp:406] relu4_ex <- conv4_ex
I0523 21:53:40.201303 11654 net.cpp:367] relu4_ex -> conv4_ex (in-place)
I0523 21:53:40.201467 11654 net.cpp:122] Setting up relu4_ex
I0523 21:53:40.201475 11654 net.cpp:129] Top shape: 64 512 14 12 (5505024)
I0523 21:53:40.201478 11654 net.cpp:137] Memory required for data: 2854355712
I0523 21:53:40.201483 11654 layer_factory.hpp:77] Creating layer conv4_dw
I0523 21:53:40.201493 11654 net.cpp:84] Creating Layer conv4_dw
I0523 21:53:40.201496 11654 net.cpp:406] conv4_dw <- conv4_ex
I0523 21:53:40.201501 11654 net.cpp:380] conv4_dw -> conv4_dw
I0523 21:53:40.201756 11654 net.cpp:122] Setting up conv4_dw
I0523 21:53:40.201763 11654 net.cpp:129] Top shape: 64 512 7 6 (1376256)
I0523 21:53:40.201767 11654 net.cpp:137] Memory required for data: 2859860736
I0523 21:53:40.201786 11654 layer_factory.hpp:77] Creating layer conv4_dw/bn
I0523 21:53:40.201792 11654 net.cpp:84] Creating Layer conv4_dw/bn
I0523 21:53:40.201797 11654 net.cpp:406] conv4_dw/bn <- conv4_dw
I0523 21:53:40.201803 11654 net.cpp:367] conv4_dw/bn -> conv4_dw (in-place)
I0523 21:53:40.202044 11654 net.cpp:122] Setting up conv4_dw/bn
I0523 21:53:40.202051 11654 net.cpp:129] Top shape: 64 512 7 6 (1376256)
I0523 21:53:40.202055 11654 net.cpp:137] Memory required for data: 2865365760
I0523 21:53:40.202061 11654 layer_factory.hpp:77] Creating layer conv4_dw/scale
I0523 21:53:40.202069 11654 net.cpp:84] Creating Layer conv4_dw/scale
I0523 21:53:40.202072 11654 net.cpp:406] conv4_dw/scale <- conv4_dw
I0523 21:53:40.202076 11654 net.cpp:367] conv4_dw/scale -> conv4_dw (in-place)
I0523 21:53:40.202116 11654 layer_factory.hpp:77] Creating layer conv4_dw/scale
I0523 21:53:40.202258 11654 net.cpp:122] Setting up conv4_dw/scale
I0523 21:53:40.202270 11654 net.cpp:129] Top shape: 64 512 7 6 (1376256)
I0523 21:53:40.202272 11654 net.cpp:137] Memory required for data: 2870870784
I0523 21:53:40.202280 11654 layer_factory.hpp:77] Creating layer relu4_dw
I0523 21:53:40.202284 11654 net.cpp:84] Creating Layer relu4_dw
I0523 21:53:40.202288 11654 net.cpp:406] relu4_dw <- conv4_dw
I0523 21:53:40.202292 11654 net.cpp:367] relu4_dw -> conv4_dw (in-place)
I0523 21:53:40.202400 11654 net.cpp:122] Setting up relu4_dw
I0523 21:53:40.202409 11654 net.cpp:129] Top shape: 64 512 7 6 (1376256)
I0523 21:53:40.202412 11654 net.cpp:137] Memory required for data: 2876375808
I0523 21:53:40.202416 11654 layer_factory.hpp:77] Creating layer conv4_em
I0523 21:53:40.202425 11654 net.cpp:84] Creating Layer conv4_em
I0523 21:53:40.202427 11654 net.cpp:406] conv4_em <- conv4_dw
I0523 21:53:40.202432 11654 net.cpp:380] conv4_em -> conv4_em
I0523 21:53:40.204352 11654 net.cpp:122] Setting up conv4_em
I0523 21:53:40.204366 11654 net.cpp:129] Top shape: 64 128 7 6 (344064)
I0523 21:53:40.204386 11654 net.cpp:137] Memory required for data: 2877752064
I0523 21:53:40.204391 11654 layer_factory.hpp:77] Creating layer conv4_em/bn
I0523 21:53:40.204402 11654 net.cpp:84] Creating Layer conv4_em/bn
I0523 21:53:40.204424 11654 net.cpp:406] conv4_em/bn <- conv4_em
I0523 21:53:40.204430 11654 net.cpp:367] conv4_em/bn -> conv4_em (in-place)
I0523 21:53:40.204646 11654 net.cpp:122] Setting up conv4_em/bn
I0523 21:53:40.204655 11654 net.cpp:129] Top shape: 64 128 7 6 (344064)
I0523 21:53:40.204658 11654 net.cpp:137] Memory required for data: 2879128320
I0523 21:53:40.204665 11654 layer_factory.hpp:77] Creating layer conv4_em/scale
I0523 21:53:40.204672 11654 net.cpp:84] Creating Layer conv4_em/scale
I0523 21:53:40.204677 11654 net.cpp:406] conv4_em/scale <- conv4_em
I0523 21:53:40.204682 11654 net.cpp:367] conv4_em/scale -> conv4_em (in-place)
I0523 21:53:40.204726 11654 layer_factory.hpp:77] Creating layer conv4_em/scale
I0523 21:53:40.204849 11654 net.cpp:122] Setting up conv4_em/scale
I0523 21:53:40.204856 11654 net.cpp:129] Top shape: 64 128 7 6 (344064)
I0523 21:53:40.204859 11654 net.cpp:137] Memory required for data: 2880504576
I0523 21:53:40.204864 11654 layer_factory.hpp:77] Creating layer conv4_em_conv4_em/scale_0_split
I0523 21:53:40.204871 11654 net.cpp:84] Creating Layer conv4_em_conv4_em/scale_0_split
I0523 21:53:40.204895 11654 net.cpp:406] conv4_em_conv4_em/scale_0_split <- conv4_em
I0523 21:53:40.204900 11654 net.cpp:380] conv4_em_conv4_em/scale_0_split -> conv4_em_conv4_em/scale_0_split_0
I0523 21:53:40.204907 11654 net.cpp:380] conv4_em_conv4_em/scale_0_split -> conv4_em_conv4_em/scale_0_split_1
I0523 21:53:40.204949 11654 net.cpp:122] Setting up conv4_em_conv4_em/scale_0_split
I0523 21:53:40.204957 11654 net.cpp:129] Top shape: 64 128 7 6 (344064)
I0523 21:53:40.204962 11654 net.cpp:129] Top shape: 64 128 7 6 (344064)
I0523 21:53:40.204963 11654 net.cpp:137] Memory required for data: 2883257088
I0523 21:53:40.204967 11654 layer_factory.hpp:77] Creating layer conv4_1_ex
I0523 21:53:40.204977 11654 net.cpp:84] Creating Layer conv4_1_ex
I0523 21:53:40.204994 11654 net.cpp:406] conv4_1_ex <- conv4_em_conv4_em/scale_0_split_0
I0523 21:53:40.205001 11654 net.cpp:380] conv4_1_ex -> conv4_1_ex
I0523 21:53:40.206414 11654 net.cpp:122] Setting up conv4_1_ex
I0523 21:53:40.206455 11654 net.cpp:129] Top shape: 64 256 7 6 (688128)
I0523 21:53:40.206459 11654 net.cpp:137] Memory required for data: 2886009600
I0523 21:53:40.206480 11654 layer_factory.hpp:77] Creating layer conv4_1_ex/bn
I0523 21:53:40.206504 11654 net.cpp:84] Creating Layer conv4_1_ex/bn
I0523 21:53:40.206511 11654 net.cpp:406] conv4_1_ex/bn <- conv4_1_ex
I0523 21:53:40.206531 11654 net.cpp:367] conv4_1_ex/bn -> conv4_1_ex (in-place)
I0523 21:53:40.206796 11654 net.cpp:122] Setting up conv4_1_ex/bn
I0523 21:53:40.206805 11654 net.cpp:129] Top shape: 64 256 7 6 (688128)
I0523 21:53:40.206809 11654 net.cpp:137] Memory required for data: 2888762112
I0523 21:53:40.206816 11654 layer_factory.hpp:77] Creating layer conv4_1_ex/scale
I0523 21:53:40.206827 11654 net.cpp:84] Creating Layer conv4_1_ex/scale
I0523 21:53:40.206832 11654 net.cpp:406] conv4_1_ex/scale <- conv4_1_ex
I0523 21:53:40.206837 11654 net.cpp:367] conv4_1_ex/scale -> conv4_1_ex (in-place)
I0523 21:53:40.206881 11654 layer_factory.hpp:77] Creating layer conv4_1_ex/scale
I0523 21:53:40.207018 11654 net.cpp:122] Setting up conv4_1_ex/scale
I0523 21:53:40.207026 11654 net.cpp:129] Top shape: 64 256 7 6 (688128)
I0523 21:53:40.207029 11654 net.cpp:137] Memory required for data: 2891514624
I0523 21:53:40.207036 11654 layer_factory.hpp:77] Creating layer relu4_1_ex
I0523 21:53:40.207042 11654 net.cpp:84] Creating Layer relu4_1_ex
I0523 21:53:40.207049 11654 net.cpp:406] relu4_1_ex <- conv4_1_ex
I0523 21:53:40.207053 11654 net.cpp:367] relu4_1_ex -> conv4_1_ex (in-place)
I0523 21:53:40.207156 11654 net.cpp:122] Setting up relu4_1_ex
I0523 21:53:40.207165 11654 net.cpp:129] Top shape: 64 256 7 6 (688128)
I0523 21:53:40.207167 11654 net.cpp:137] Memory required for data: 2894267136
I0523 21:53:40.207171 11654 layer_factory.hpp:77] Creating layer conv4_1_dw
I0523 21:53:40.207182 11654 net.cpp:84] Creating Layer conv4_1_dw
I0523 21:53:40.207187 11654 net.cpp:406] conv4_1_dw <- conv4_1_ex
I0523 21:53:40.207192 11654 net.cpp:380] conv4_1_dw -> conv4_1_dw
I0523 21:53:40.207418 11654 net.cpp:122] Setting up conv4_1_dw
I0523 21:53:40.207427 11654 net.cpp:129] Top shape: 64 256 7 6 (688128)
I0523 21:53:40.207429 11654 net.cpp:137] Memory required for data: 2897019648
I0523 21:53:40.207434 11654 layer_factory.hpp:77] Creating layer conv4_1_dw/bn
I0523 21:53:40.207440 11654 net.cpp:84] Creating Layer conv4_1_dw/bn
I0523 21:53:40.207443 11654 net.cpp:406] conv4_1_dw/bn <- conv4_1_dw
I0523 21:53:40.207448 11654 net.cpp:367] conv4_1_dw/bn -> conv4_1_dw (in-place)
I0523 21:53:40.207684 11654 net.cpp:122] Setting up conv4_1_dw/bn
I0523 21:53:40.207691 11654 net.cpp:129] Top shape: 64 256 7 6 (688128)
I0523 21:53:40.207695 11654 net.cpp:137] Memory required for data: 2899772160
I0523 21:53:40.207702 11654 layer_factory.hpp:77] Creating layer conv4_1_dw/scale
I0523 21:53:40.207710 11654 net.cpp:84] Creating Layer conv4_1_dw/scale
I0523 21:53:40.207712 11654 net.cpp:406] conv4_1_dw/scale <- conv4_1_dw
I0523 21:53:40.207717 11654 net.cpp:367] conv4_1_dw/scale -> conv4_1_dw (in-place)
I0523 21:53:40.207762 11654 layer_factory.hpp:77] Creating layer conv4_1_dw/scale
I0523 21:53:40.207901 11654 net.cpp:122] Setting up conv4_1_dw/scale
I0523 21:53:40.207908 11654 net.cpp:129] Top shape: 64 256 7 6 (688128)
I0523 21:53:40.207911 11654 net.cpp:137] Memory required for data: 2902524672
I0523 21:53:40.207916 11654 layer_factory.hpp:77] Creating layer relu4_1_dw
I0523 21:53:40.207924 11654 net.cpp:84] Creating Layer relu4_1_dw
I0523 21:53:40.207927 11654 net.cpp:406] relu4_1_dw <- conv4_1_dw
I0523 21:53:40.207931 11654 net.cpp:367] relu4_1_dw -> conv4_1_dw (in-place)
I0523 21:53:40.208032 11654 net.cpp:122] Setting up relu4_1_dw
I0523 21:53:40.208040 11654 net.cpp:129] Top shape: 64 256 7 6 (688128)
I0523 21:53:40.208043 11654 net.cpp:137] Memory required for data: 2905277184
I0523 21:53:40.208061 11654 layer_factory.hpp:77] Creating layer conv4_1_em
I0523 21:53:40.208072 11654 net.cpp:84] Creating Layer conv4_1_em
I0523 21:53:40.208077 11654 net.cpp:406] conv4_1_em <- conv4_1_dw
I0523 21:53:40.208082 11654 net.cpp:380] conv4_1_em -> conv4_1_em
I0523 21:53:40.209455 11654 net.cpp:122] Setting up conv4_1_em
I0523 21:53:40.209470 11654 net.cpp:129] Top shape: 64 128 7 6 (344064)
I0523 21:53:40.209488 11654 net.cpp:137] Memory required for data: 2906653440
I0523 21:53:40.209493 11654 layer_factory.hpp:77] Creating layer conv4_1_em/bn
I0523 21:53:40.209502 11654 net.cpp:84] Creating Layer conv4_1_em/bn
I0523 21:53:40.209524 11654 net.cpp:406] conv4_1_em/bn <- conv4_1_em
I0523 21:53:40.209532 11654 net.cpp:367] conv4_1_em/bn -> conv4_1_em (in-place)
I0523 21:53:40.209746 11654 net.cpp:122] Setting up conv4_1_em/bn
I0523 21:53:40.209754 11654 net.cpp:129] Top shape: 64 128 7 6 (344064)
I0523 21:53:40.209758 11654 net.cpp:137] Memory required for data: 2908029696
I0523 21:53:40.209764 11654 layer_factory.hpp:77] Creating layer conv4_1_em/scale
I0523 21:53:40.209771 11654 net.cpp:84] Creating Layer conv4_1_em/scale
I0523 21:53:40.209775 11654 net.cpp:406] conv4_1_em/scale <- conv4_1_em
I0523 21:53:40.209782 11654 net.cpp:367] conv4_1_em/scale -> conv4_1_em (in-place)
I0523 21:53:40.209823 11654 layer_factory.hpp:77] Creating layer conv4_1_em/scale
I0523 21:53:40.209946 11654 net.cpp:122] Setting up conv4_1_em/scale
I0523 21:53:40.209954 11654 net.cpp:129] Top shape: 64 128 7 6 (344064)
I0523 21:53:40.209957 11654 net.cpp:137] Memory required for data: 2909405952
I0523 21:53:40.209964 11654 layer_factory.hpp:77] Creating layer res4_1
I0523 21:53:40.209969 11654 net.cpp:84] Creating Layer res4_1
I0523 21:53:40.209972 11654 net.cpp:406] res4_1 <- conv4_em_conv4_em/scale_0_split_1
I0523 21:53:40.209976 11654 net.cpp:406] res4_1 <- conv4_1_em
I0523 21:53:40.209981 11654 net.cpp:380] res4_1 -> res4_1
I0523 21:53:40.210006 11654 net.cpp:122] Setting up res4_1
I0523 21:53:40.210013 11654 net.cpp:129] Top shape: 64 128 7 6 (344064)
I0523 21:53:40.210016 11654 net.cpp:137] Memory required for data: 2910782208
I0523 21:53:40.210019 11654 layer_factory.hpp:77] Creating layer res4_1_res4_1_0_split
I0523 21:53:40.210027 11654 net.cpp:84] Creating Layer res4_1_res4_1_0_split
I0523 21:53:40.210031 11654 net.cpp:406] res4_1_res4_1_0_split <- res4_1
I0523 21:53:40.210036 11654 net.cpp:380] res4_1_res4_1_0_split -> res4_1_res4_1_0_split_0
I0523 21:53:40.210041 11654 net.cpp:380] res4_1_res4_1_0_split -> res4_1_res4_1_0_split_1
I0523 21:53:40.210078 11654 net.cpp:122] Setting up res4_1_res4_1_0_split
I0523 21:53:40.210084 11654 net.cpp:129] Top shape: 64 128 7 6 (344064)
I0523 21:53:40.210088 11654 net.cpp:129] Top shape: 64 128 7 6 (344064)
I0523 21:53:40.210091 11654 net.cpp:137] Memory required for data: 2913534720
I0523 21:53:40.210095 11654 layer_factory.hpp:77] Creating layer conv4_2_ex
I0523 21:53:40.210105 11654 net.cpp:84] Creating Layer conv4_2_ex
I0523 21:53:40.210110 11654 net.cpp:406] conv4_2_ex <- res4_1_res4_1_0_split_0
I0523 21:53:40.210116 11654 net.cpp:380] conv4_2_ex -> conv4_2_ex
I0523 21:53:40.211477 11654 net.cpp:122] Setting up conv4_2_ex
I0523 21:53:40.211493 11654 net.cpp:129] Top shape: 64 256 7 6 (688128)
I0523 21:53:40.211498 11654 net.cpp:137] Memory required for data: 2916287232
I0523 21:53:40.211503 11654 layer_factory.hpp:77] Creating layer conv4_2_ex/bn
I0523 21:53:40.211516 11654 net.cpp:84] Creating Layer conv4_2_ex/bn
I0523 21:53:40.211524 11654 net.cpp:406] conv4_2_ex/bn <- conv4_2_ex
I0523 21:53:40.211529 11654 net.cpp:367] conv4_2_ex/bn -> conv4_2_ex (in-place)
I0523 21:53:40.211767 11654 net.cpp:122] Setting up conv4_2_ex/bn
I0523 21:53:40.211776 11654 net.cpp:129] Top shape: 64 256 7 6 (688128)
I0523 21:53:40.211778 11654 net.cpp:137] Memory required for data: 2919039744
I0523 21:53:40.211786 11654 layer_factory.hpp:77] Creating layer conv4_2_ex/scale
I0523 21:53:40.211793 11654 net.cpp:84] Creating Layer conv4_2_ex/scale
I0523 21:53:40.211812 11654 net.cpp:406] conv4_2_ex/scale <- conv4_2_ex
I0523 21:53:40.211817 11654 net.cpp:367] conv4_2_ex/scale -> conv4_2_ex (in-place)
I0523 21:53:40.211863 11654 layer_factory.hpp:77] Creating layer conv4_2_ex/scale
I0523 21:53:40.211989 11654 net.cpp:122] Setting up conv4_2_ex/scale
I0523 21:53:40.211998 11654 net.cpp:129] Top shape: 64 256 7 6 (688128)
I0523 21:53:40.212002 11654 net.cpp:137] Memory required for data: 2921792256
I0523 21:53:40.212007 11654 layer_factory.hpp:77] Creating layer relu4_2_ex
I0523 21:53:40.212015 11654 net.cpp:84] Creating Layer relu4_2_ex
I0523 21:53:40.212020 11654 net.cpp:406] relu4_2_ex <- conv4_2_ex
I0523 21:53:40.212026 11654 net.cpp:367] relu4_2_ex -> conv4_2_ex (in-place)
I0523 21:53:40.212142 11654 net.cpp:122] Setting up relu4_2_ex
I0523 21:53:40.212150 11654 net.cpp:129] Top shape: 64 256 7 6 (688128)
I0523 21:53:40.212153 11654 net.cpp:137] Memory required for data: 2924544768
I0523 21:53:40.212159 11654 layer_factory.hpp:77] Creating layer conv4_2_dw
I0523 21:53:40.212169 11654 net.cpp:84] Creating Layer conv4_2_dw
I0523 21:53:40.212175 11654 net.cpp:406] conv4_2_dw <- conv4_2_ex
I0523 21:53:40.212182 11654 net.cpp:380] conv4_2_dw -> conv4_2_dw
I0523 21:53:40.212425 11654 net.cpp:122] Setting up conv4_2_dw
I0523 21:53:40.212433 11654 net.cpp:129] Top shape: 64 256 7 6 (688128)
I0523 21:53:40.212436 11654 net.cpp:137] Memory required for data: 2927297280
I0523 21:53:40.212440 11654 layer_factory.hpp:77] Creating layer conv4_2_dw/bn
I0523 21:53:40.212446 11654 net.cpp:84] Creating Layer conv4_2_dw/bn
I0523 21:53:40.212450 11654 net.cpp:406] conv4_2_dw/bn <- conv4_2_dw
I0523 21:53:40.212456 11654 net.cpp:367] conv4_2_dw/bn -> conv4_2_dw (in-place)
I0523 21:53:40.212685 11654 net.cpp:122] Setting up conv4_2_dw/bn
I0523 21:53:40.212693 11654 net.cpp:129] Top shape: 64 256 7 6 (688128)
I0523 21:53:40.212697 11654 net.cpp:137] Memory required for data: 2930049792
I0523 21:53:40.212703 11654 layer_factory.hpp:77] Creating layer conv4_2_dw/scale
I0523 21:53:40.212709 11654 net.cpp:84] Creating Layer conv4_2_dw/scale
I0523 21:53:40.212713 11654 net.cpp:406] conv4_2_dw/scale <- conv4_2_dw
I0523 21:53:40.212718 11654 net.cpp:367] conv4_2_dw/scale -> conv4_2_dw (in-place)
I0523 21:53:40.212759 11654 layer_factory.hpp:77] Creating layer conv4_2_dw/scale
I0523 21:53:40.212906 11654 net.cpp:122] Setting up conv4_2_dw/scale
I0523 21:53:40.212914 11654 net.cpp:129] Top shape: 64 256 7 6 (688128)
I0523 21:53:40.212918 11654 net.cpp:137] Memory required for data: 2932802304
I0523 21:53:40.212923 11654 layer_factory.hpp:77] Creating layer relu4_2_dw
I0523 21:53:40.212930 11654 net.cpp:84] Creating Layer relu4_2_dw
I0523 21:53:40.212934 11654 net.cpp:406] relu4_2_dw <- conv4_2_dw
I0523 21:53:40.212939 11654 net.cpp:367] relu4_2_dw -> conv4_2_dw (in-place)
I0523 21:53:40.213037 11654 net.cpp:122] Setting up relu4_2_dw
I0523 21:53:40.213044 11654 net.cpp:129] Top shape: 64 256 7 6 (688128)
I0523 21:53:40.213047 11654 net.cpp:137] Memory required for data: 2935554816
I0523 21:53:40.213052 11654 layer_factory.hpp:77] Creating layer conv4_2_em
I0523 21:53:40.213063 11654 net.cpp:84] Creating Layer conv4_2_em
I0523 21:53:40.213068 11654 net.cpp:406] conv4_2_em <- conv4_2_dw
I0523 21:53:40.213073 11654 net.cpp:380] conv4_2_em -> conv4_2_em
I0523 21:53:40.214445 11654 net.cpp:122] Setting up conv4_2_em
I0523 21:53:40.214460 11654 net.cpp:129] Top shape: 64 128 7 6 (344064)
I0523 21:53:40.214479 11654 net.cpp:137] Memory required for data: 2936931072
I0523 21:53:40.214486 11654 layer_factory.hpp:77] Creating layer conv4_2_em/bn
I0523 21:53:40.214511 11654 net.cpp:84] Creating Layer conv4_2_em/bn
I0523 21:53:40.214517 11654 net.cpp:406] conv4_2_em/bn <- conv4_2_em
I0523 21:53:40.214524 11654 net.cpp:367] conv4_2_em/bn -> conv4_2_em (in-place)
I0523 21:53:40.214769 11654 net.cpp:122] Setting up conv4_2_em/bn
I0523 21:53:40.214778 11654 net.cpp:129] Top shape: 64 128 7 6 (344064)
I0523 21:53:40.214782 11654 net.cpp:137] Memory required for data: 2938307328
I0523 21:53:40.214789 11654 layer_factory.hpp:77] Creating layer conv4_2_em/scale
I0523 21:53:40.214818 11654 net.cpp:84] Creating Layer conv4_2_em/scale
I0523 21:53:40.214823 11654 net.cpp:406] conv4_2_em/scale <- conv4_2_em
I0523 21:53:40.214829 11654 net.cpp:367] conv4_2_em/scale -> conv4_2_em (in-place)
I0523 21:53:40.214877 11654 layer_factory.hpp:77] Creating layer conv4_2_em/scale
I0523 21:53:40.215006 11654 net.cpp:122] Setting up conv4_2_em/scale
I0523 21:53:40.215015 11654 net.cpp:129] Top shape: 64 128 7 6 (344064)
I0523 21:53:40.215018 11654 net.cpp:137] Memory required for data: 2939683584
I0523 21:53:40.215024 11654 layer_factory.hpp:77] Creating layer res4_2
I0523 21:53:40.215032 11654 net.cpp:84] Creating Layer res4_2
I0523 21:53:40.215036 11654 net.cpp:406] res4_2 <- res4_1_res4_1_0_split_1
I0523 21:53:40.215041 11654 net.cpp:406] res4_2 <- conv4_2_em
I0523 21:53:40.215049 11654 net.cpp:380] res4_2 -> res4_2
I0523 21:53:40.215073 11654 net.cpp:122] Setting up res4_2
I0523 21:53:40.215083 11654 net.cpp:129] Top shape: 64 128 7 6 (344064)
I0523 21:53:40.215087 11654 net.cpp:137] Memory required for data: 2941059840
I0523 21:53:40.215090 11654 layer_factory.hpp:77] Creating layer conv5_ex
I0523 21:53:40.215098 11654 net.cpp:84] Creating Layer conv5_ex
I0523 21:53:40.215102 11654 net.cpp:406] conv5_ex <- res4_2
I0523 21:53:40.215111 11654 net.cpp:380] conv5_ex -> conv5_ex
I0523 21:53:40.216667 11654 net.cpp:122] Setting up conv5_ex
I0523 21:53:40.216681 11654 net.cpp:129] Top shape: 64 512 7 6 (1376256)
I0523 21:53:40.216684 11654 net.cpp:137] Memory required for data: 2946564864
I0523 21:53:40.216691 11654 layer_factory.hpp:77] Creating layer conv5_ex/bn
I0523 21:53:40.216701 11654 net.cpp:84] Creating Layer conv5_ex/bn
I0523 21:53:40.216706 11654 net.cpp:406] conv5_ex/bn <- conv5_ex
I0523 21:53:40.216722 11654 net.cpp:367] conv5_ex/bn -> conv5_ex (in-place)
I0523 21:53:40.216961 11654 net.cpp:122] Setting up conv5_ex/bn
I0523 21:53:40.216969 11654 net.cpp:129] Top shape: 64 512 7 6 (1376256)
I0523 21:53:40.216974 11654 net.cpp:137] Memory required for data: 2952069888
I0523 21:53:40.216979 11654 layer_factory.hpp:77] Creating layer conv5_ex/scale
I0523 21:53:40.216989 11654 net.cpp:84] Creating Layer conv5_ex/scale
I0523 21:53:40.216995 11654 net.cpp:406] conv5_ex/scale <- conv5_ex
I0523 21:53:40.217000 11654 net.cpp:367] conv5_ex/scale -> conv5_ex (in-place)
I0523 21:53:40.217041 11654 layer_factory.hpp:77] Creating layer conv5_ex/scale
I0523 21:53:40.217171 11654 net.cpp:122] Setting up conv5_ex/scale
I0523 21:53:40.217180 11654 net.cpp:129] Top shape: 64 512 7 6 (1376256)
I0523 21:53:40.217182 11654 net.cpp:137] Memory required for data: 2957574912
I0523 21:53:40.217187 11654 layer_factory.hpp:77] Creating layer relu5_ex
I0523 21:53:40.217195 11654 net.cpp:84] Creating Layer relu5_ex
I0523 21:53:40.217198 11654 net.cpp:406] relu5_ex <- conv5_ex
I0523 21:53:40.217206 11654 net.cpp:367] relu5_ex -> conv5_ex (in-place)
I0523 21:53:40.217305 11654 net.cpp:122] Setting up relu5_ex
I0523 21:53:40.217312 11654 net.cpp:129] Top shape: 64 512 7 6 (1376256)
I0523 21:53:40.217315 11654 net.cpp:137] Memory required for data: 2963079936
I0523 21:53:40.217320 11654 layer_factory.hpp:77] Creating layer conv5_dw
I0523 21:53:40.217330 11654 net.cpp:84] Creating Layer conv5_dw
I0523 21:53:40.217335 11654 net.cpp:406] conv5_dw <- conv5_ex
I0523 21:53:40.217340 11654 net.cpp:380] conv5_dw -> conv5_dw
I0523 21:53:40.217701 11654 net.cpp:122] Setting up conv5_dw
I0523 21:53:40.217708 11654 net.cpp:129] Top shape: 64 512 1 1 (32768)
I0523 21:53:40.217711 11654 net.cpp:137] Memory required for data: 2963211008
I0523 21:53:40.217727 11654 layer_factory.hpp:77] Creating layer conv5_dw/bn
I0523 21:53:40.217734 11654 net.cpp:84] Creating Layer conv5_dw/bn
I0523 21:53:40.217737 11654 net.cpp:406] conv5_dw/bn <- conv5_dw
I0523 21:53:40.217744 11654 net.cpp:367] conv5_dw/bn -> conv5_dw (in-place)
I0523 21:53:40.217958 11654 net.cpp:122] Setting up conv5_dw/bn
I0523 21:53:40.217965 11654 net.cpp:129] Top shape: 64 512 1 1 (32768)
I0523 21:53:40.217968 11654 net.cpp:137] Memory required for data: 2963342080
I0523 21:53:40.217988 11654 layer_factory.hpp:77] Creating layer conv5_dw/scale
I0523 21:53:40.217995 11654 net.cpp:84] Creating Layer conv5_dw/scale
I0523 21:53:40.217998 11654 net.cpp:406] conv5_dw/scale <- conv5_dw
I0523 21:53:40.218003 11654 net.cpp:367] conv5_dw/scale -> conv5_dw (in-place)
I0523 21:53:40.218046 11654 layer_factory.hpp:77] Creating layer conv5_dw/scale
I0523 21:53:40.218196 11654 net.cpp:122] Setting up conv5_dw/scale
I0523 21:53:40.218204 11654 net.cpp:129] Top shape: 64 512 1 1 (32768)
I0523 21:53:40.218207 11654 net.cpp:137] Memory required for data: 2963473152
I0523 21:53:40.218214 11654 layer_factory.hpp:77] Creating layer fc5
I0523 21:53:40.218225 11654 net.cpp:84] Creating Layer fc5
I0523 21:53:40.218230 11654 net.cpp:406] fc5 <- conv5_dw
I0523 21:53:40.218235 11654 net.cpp:380] fc5 -> fc5
I0523 21:53:40.218690 11654 net.cpp:122] Setting up fc5
I0523 21:53:40.218704 11654 net.cpp:129] Top shape: 64 128 (8192)
I0523 21:53:40.218722 11654 net.cpp:137] Memory required for data: 2963505920
I0523 21:53:40.218726 11654 layer_factory.hpp:77] Creating layer fc5_bn
I0523 21:53:40.218750 11654 net.cpp:84] Creating Layer fc5_bn
I0523 21:53:40.218755 11654 net.cpp:406] fc5_bn <- fc5
I0523 21:53:40.218776 11654 net.cpp:367] fc5_bn -> fc5 (in-place)
I0523 21:53:40.218984 11654 net.cpp:122] Setting up fc5_bn
I0523 21:53:40.218991 11654 net.cpp:129] Top shape: 64 128 (8192)
I0523 21:53:40.218994 11654 net.cpp:137] Memory required for data: 2963538688
I0523 21:53:40.219002 11654 layer_factory.hpp:77] Creating layer norm1
I0523 21:53:40.219017 11654 net.cpp:84] Creating Layer norm1
I0523 21:53:40.219022 11654 net.cpp:406] norm1 <- fc5
I0523 21:53:40.219027 11654 net.cpp:380] norm1 -> norm1
I0523 21:53:40.219084 11654 net.cpp:122] Setting up norm1
I0523 21:53:40.219090 11654 net.cpp:129] Top shape: 64 128 1 1 (8192)
I0523 21:53:40.219094 11654 net.cpp:137] Memory required for data: 2963571456
I0523 21:53:40.219096 11654 layer_factory.hpp:77] Creating layer fc-6_l2
I0523 21:53:40.219105 11654 net.cpp:84] Creating Layer fc-6_l2
I0523 21:53:40.219110 11654 net.cpp:406] fc-6_l2 <- norm1
I0523 21:53:40.219115 11654 net.cpp:380] fc-6_l2 -> fc-6_l2
I0523 21:53:40.276199 11654 net.cpp:122] Setting up fc-6_l2
I0523 21:53:40.276253 11654 net.cpp:129] Top shape: 64 54547 (3491008)
I0523 21:53:40.276258 11654 net.cpp:137] Memory required for data: 2977535488
I0523 21:53:40.276268 11654 layer_factory.hpp:77] Creating layer fc-6_margin
I0523 21:53:40.276283 11654 net.cpp:84] Creating Layer fc-6_margin
I0523 21:53:40.276305 11654 net.cpp:406] fc-6_margin <- fc-6_l2
I0523 21:53:40.276314 11654 net.cpp:406] fc-6_margin <- label_data_1_split_0
I0523 21:53:40.276322 11654 net.cpp:380] fc-6_margin -> fc-6_margin
I0523 21:53:40.276367 11654 net.cpp:122] Setting up fc-6_margin
I0523 21:53:40.276374 11654 net.cpp:129] Top shape: 64 54547 (3491008)
I0523 21:53:40.276377 11654 net.cpp:137] Memory required for data: 2991499520
I0523 21:53:40.276381 11654 layer_factory.hpp:77] Creating layer fc-6_margin_scale
I0523 21:53:40.276389 11654 net.cpp:84] Creating Layer fc-6_margin_scale
I0523 21:53:40.276394 11654 net.cpp:406] fc-6_margin_scale <- fc-6_margin
I0523 21:53:40.276402 11654 net.cpp:380] fc-6_margin_scale -> fc-6_margin_scale
I0523 21:53:40.278301 11654 net.cpp:122] Setting up fc-6_margin_scale
I0523 21:53:40.278314 11654 net.cpp:129] Top shape: 64 54547 (3491008)
I0523 21:53:40.278334 11654 net.cpp:137] Memory required for data: 3005463552
I0523 21:53:40.278340 11654 layer_factory.hpp:77] Creating layer softmax_loss
I0523 21:53:40.278348 11654 net.cpp:84] Creating Layer softmax_loss
I0523 21:53:40.278353 11654 net.cpp:406] softmax_loss <- fc-6_margin_scale
I0523 21:53:40.278357 11654 net.cpp:406] softmax_loss <- label_data_1_split_1
I0523 21:53:40.278380 11654 net.cpp:380] softmax_loss -> softmax_loss
…
