…
I0522 21:41:42.491711 26620 solver.cpp:102] Creating training net from net file: models/AdditMarginLmdbEncode/AdditMarginLmdbEncode-b0.35s30_fc_0.35_112x96_faceNet-20-light2s4-bn/train.prototxt
I0522 21:41:42.493268 26620 net.cpp:51] Initializing net from parameters: 
name: "2018-05-22_AdditMarginLmdbEncode-b0.35s30_fc_0.35_112x96_faceNet-20-light2s4-bn_zkx_train"
state {
  phase: TRAIN
  level: 0
  stage: ""
}
layer {
  name: "data"
  type: "Data"
  top: "data"
  top: "label"
  data_param {
    source: "/home/zkx/Data_sdb/TrainData/Data_sdc/Patches/lmdb/fc_0.35_112x96-base_cvdecode-shuffle_lmdb"
    batch_size: 64
    backend: LMDB
  }
}
layer {
  name: "conv1_1"
  type: "Convolution"
  bottom: "data"
  top: "conv1_1"
  param {
    lr_mult: 1
    decay_mult: 1
  }
  param {
    lr_mult: 2
    decay_mult: 0
  }
  convolution_param {
    num_output: 24
    pad: 1
    kernel_size: 3
    stride: 2
    weight_filler {
      type: "xavier"
    }
    bias_filler {
      type: "constant"
      value: 0
    }
  }
}
layer {
  name: "relu1_1"
  type: "PReLU"
  bottom: "conv1_1"
  top: "conv1_1"
  prelu_param {
    filler {
      type: "gaussian"
      std: 0.03
    }
  }
}
layer {
  name: "conv1_3"
  type: "Convolution"
  bottom: "conv1_1"
  top: "conv1_3"
  param {
    lr_mult: 1
    decay_mult: 1
  }
  param {
    lr_mult: 0
    decay_mult: 0
  }
  convolution_param {
    num_output: 24
    pad: 1
    kernel_size: 3
    stride: 1
    weight_filler {
      type: "gaussian"
      std: 0.01
    }
    bias_filler {
      type: "constant"
      value: 0
    }
  }
}
layer {
  name: "relu1_3"
  type: "PReLU"
  bottom: "conv1_3"
  top: "conv1_3"
  prelu_param {
    filler {
      type: "gaussian"
      std: 0.03
    }
  }
}
layer {
  name: "res1_3"
  type: "Eltwise"
  bottom: "conv1_1"
  bottom: "conv1_3"
  top: "res1_3"
  eltwise_param {
    operation: SUM
  }
}
layer {
  name: "res1_3_reduce"
  type: "Convolution"
  bottom: "res1_3"
  top: "res1_3_reduce"
  param {
    lr_mult: 1
    decay_mult: 1
  }
  param {
    lr_mult: 0
    decay_mult: 0
  }
  convolution_param {
    num_output: 48
    kernel_size: 1
    stride: 1
    weight_filler {
      type: "gaussian"
      std: 0.01
    }
    bias_filler {
      type: "constant"
      value: 0
    }
  }
}
layer {
  name: "pool1"
  type: "Pooling"
  bottom: "res1_3_reduce"
  top: "pool1"
  pooling_param {
    pool: MAX
    kernel_size: 2
    stride: 2
  }
}
layer {
  name: "conv2_1"
  type: "Convolution"
  bottom: "res1_3"
  top: "conv2_1"
  param {
    lr_mult: 1
    decay_mult: 1
  }
  param {
    lr_mult: 2
    decay_mult: 0
  }
  convolution_param {
    num_output: 48
    pad: 1
    kernel_size: 3
    stride: 2
    weight_filler {
      type: "xavier"
    }
    bias_filler {
      type: "constant"
      value: 0
    }
  }
}
layer {
  name: "relu2_1"
  type: "PReLU"
  bottom: "conv2_1"
  top: "conv2_1"
  prelu_param {
    filler {
      type: "gaussian"
      std: 0.03
    }
  }
}
layer {
  name: "res1_3_p"
  type: "Eltwise"
  bottom: "pool1"
  bottom: "conv2_1"
  top: "res1_3_p"
  eltwise_param {
    operation: SUM
  }
}
layer {
  name: "conv2_3"
  type: "Convolution"
  bottom: "res1_3_p"
  top: "conv2_3"
  param {
    lr_mult: 1
    decay_mult: 1
  }
  param {
    lr_mult: 0
    decay_mult: 0
  }
  convolution_param {
    num_output: 48
    pad: 1
    kernel_size: 3
    stride: 1
    weight_filler {
      type: "gaussian"
      std: 0.01
    }
    bias_filler {
      type: "constant"
      value: 0
    }
  }
}
layer {
  name: "relu2_3"
  type: "PReLU"
  bottom: "conv2_3"
  top: "conv2_3"
  prelu_param {
    filler {
      type: "gaussian"
      std: 0.03
    }
  }
}
layer {
  name: "res2_3"
  type: "Eltwise"
  bottom: "res1_3_p"
  bottom: "conv2_3"
  top: "res2_3"
  eltwise_param {
    operation: SUM
  }
}
layer {
  name: "conv2_5"
  type: "Convolution"
  bottom: "res2_3"
  top: "conv2_5"
  param {
    lr_mult: 1
    decay_mult: 1
  }
  param {
    lr_mult: 0
    decay_mult: 0
  }
  convolution_param {
    num_output: 48
    pad: 1
    kernel_size: 3
    stride: 1
    weight_filler {
      type: "gaussian"
      std: 0.01
    }
    bias_filler {
      type: "constant"
      value: 0
    }
  }
}
layer {
  name: "relu2_5"
  type: "PReLU"
  bottom: "conv2_5"
  top: "conv2_5"
  prelu_param {
    filler {
      type: "gaussian"
      std: 0.03
    }
  }
}
layer {
  name: "res2_5"
  type: "Eltwise"
  bottom: "res2_3"
  bottom: "conv2_5"
  top: "res2_5"
  eltwise_param {
    operation: SUM
  }
}
layer {
  name: "res2_5_reduce"
  type: "Convolution"
  bottom: "res2_5"
  top: "res2_5_reduce"
  param {
    lr_mult: 1
    decay_mult: 1
  }
  param {
    lr_mult: 0
    decay_mult: 0
  }
  convolution_param {
    num_output: 72
    kernel_size: 1
    stride: 1
    weight_filler {
      type: "gaussian"
      std: 0.01
    }
    bias_filler {
      type: "constant"
      value: 0
    }
  }
}
layer {
  name: "pool2"
  type: "Pooling"
  bottom: "res2_5_reduce"
  top: "pool2"
  pooling_param {
    pool: MAX
    kernel_size: 2
    stride: 2
  }
}
layer {
  name: "conv3_1"
  type: "Convolution"
  bottom: "res2_5"
  top: "conv3_1"
  param {
    lr_mult: 1
    decay_mult: 1
  }
  param {
    lr_mult: 2
    decay_mult: 0
  }
  convolution_param {
    num_output: 72
    pad: 1
    kernel_size: 3
    stride: 2
    weight_filler {
      type: "xavier"
    }
    bias_filler {
      type: "constant"
      value: 0
    }
  }
}
layer {
  name: "relu3_1"
  type: "PReLU"
  bottom: "conv3_1"
  top: "conv3_1"
  prelu_param {
    filler {
      type: "gaussian"
      std: 0.03
    }
  }
}
layer {
  name: "res2_5_p"
  type: "Eltwise"
  bottom: "pool2"
  bottom: "conv3_1"
  top: "res2_5_p"
  eltwise_param {
    operation: SUM
  }
}
layer {
  name: "conv3_3"
  type: "Convolution"
  bottom: "res2_5_p"
  top: "conv3_3"
  param {
    lr_mult: 1
    decay_mult: 1
  }
  param {
    lr_mult: 0
    decay_mult: 0
  }
  convolution_param {
    num_output: 72
    pad: 1
    kernel_size: 3
    stride: 1
    weight_filler {
      type: "gaussian"
      std: 0.01
    }
    bias_filler {
      type: "constant"
      value: 0
    }
  }
}
layer {
  name: "relu3_3"
  type: "PReLU"
  bottom: "conv3_3"
  top: "conv3_3"
  prelu_param {
    filler {
      type: "gaussian"
      std: 0.03
    }
  }
}
layer {
  name: "res3_3"
  type: "Eltwise"
  bottom: "res2_5_p"
  bottom: "conv3_3"
  top: "res3_3"
  eltwise_param {
    operation: SUM
  }
}
layer {
  name: "conv3_5"
  type: "Convolution"
  bottom: "res3_3"
  top: "conv3_5"
  param {
    lr_mult: 1
    decay_mult: 1
  }
  param {
    lr_mult: 0
    decay_mult: 0
  }
  convolution_param {
    num_output: 72
    pad: 1
    kernel_size: 3
    stride: 1
    weight_filler {
      type: "gaussian"
      std: 0.01
    }
    bias_filler {
      type: "constant"
      value: 0
    }
  }
}
layer {
  name: "relu3_5"
  type: "PReLU"
  bottom: "conv3_5"
  top: "conv3_5"
  prelu_param {
    filler {
      type: "gaussian"
      std: 0.03
    }
  }
}
layer {
  name: "res3_5"
  type: "Eltwise"
  bottom: "res3_3"
  bottom: "conv3_5"
  top: "res3_5"
  eltwise_param {
    operation: SUM
  }
}
layer {
  name: "res3_5_reduce"
  type: "Convolution"
  bottom: "res3_5"
  top: "res3_5_reduce"
  param {
    lr_mult: 1
    decay_mult: 1
  }
  param {
    lr_mult: 0
    decay_mult: 0
  }
  convolution_param {
    num_output: 144
    kernel_size: 1
    stride: 1
    weight_filler {
      type: "gaussian"
      std: 0.01
    }
    bias_filler {
      type: "constant"
      value: 0
    }
  }
}
layer {
  name: "pool3"
  type: "Pooling"
  bottom: "res3_5_reduce"
  top: "pool3"
  pooling_param {
    pool: MAX
    kernel_size: 2
    stride: 2
  }
}
layer {
  name: "conv4_1"
  type: "Convolution"
  bottom: "res3_5"
  top: "conv4_1"
  param {
    lr_mult: 1
    decay_mult: 1
  }
  param {
    lr_mult: 2
    decay_mult: 0
  }
  convolution_param {
    num_output: 144
    pad: 1
    kernel_size: 3
    stride: 2
    weight_filler {
      type: "xavier"
    }
    bias_filler {
      type: "constant"
      value: 0
    }
  }
}
layer {
  name: "relu4_1"
  type: "PReLU"
  bottom: "conv4_1"
  top: "conv4_1"
  prelu_param {
    filler {
      type: "gaussian"
      std: 0.03
    }
  }
}
layer {
  name: "res3_5_p"
  type: "Eltwise"
  bottom: "pool3"
  bottom: "conv4_1"
  top: "res3_5_p"
  eltwise_param {
    operation: SUM
  }
}
layer {
  name: "conv4_3"
  type: "Convolution"
  bottom: "res3_5_p"
  top: "conv4_3"
  param {
    lr_mult: 1
    decay_mult: 1
  }
  param {
    lr_mult: 0
    decay_mult: 0
  }
  convolution_param {
    num_output: 144
    pad: 1
    kernel_size: 3
    stride: 1
    weight_filler {
      type: "gaussian"
      std: 0.01
    }
    bias_filler {
      type: "constant"
      value: 0
    }
  }
}
layer {
  name: "relu4_3"
  type: "PReLU"
  bottom: "conv4_3"
  top: "conv4_3"
  prelu_param {
    filler {
      type: "gaussian"
      std: 0.03
    }
  }
}
layer {
  name: "res4_3"
  type: "Eltwise"
  bottom: "res3_5_p"
  bottom: "conv4_3"
  top: "res4_3"
  eltwise_param {
    operation: SUM
  }
}
layer {
  name: "fc5"
  type: "InnerProduct"
  bottom: "res4_3"
  top: "fc5"
  param {
    lr_mult: 1
    decay_mult: 1
  }
  param {
    lr_mult: 2
    decay_mult: 0
  }
  inner_product_param {
    num_output: 256
    weight_filler {
      type: "xavier"
    }
    bias_filler {
      type: "constant"
      value: 0
    }
  }
}
layer {
  name: "fc5_bn"
  type: "BatchNorm"
  bottom: "fc5"
  top: "fc5"
  batch_norm_param {
    use_global_stats: false
  }
}
layer {
  name: "norm1"
  type: "Normalize"
  bottom: "fc5"
  top: "norm1"
}
layer {
  name: "fc-6_l2"
  type: "InnerProduct"
  bottom: "norm1"
  top: "fc-6_l2"
  param {
    lr_mult: 1
  }
  inner_product_param {
    num_output: 21331
    bias_term: false
    weight_filler {
      type: "xavier"
    }
    normalize: true
  }
}
layer {
  name: "fc-6_margin"
  type: "LabelSpecificAdd"
  bottom: "fc-6_l2"
  bottom: "label"
  top: "fc-6_margin"
  label_specific_add_param {
    bias: -0.35
  }
}
layer {
  name: "fc-6_margin_scale"
  type: "Scale"
  bottom: "fc-6_margin"
  top: "fc-6_margin_scale"
  param {
    lr_mult: 0
    decay_mult: 0
  }
  scale_param {
    filler {
      type: "constant"
      value: 30
    }
  }
}
layer {
  name: "softmax_loss"
  type: "SoftmaxWithLoss"
  bottom: "fc-6_margin_scale"
  bottom: "label"
  top: "softmax_loss"
}
I0522 21:41:42.493587 26620 layer_factory.hpp:77] Creating layer data
I0522 21:41:42.493743 26620 db_lmdb.cpp:35] Opened lmdb /home/zkx/Data_sdb/TrainData/Data_sdc/Patches/lmdb/fc_0.35_112x96-base_cvdecode-shuffle_lmdb
I0522 21:41:42.493785 26620 net.cpp:84] Creating Layer data
I0522 21:41:42.493798 26620 net.cpp:380] data -> data
I0522 21:41:42.493824 26620 net.cpp:380] data -> label
I0522 21:41:42.495829 26620 data_layer.cpp:45] output data size: 64,3,112,96
I0522 21:41:42.523066 26620 net.cpp:122] Setting up data
I0522 21:41:42.523102 26620 net.cpp:129] Top shape: 64 3 112 96 (2064384)
I0522 21:41:42.523108 26620 net.cpp:129] Top shape: 64 (64)
I0522 21:41:42.523139 26620 net.cpp:137] Memory required for data: 8257792
I0522 21:41:42.523154 26620 layer_factory.hpp:77] Creating layer label_data_1_split
I0522 21:41:42.523181 26620 net.cpp:84] Creating Layer label_data_1_split
I0522 21:41:42.523195 26620 net.cpp:406] label_data_1_split <- label
I0522 21:41:42.523210 26620 net.cpp:380] label_data_1_split -> label_data_1_split_0
I0522 21:41:42.523223 26620 net.cpp:380] label_data_1_split -> label_data_1_split_1
I0522 21:41:42.523413 26620 net.cpp:122] Setting up label_data_1_split
I0522 21:41:42.523466 26620 net.cpp:129] Top shape: 64 (64)
I0522 21:41:42.523488 26620 net.cpp:129] Top shape: 64 (64)
I0522 21:41:42.523495 26620 net.cpp:137] Memory required for data: 8258304
I0522 21:41:42.523507 26620 layer_factory.hpp:77] Creating layer conv1_1
I0522 21:41:42.523556 26620 net.cpp:84] Creating Layer conv1_1
I0522 21:41:42.523568 26620 net.cpp:406] conv1_1 <- data
I0522 21:41:42.523586 26620 net.cpp:380] conv1_1 -> conv1_1
I0522 21:41:43.813525 26620 net.cpp:122] Setting up conv1_1
I0522 21:41:43.813580 26620 net.cpp:129] Top shape: 64 24 56 48 (4128768)
I0522 21:41:43.813585 26620 net.cpp:137] Memory required for data: 24773376
I0522 21:41:43.813628 26620 layer_factory.hpp:77] Creating layer relu1_1
I0522 21:41:43.813683 26620 net.cpp:84] Creating Layer relu1_1
I0522 21:41:43.813690 26620 net.cpp:406] relu1_1 <- conv1_1
I0522 21:41:43.813697 26620 net.cpp:367] relu1_1 -> conv1_1 (in-place)
I0522 21:41:43.815163 26620 net.cpp:122] Setting up relu1_1
I0522 21:41:43.815181 26620 net.cpp:129] Top shape: 64 24 56 48 (4128768)
I0522 21:41:43.815186 26620 net.cpp:137] Memory required for data: 41288448
I0522 21:41:43.815194 26620 layer_factory.hpp:77] Creating layer conv1_1_relu1_1_0_split
I0522 21:41:43.815217 26620 net.cpp:84] Creating Layer conv1_1_relu1_1_0_split
I0522 21:41:43.815223 26620 net.cpp:406] conv1_1_relu1_1_0_split <- conv1_1
I0522 21:41:43.815229 26620 net.cpp:380] conv1_1_relu1_1_0_split -> conv1_1_relu1_1_0_split_0
I0522 21:41:43.815237 26620 net.cpp:380] conv1_1_relu1_1_0_split -> conv1_1_relu1_1_0_split_1
I0522 21:41:43.815275 26620 net.cpp:122] Setting up conv1_1_relu1_1_0_split
I0522 21:41:43.815282 26620 net.cpp:129] Top shape: 64 24 56 48 (4128768)
I0522 21:41:43.815287 26620 net.cpp:129] Top shape: 64 24 56 48 (4128768)
I0522 21:41:43.815290 26620 net.cpp:137] Memory required for data: 74318592
I0522 21:41:43.815294 26620 layer_factory.hpp:77] Creating layer conv1_3
I0522 21:41:43.815320 26620 net.cpp:84] Creating Layer conv1_3
I0522 21:41:43.815325 26620 net.cpp:406] conv1_3 <- conv1_1_relu1_1_0_split_0
I0522 21:41:43.815330 26620 net.cpp:380] conv1_3 -> conv1_3
I0522 21:41:43.818150 26620 net.cpp:122] Setting up conv1_3
I0522 21:41:43.818166 26620 net.cpp:129] Top shape: 64 24 56 48 (4128768)
I0522 21:41:43.818171 26620 net.cpp:137] Memory required for data: 90833664
I0522 21:41:43.818181 26620 layer_factory.hpp:77] Creating layer relu1_3
I0522 21:41:43.818193 26620 net.cpp:84] Creating Layer relu1_3
I0522 21:41:43.818198 26620 net.cpp:406] relu1_3 <- conv1_3
I0522 21:41:43.818207 26620 net.cpp:367] relu1_3 -> conv1_3 (in-place)
I0522 21:41:43.818351 26620 net.cpp:122] Setting up relu1_3
I0522 21:41:43.818359 26620 net.cpp:129] Top shape: 64 24 56 48 (4128768)
I0522 21:41:43.818364 26620 net.cpp:137] Memory required for data: 107348736
I0522 21:41:43.818369 26620 layer_factory.hpp:77] Creating layer res1_3
I0522 21:41:43.818377 26620 net.cpp:84] Creating Layer res1_3
I0522 21:41:43.818383 26620 net.cpp:406] res1_3 <- conv1_1_relu1_1_0_split_1
I0522 21:41:43.818388 26620 net.cpp:406] res1_3 <- conv1_3
I0522 21:41:43.818398 26620 net.cpp:380] res1_3 -> res1_3
I0522 21:41:43.818428 26620 net.cpp:122] Setting up res1_3
I0522 21:41:43.818436 26620 net.cpp:129] Top shape: 64 24 56 48 (4128768)
I0522 21:41:43.818440 26620 net.cpp:137] Memory required for data: 123863808
I0522 21:41:43.818444 26620 layer_factory.hpp:77] Creating layer res1_3_res1_3_0_split
I0522 21:41:43.818454 26620 net.cpp:84] Creating Layer res1_3_res1_3_0_split
I0522 21:41:43.818477 26620 net.cpp:406] res1_3_res1_3_0_split <- res1_3
I0522 21:41:43.818485 26620 net.cpp:380] res1_3_res1_3_0_split -> res1_3_res1_3_0_split_0
I0522 21:41:43.818492 26620 net.cpp:380] res1_3_res1_3_0_split -> res1_3_res1_3_0_split_1
I0522 21:41:43.818526 26620 net.cpp:122] Setting up res1_3_res1_3_0_split
I0522 21:41:43.818534 26620 net.cpp:129] Top shape: 64 24 56 48 (4128768)
I0522 21:41:43.818538 26620 net.cpp:129] Top shape: 64 24 56 48 (4128768)
I0522 21:41:43.818542 26620 net.cpp:137] Memory required for data: 156893952
I0522 21:41:43.818544 26620 layer_factory.hpp:77] Creating layer res1_3_reduce
I0522 21:41:43.818557 26620 net.cpp:84] Creating Layer res1_3_reduce
I0522 21:41:43.818562 26620 net.cpp:406] res1_3_reduce <- res1_3_res1_3_0_split_0
I0522 21:41:43.818569 26620 net.cpp:380] res1_3_reduce -> res1_3_reduce
I0522 21:41:43.821485 26620 net.cpp:122] Setting up res1_3_reduce
I0522 21:41:43.821499 26620 net.cpp:129] Top shape: 64 48 56 48 (8257536)
I0522 21:41:43.821503 26620 net.cpp:137] Memory required for data: 189924096
I0522 21:41:43.821511 26620 layer_factory.hpp:77] Creating layer pool1
I0522 21:41:43.821522 26620 net.cpp:84] Creating Layer pool1
I0522 21:41:43.821529 26620 net.cpp:406] pool1 <- res1_3_reduce
I0522 21:41:43.821535 26620 net.cpp:380] pool1 -> pool1
I0522 21:41:43.821600 26620 net.cpp:122] Setting up pool1
I0522 21:41:43.821609 26620 net.cpp:129] Top shape: 64 48 28 24 (2064384)
I0522 21:41:43.821612 26620 net.cpp:137] Memory required for data: 198181632
I0522 21:41:43.821615 26620 layer_factory.hpp:77] Creating layer conv2_1
I0522 21:41:43.821627 26620 net.cpp:84] Creating Layer conv2_1
I0522 21:41:43.821632 26620 net.cpp:406] conv2_1 <- res1_3_res1_3_0_split_1
I0522 21:41:43.821640 26620 net.cpp:380] conv2_1 -> conv2_1
I0522 21:41:43.828945 26620 net.cpp:122] Setting up conv2_1
I0522 21:41:43.828963 26620 net.cpp:129] Top shape: 64 48 28 24 (2064384)
I0522 21:41:43.828968 26620 net.cpp:137] Memory required for data: 206439168
I0522 21:41:43.828980 26620 layer_factory.hpp:77] Creating layer relu2_1
I0522 21:41:43.828994 26620 net.cpp:84] Creating Layer relu2_1
I0522 21:41:43.828999 26620 net.cpp:406] relu2_1 <- conv2_1
I0522 21:41:43.829006 26620 net.cpp:367] relu2_1 -> conv2_1 (in-place)
I0522 21:41:43.829136 26620 net.cpp:122] Setting up relu2_1
I0522 21:41:43.829145 26620 net.cpp:129] Top shape: 64 48 28 24 (2064384)
I0522 21:41:43.829149 26620 net.cpp:137] Memory required for data: 214696704
I0522 21:41:43.829154 26620 layer_factory.hpp:77] Creating layer res1_3_p
I0522 21:41:43.829162 26620 net.cpp:84] Creating Layer res1_3_p
I0522 21:41:43.829167 26620 net.cpp:406] res1_3_p <- pool1
I0522 21:41:43.829172 26620 net.cpp:406] res1_3_p <- conv2_1
I0522 21:41:43.829179 26620 net.cpp:380] res1_3_p -> res1_3_p
I0522 21:41:43.829202 26620 net.cpp:122] Setting up res1_3_p
I0522 21:41:43.829210 26620 net.cpp:129] Top shape: 64 48 28 24 (2064384)
I0522 21:41:43.829213 26620 net.cpp:137] Memory required for data: 222954240
I0522 21:41:43.829216 26620 layer_factory.hpp:77] Creating layer res1_3_p_res1_3_p_0_split
I0522 21:41:43.829223 26620 net.cpp:84] Creating Layer res1_3_p_res1_3_p_0_split
I0522 21:41:43.829226 26620 net.cpp:406] res1_3_p_res1_3_p_0_split <- res1_3_p
I0522 21:41:43.829233 26620 net.cpp:380] res1_3_p_res1_3_p_0_split -> res1_3_p_res1_3_p_0_split_0
I0522 21:41:43.829239 26620 net.cpp:380] res1_3_p_res1_3_p_0_split -> res1_3_p_res1_3_p_0_split_1
I0522 21:41:43.829274 26620 net.cpp:122] Setting up res1_3_p_res1_3_p_0_split
I0522 21:41:43.829282 26620 net.cpp:129] Top shape: 64 48 28 24 (2064384)
I0522 21:41:43.829286 26620 net.cpp:129] Top shape: 64 48 28 24 (2064384)
I0522 21:41:43.829289 26620 net.cpp:137] Memory required for data: 239469312
I0522 21:41:43.829293 26620 layer_factory.hpp:77] Creating layer conv2_3
I0522 21:41:43.829305 26620 net.cpp:84] Creating Layer conv2_3
I0522 21:41:43.829309 26620 net.cpp:406] conv2_3 <- res1_3_p_res1_3_p_0_split_0
I0522 21:41:43.829318 26620 net.cpp:380] conv2_3 -> conv2_3
I0522 21:41:43.835815 26620 net.cpp:122] Setting up conv2_3
I0522 21:41:43.835853 26620 net.cpp:129] Top shape: 64 48 28 24 (2064384)
I0522 21:41:43.835858 26620 net.cpp:137] Memory required for data: 247726848
I0522 21:41:43.835866 26620 layer_factory.hpp:77] Creating layer relu2_3
I0522 21:41:43.835882 26620 net.cpp:84] Creating Layer relu2_3
I0522 21:41:43.835888 26620 net.cpp:406] relu2_3 <- conv2_3
I0522 21:41:43.835896 26620 net.cpp:367] relu2_3 -> conv2_3 (in-place)
I0522 21:41:43.836032 26620 net.cpp:122] Setting up relu2_3
I0522 21:41:43.836041 26620 net.cpp:129] Top shape: 64 48 28 24 (2064384)
I0522 21:41:43.836045 26620 net.cpp:137] Memory required for data: 255984384
I0522 21:41:43.836051 26620 layer_factory.hpp:77] Creating layer res2_3
I0522 21:41:43.836060 26620 net.cpp:84] Creating Layer res2_3
I0522 21:41:43.836064 26620 net.cpp:406] res2_3 <- res1_3_p_res1_3_p_0_split_1
I0522 21:41:43.836069 26620 net.cpp:406] res2_3 <- conv2_3
I0522 21:41:43.836076 26620 net.cpp:380] res2_3 -> res2_3
I0522 21:41:43.836102 26620 net.cpp:122] Setting up res2_3
I0522 21:41:43.836108 26620 net.cpp:129] Top shape: 64 48 28 24 (2064384)
I0522 21:41:43.836112 26620 net.cpp:137] Memory required for data: 264241920
I0522 21:41:43.836115 26620 layer_factory.hpp:77] Creating layer res2_3_res2_3_0_split
I0522 21:41:43.836122 26620 net.cpp:84] Creating Layer res2_3_res2_3_0_split
I0522 21:41:43.836127 26620 net.cpp:406] res2_3_res2_3_0_split <- res2_3
I0522 21:41:43.836133 26620 net.cpp:380] res2_3_res2_3_0_split -> res2_3_res2_3_0_split_0
I0522 21:41:43.836138 26620 net.cpp:380] res2_3_res2_3_0_split -> res2_3_res2_3_0_split_1
I0522 21:41:43.836175 26620 net.cpp:122] Setting up res2_3_res2_3_0_split
I0522 21:41:43.836182 26620 net.cpp:129] Top shape: 64 48 28 24 (2064384)
I0522 21:41:43.836186 26620 net.cpp:129] Top shape: 64 48 28 24 (2064384)
I0522 21:41:43.836189 26620 net.cpp:137] Memory required for data: 280756992
I0522 21:41:43.836192 26620 layer_factory.hpp:77] Creating layer conv2_5
I0522 21:41:43.836205 26620 net.cpp:84] Creating Layer conv2_5
I0522 21:41:43.836210 26620 net.cpp:406] conv2_5 <- res2_3_res2_3_0_split_0
I0522 21:41:43.836218 26620 net.cpp:380] conv2_5 -> conv2_5
I0522 21:41:43.841886 26620 net.cpp:122] Setting up conv2_5
I0522 21:41:43.841903 26620 net.cpp:129] Top shape: 64 48 28 24 (2064384)
I0522 21:41:43.841907 26620 net.cpp:137] Memory required for data: 289014528
I0522 21:41:43.841917 26620 layer_factory.hpp:77] Creating layer relu2_5
I0522 21:41:43.841926 26620 net.cpp:84] Creating Layer relu2_5
I0522 21:41:43.841931 26620 net.cpp:406] relu2_5 <- conv2_5
I0522 21:41:43.841938 26620 net.cpp:367] relu2_5 -> conv2_5 (in-place)
I0522 21:41:43.842067 26620 net.cpp:122] Setting up relu2_5
I0522 21:41:43.842075 26620 net.cpp:129] Top shape: 64 48 28 24 (2064384)
I0522 21:41:43.842078 26620 net.cpp:137] Memory required for data: 297272064
I0522 21:41:43.842088 26620 layer_factory.hpp:77] Creating layer res2_5
I0522 21:41:43.842097 26620 net.cpp:84] Creating Layer res2_5
I0522 21:41:43.842101 26620 net.cpp:406] res2_5 <- res2_3_res2_3_0_split_1
I0522 21:41:43.842105 26620 net.cpp:406] res2_5 <- conv2_5
I0522 21:41:43.842111 26620 net.cpp:380] res2_5 -> res2_5
I0522 21:41:43.842136 26620 net.cpp:122] Setting up res2_5
I0522 21:41:43.842144 26620 net.cpp:129] Top shape: 64 48 28 24 (2064384)
I0522 21:41:43.842146 26620 net.cpp:137] Memory required for data: 305529600
I0522 21:41:43.842150 26620 layer_factory.hpp:77] Creating layer res2_5_res2_5_0_split
I0522 21:41:43.842156 26620 net.cpp:84] Creating Layer res2_5_res2_5_0_split
I0522 21:41:43.842159 26620 net.cpp:406] res2_5_res2_5_0_split <- res2_5
I0522 21:41:43.842165 26620 net.cpp:380] res2_5_res2_5_0_split -> res2_5_res2_5_0_split_0
I0522 21:41:43.842171 26620 net.cpp:380] res2_5_res2_5_0_split -> res2_5_res2_5_0_split_1
I0522 21:41:43.842203 26620 net.cpp:122] Setting up res2_5_res2_5_0_split
I0522 21:41:43.842211 26620 net.cpp:129] Top shape: 64 48 28 24 (2064384)
I0522 21:41:43.842214 26620 net.cpp:129] Top shape: 64 48 28 24 (2064384)
I0522 21:41:43.842217 26620 net.cpp:137] Memory required for data: 322044672
I0522 21:41:43.842238 26620 layer_factory.hpp:77] Creating layer res2_5_reduce
I0522 21:41:43.842250 26620 net.cpp:84] Creating Layer res2_5_reduce
I0522 21:41:43.842257 26620 net.cpp:406] res2_5_reduce <- res2_5_res2_5_0_split_0
I0522 21:41:43.842263 26620 net.cpp:380] res2_5_reduce -> res2_5_reduce
I0522 21:41:43.843760 26620 net.cpp:122] Setting up res2_5_reduce
I0522 21:41:43.843776 26620 net.cpp:129] Top shape: 64 72 28 24 (3096576)
I0522 21:41:43.843780 26620 net.cpp:137] Memory required for data: 334430976
I0522 21:41:43.843791 26620 layer_factory.hpp:77] Creating layer pool2
I0522 21:41:43.843801 26620 net.cpp:84] Creating Layer pool2
I0522 21:41:43.843806 26620 net.cpp:406] pool2 <- res2_5_reduce
I0522 21:41:43.843813 26620 net.cpp:380] pool2 -> pool2
I0522 21:41:43.843857 26620 net.cpp:122] Setting up pool2
I0522 21:41:43.843864 26620 net.cpp:129] Top shape: 64 72 14 12 (774144)
I0522 21:41:43.843868 26620 net.cpp:137] Memory required for data: 337527552
I0522 21:41:43.843870 26620 layer_factory.hpp:77] Creating layer conv3_1
I0522 21:41:43.843881 26620 net.cpp:84] Creating Layer conv3_1
I0522 21:41:43.843886 26620 net.cpp:406] conv3_1 <- res2_5_res2_5_0_split_1
I0522 21:41:43.843894 26620 net.cpp:380] conv3_1 -> conv3_1
I0522 21:41:43.849508 26620 net.cpp:122] Setting up conv3_1
I0522 21:41:43.849524 26620 net.cpp:129] Top shape: 64 72 14 12 (774144)
I0522 21:41:43.849529 26620 net.cpp:137] Memory required for data: 340624128
I0522 21:41:43.849536 26620 layer_factory.hpp:77] Creating layer relu3_1
I0522 21:41:43.849547 26620 net.cpp:84] Creating Layer relu3_1
I0522 21:41:43.849553 26620 net.cpp:406] relu3_1 <- conv3_1
I0522 21:41:43.849560 26620 net.cpp:367] relu3_1 -> conv3_1 (in-place)
I0522 21:41:43.849668 26620 net.cpp:122] Setting up relu3_1
I0522 21:41:43.849678 26620 net.cpp:129] Top shape: 64 72 14 12 (774144)
I0522 21:41:43.849680 26620 net.cpp:137] Memory required for data: 343720704
I0522 21:41:43.849685 26620 layer_factory.hpp:77] Creating layer res2_5_p
I0522 21:41:43.849694 26620 net.cpp:84] Creating Layer res2_5_p
I0522 21:41:43.849699 26620 net.cpp:406] res2_5_p <- pool2
I0522 21:41:43.849704 26620 net.cpp:406] res2_5_p <- conv3_1
I0522 21:41:43.849710 26620 net.cpp:380] res2_5_p -> res2_5_p
I0522 21:41:43.849735 26620 net.cpp:122] Setting up res2_5_p
I0522 21:41:43.849742 26620 net.cpp:129] Top shape: 64 72 14 12 (774144)
I0522 21:41:43.849746 26620 net.cpp:137] Memory required for data: 346817280
I0522 21:41:43.849750 26620 layer_factory.hpp:77] Creating layer res2_5_p_res2_5_p_0_split
I0522 21:41:43.849756 26620 net.cpp:84] Creating Layer res2_5_p_res2_5_p_0_split
I0522 21:41:43.849759 26620 net.cpp:406] res2_5_p_res2_5_p_0_split <- res2_5_p
I0522 21:41:43.849766 26620 net.cpp:380] res2_5_p_res2_5_p_0_split -> res2_5_p_res2_5_p_0_split_0
I0522 21:41:43.849772 26620 net.cpp:380] res2_5_p_res2_5_p_0_split -> res2_5_p_res2_5_p_0_split_1
I0522 21:41:43.849805 26620 net.cpp:122] Setting up res2_5_p_res2_5_p_0_split
I0522 21:41:43.849812 26620 net.cpp:129] Top shape: 64 72 14 12 (774144)
I0522 21:41:43.849817 26620 net.cpp:129] Top shape: 64 72 14 12 (774144)
I0522 21:41:43.849819 26620 net.cpp:137] Memory required for data: 353010432
I0522 21:41:43.849823 26620 layer_factory.hpp:77] Creating layer conv3_3
I0522 21:41:43.849833 26620 net.cpp:84] Creating Layer conv3_3
I0522 21:41:43.849839 26620 net.cpp:406] conv3_3 <- res2_5_p_res2_5_p_0_split_0
I0522 21:41:43.849846 26620 net.cpp:380] conv3_3 -> conv3_3
I0522 21:41:43.853968 26620 net.cpp:122] Setting up conv3_3
I0522 21:41:43.853986 26620 net.cpp:129] Top shape: 64 72 14 12 (774144)
I0522 21:41:43.853989 26620 net.cpp:137] Memory required for data: 356107008
I0522 21:41:43.853997 26620 layer_factory.hpp:77] Creating layer relu3_3
I0522 21:41:43.854008 26620 net.cpp:84] Creating Layer relu3_3
I0522 21:41:43.854014 26620 net.cpp:406] relu3_3 <- conv3_3
I0522 21:41:43.854022 26620 net.cpp:367] relu3_3 -> conv3_3 (in-place)
I0522 21:41:43.854136 26620 net.cpp:122] Setting up relu3_3
I0522 21:41:43.854146 26620 net.cpp:129] Top shape: 64 72 14 12 (774144)
I0522 21:41:43.854162 26620 net.cpp:137] Memory required for data: 359203584
I0522 21:41:43.854171 26620 layer_factory.hpp:77] Creating layer res3_3
I0522 21:41:43.854179 26620 net.cpp:84] Creating Layer res3_3
I0522 21:41:43.854184 26620 net.cpp:406] res3_3 <- res2_5_p_res2_5_p_0_split_1
I0522 21:41:43.854189 26620 net.cpp:406] res3_3 <- conv3_3
I0522 21:41:43.854197 26620 net.cpp:380] res3_3 -> res3_3
I0522 21:41:43.854228 26620 net.cpp:122] Setting up res3_3
I0522 21:41:43.854238 26620 net.cpp:129] Top shape: 64 72 14 12 (774144)
I0522 21:41:43.854241 26620 net.cpp:137] Memory required for data: 362300160
I0522 21:41:43.854245 26620 layer_factory.hpp:77] Creating layer res3_3_res3_3_0_split
I0522 21:41:43.854255 26620 net.cpp:84] Creating Layer res3_3_res3_3_0_split
I0522 21:41:43.854260 26620 net.cpp:406] res3_3_res3_3_0_split <- res3_3
I0522 21:41:43.854266 26620 net.cpp:380] res3_3_res3_3_0_split -> res3_3_res3_3_0_split_0
I0522 21:41:43.854274 26620 net.cpp:380] res3_3_res3_3_0_split -> res3_3_res3_3_0_split_1
I0522 21:41:43.854310 26620 net.cpp:122] Setting up res3_3_res3_3_0_split
I0522 21:41:43.854316 26620 net.cpp:129] Top shape: 64 72 14 12 (774144)
I0522 21:41:43.854321 26620 net.cpp:129] Top shape: 64 72 14 12 (774144)
I0522 21:41:43.854326 26620 net.cpp:137] Memory required for data: 368493312
I0522 21:41:43.854328 26620 layer_factory.hpp:77] Creating layer conv3_5
I0522 21:41:43.854339 26620 net.cpp:84] Creating Layer conv3_5
I0522 21:41:43.854346 26620 net.cpp:406] conv3_5 <- res3_3_res3_3_0_split_0
I0522 21:41:43.854352 26620 net.cpp:380] conv3_5 -> conv3_5
I0522 21:41:43.856813 26620 net.cpp:122] Setting up conv3_5
I0522 21:41:43.856830 26620 net.cpp:129] Top shape: 64 72 14 12 (774144)
I0522 21:41:43.856835 26620 net.cpp:137] Memory required for data: 371589888
I0522 21:41:43.856844 26620 layer_factory.hpp:77] Creating layer relu3_5
I0522 21:41:43.856856 26620 net.cpp:84] Creating Layer relu3_5
I0522 21:41:43.856863 26620 net.cpp:406] relu3_5 <- conv3_5
I0522 21:41:43.856869 26620 net.cpp:367] relu3_5 -> conv3_5 (in-place)
I0522 21:41:43.856984 26620 net.cpp:122] Setting up relu3_5
I0522 21:41:43.856992 26620 net.cpp:129] Top shape: 64 72 14 12 (774144)
I0522 21:41:43.856997 26620 net.cpp:137] Memory required for data: 374686464
I0522 21:41:43.857002 26620 layer_factory.hpp:77] Creating layer res3_5
I0522 21:41:43.857010 26620 net.cpp:84] Creating Layer res3_5
I0522 21:41:43.857015 26620 net.cpp:406] res3_5 <- res3_3_res3_3_0_split_1
I0522 21:41:43.857020 26620 net.cpp:406] res3_5 <- conv3_5
I0522 21:41:43.857026 26620 net.cpp:380] res3_5 -> res3_5
I0522 21:41:43.857053 26620 net.cpp:122] Setting up res3_5
I0522 21:41:43.857060 26620 net.cpp:129] Top shape: 64 72 14 12 (774144)
I0522 21:41:43.857064 26620 net.cpp:137] Memory required for data: 377783040
I0522 21:41:43.857066 26620 layer_factory.hpp:77] Creating layer res3_5_res3_5_0_split
I0522 21:41:43.857074 26620 net.cpp:84] Creating Layer res3_5_res3_5_0_split
I0522 21:41:43.857079 26620 net.cpp:406] res3_5_res3_5_0_split <- res3_5
I0522 21:41:43.857084 26620 net.cpp:380] res3_5_res3_5_0_split -> res3_5_res3_5_0_split_0
I0522 21:41:43.857091 26620 net.cpp:380] res3_5_res3_5_0_split -> res3_5_res3_5_0_split_1
I0522 21:41:43.857125 26620 net.cpp:122] Setting up res3_5_res3_5_0_split
I0522 21:41:43.857132 26620 net.cpp:129] Top shape: 64 72 14 12 (774144)
I0522 21:41:43.857136 26620 net.cpp:129] Top shape: 64 72 14 12 (774144)
I0522 21:41:43.857139 26620 net.cpp:137] Memory required for data: 383976192
I0522 21:41:43.857142 26620 layer_factory.hpp:77] Creating layer res3_5_reduce
I0522 21:41:43.857153 26620 net.cpp:84] Creating Layer res3_5_reduce
I0522 21:41:43.857158 26620 net.cpp:406] res3_5_reduce <- res3_5_res3_5_0_split_0
I0522 21:41:43.857167 26620 net.cpp:380] res3_5_reduce -> res3_5_reduce
I0522 21:41:43.861305 26620 net.cpp:122] Setting up res3_5_reduce
I0522 21:41:43.861323 26620 net.cpp:129] Top shape: 64 144 14 12 (1548288)
I0522 21:41:43.861327 26620 net.cpp:137] Memory required for data: 390169344
I0522 21:41:43.861349 26620 layer_factory.hpp:77] Creating layer pool3
I0522 21:41:43.861361 26620 net.cpp:84] Creating Layer pool3
I0522 21:41:43.861367 26620 net.cpp:406] pool3 <- res3_5_reduce
I0522 21:41:43.861374 26620 net.cpp:380] pool3 -> pool3
I0522 21:41:43.861421 26620 net.cpp:122] Setting up pool3
I0522 21:41:43.861429 26620 net.cpp:129] Top shape: 64 144 7 6 (387072)
I0522 21:41:43.861433 26620 net.cpp:137] Memory required for data: 391717632
I0522 21:41:43.861436 26620 layer_factory.hpp:77] Creating layer conv4_1
I0522 21:41:43.861446 26620 net.cpp:84] Creating Layer conv4_1
I0522 21:41:43.861451 26620 net.cpp:406] conv4_1 <- res3_5_res3_5_0_split_1
I0522 21:41:43.861459 26620 net.cpp:380] conv4_1 -> conv4_1
I0522 21:41:43.868043 26620 net.cpp:122] Setting up conv4_1
I0522 21:41:43.868063 26620 net.cpp:129] Top shape: 64 144 7 6 (387072)
I0522 21:41:43.868067 26620 net.cpp:137] Memory required for data: 393265920
I0522 21:41:43.868075 26620 layer_factory.hpp:77] Creating layer relu4_1
I0522 21:41:43.868084 26620 net.cpp:84] Creating Layer relu4_1
I0522 21:41:43.868088 26620 net.cpp:406] relu4_1 <- conv4_1
I0522 21:41:43.868094 26620 net.cpp:367] relu4_1 -> conv4_1 (in-place)
I0522 21:41:43.868198 26620 net.cpp:122] Setting up relu4_1
I0522 21:41:43.868207 26620 net.cpp:129] Top shape: 64 144 7 6 (387072)
I0522 21:41:43.868212 26620 net.cpp:137] Memory required for data: 394814208
I0522 21:41:43.868227 26620 layer_factory.hpp:77] Creating layer res3_5_p
I0522 21:41:43.868237 26620 net.cpp:84] Creating Layer res3_5_p
I0522 21:41:43.868242 26620 net.cpp:406] res3_5_p <- pool3
I0522 21:41:43.868247 26620 net.cpp:406] res3_5_p <- conv4_1
I0522 21:41:43.868253 26620 net.cpp:380] res3_5_p -> res3_5_p
I0522 21:41:43.868283 26620 net.cpp:122] Setting up res3_5_p
I0522 21:41:43.868291 26620 net.cpp:129] Top shape: 64 144 7 6 (387072)
I0522 21:41:43.868294 26620 net.cpp:137] Memory required for data: 396362496
I0522 21:41:43.868297 26620 layer_factory.hpp:77] Creating layer res3_5_p_res3_5_p_0_split
I0522 21:41:43.868304 26620 net.cpp:84] Creating Layer res3_5_p_res3_5_p_0_split
I0522 21:41:43.868307 26620 net.cpp:406] res3_5_p_res3_5_p_0_split <- res3_5_p
I0522 21:41:43.868314 26620 net.cpp:380] res3_5_p_res3_5_p_0_split -> res3_5_p_res3_5_p_0_split_0
I0522 21:41:43.868320 26620 net.cpp:380] res3_5_p_res3_5_p_0_split -> res3_5_p_res3_5_p_0_split_1
I0522 21:41:43.868357 26620 net.cpp:122] Setting up res3_5_p_res3_5_p_0_split
I0522 21:41:43.868363 26620 net.cpp:129] Top shape: 64 144 7 6 (387072)
I0522 21:41:43.868368 26620 net.cpp:129] Top shape: 64 144 7 6 (387072)
I0522 21:41:43.868371 26620 net.cpp:137] Memory required for data: 399459072
I0522 21:41:43.868374 26620 layer_factory.hpp:77] Creating layer conv4_3
I0522 21:41:43.868386 26620 net.cpp:84] Creating Layer conv4_3
I0522 21:41:43.868391 26620 net.cpp:406] conv4_3 <- res3_5_p_res3_5_p_0_split_0
I0522 21:41:43.868398 26620 net.cpp:380] conv4_3 -> conv4_3
I0522 21:41:43.875061 26620 net.cpp:122] Setting up conv4_3
I0522 21:41:43.875077 26620 net.cpp:129] Top shape: 64 144 7 6 (387072)
I0522 21:41:43.875082 26620 net.cpp:137] Memory required for data: 401007360
I0522 21:41:43.875090 26620 layer_factory.hpp:77] Creating layer relu4_3
I0522 21:41:43.875102 26620 net.cpp:84] Creating Layer relu4_3
I0522 21:41:43.875108 26620 net.cpp:406] relu4_3 <- conv4_3
I0522 21:41:43.875114 26620 net.cpp:367] relu4_3 -> conv4_3 (in-place)
I0522 21:41:43.875233 26620 net.cpp:122] Setting up relu4_3
I0522 21:41:43.875241 26620 net.cpp:129] Top shape: 64 144 7 6 (387072)
I0522 21:41:43.875246 26620 net.cpp:137] Memory required for data: 402555648
I0522 21:41:43.875250 26620 layer_factory.hpp:77] Creating layer res4_3
I0522 21:41:43.875257 26620 net.cpp:84] Creating Layer res4_3
I0522 21:41:43.875262 26620 net.cpp:406] res4_3 <- res3_5_p_res3_5_p_0_split_1
I0522 21:41:43.875267 26620 net.cpp:406] res4_3 <- conv4_3
I0522 21:41:43.875272 26620 net.cpp:380] res4_3 -> res4_3
I0522 21:41:43.875299 26620 net.cpp:122] Setting up res4_3
I0522 21:41:43.875306 26620 net.cpp:129] Top shape: 64 144 7 6 (387072)
I0522 21:41:43.875325 26620 net.cpp:137] Memory required for data: 404103936
I0522 21:41:43.875331 26620 layer_factory.hpp:77] Creating layer fc5
I0522 21:41:43.875339 26620 net.cpp:84] Creating Layer fc5
I0522 21:41:43.875344 26620 net.cpp:406] fc5 <- res4_3
I0522 21:41:43.875352 26620 net.cpp:380] fc5 -> fc5
I0522 21:41:43.888247 26620 net.cpp:122] Setting up fc5
I0522 21:41:43.888273 26620 net.cpp:129] Top shape: 64 256 (16384)
I0522 21:41:43.888278 26620 net.cpp:137] Memory required for data: 404169472
I0522 21:41:43.888288 26620 layer_factory.hpp:77] Creating layer fc5_bn
I0522 21:41:43.888298 26620 net.cpp:84] Creating Layer fc5_bn
I0522 21:41:43.888303 26620 net.cpp:406] fc5_bn <- fc5
I0522 21:41:43.888314 26620 net.cpp:367] fc5_bn -> fc5 (in-place)
I0522 21:41:43.888528 26620 net.cpp:122] Setting up fc5_bn
I0522 21:41:43.888537 26620 net.cpp:129] Top shape: 64 256 (16384)
I0522 21:41:43.888540 26620 net.cpp:137] Memory required for data: 404235008
I0522 21:41:43.888548 26620 layer_factory.hpp:77] Creating layer norm1
I0522 21:41:43.888566 26620 net.cpp:84] Creating Layer norm1
I0522 21:41:43.888571 26620 net.cpp:406] norm1 <- fc5
I0522 21:41:43.888578 26620 net.cpp:380] norm1 -> norm1
I0522 21:41:43.888636 26620 net.cpp:122] Setting up norm1
I0522 21:41:43.888643 26620 net.cpp:129] Top shape: 64 256 1 1 (16384)
I0522 21:41:43.888648 26620 net.cpp:137] Memory required for data: 404300544
I0522 21:41:43.888650 26620 layer_factory.hpp:77] Creating layer fc-6_l2
I0522 21:41:43.888664 26620 net.cpp:84] Creating Layer fc-6_l2
I0522 21:41:43.888669 26620 net.cpp:406] fc-6_l2 <- norm1
I0522 21:41:43.888674 26620 net.cpp:380] fc-6_l2 -> fc-6_l2
I0522 21:41:43.937248 26620 net.cpp:122] Setting up fc-6_l2
I0522 21:41:43.937297 26620 net.cpp:129] Top shape: 64 21331 (1365184)
I0522 21:41:43.937306 26620 net.cpp:137] Memory required for data: 409761280
I0522 21:41:43.937321 26620 layer_factory.hpp:77] Creating layer fc-6_margin
I0522 21:41:43.937351 26620 net.cpp:84] Creating Layer fc-6_margin
I0522 21:41:43.937362 26620 net.cpp:406] fc-6_margin <- fc-6_l2
I0522 21:41:43.937376 26620 net.cpp:406] fc-6_margin <- label_data_1_split_0
I0522 21:41:43.937388 26620 net.cpp:380] fc-6_margin -> fc-6_margin
I0522 21:41:43.937458 26620 net.cpp:122] Setting up fc-6_margin
I0522 21:41:43.937470 26620 net.cpp:129] Top shape: 64 21331 (1365184)
I0522 21:41:43.937477 26620 net.cpp:137] Memory required for data: 415222016
I0522 21:41:43.937484 26620 layer_factory.hpp:77] Creating layer fc-6_margin_scale
I0522 21:41:43.937582 26620 net.cpp:84] Creating Layer fc-6_margin_scale
I0522 21:41:43.937602 26620 net.cpp:406] fc-6_margin_scale <- fc-6_margin
I0522 21:41:43.937613 26620 net.cpp:380] fc-6_margin_scale -> fc-6_margin_scale
I0522 21:41:43.937858 26620 net.cpp:122] Setting up fc-6_margin_scale
I0522 21:41:43.937872 26620 net.cpp:129] Top shape: 64 21331 (1365184)
I0522 21:41:43.937877 26620 net.cpp:137] Memory required for data: 420682752
I0522 21:41:43.937885 26620 layer_factory.hpp:77] Creating layer softmax_loss
I0522 21:41:43.937894 26620 net.cpp:84] Creating Layer softmax_loss
I0522 21:41:43.937901 26620 net.cpp:406] softmax_loss <- fc-6_margin_scale
I0522 21:41:43.937906 26620 net.cpp:406] softmax_loss <- label_data_1_split_1
I0522 21:41:43.937913 26620 net.cpp:380] softmax_loss -> softmax_loss
…
