…
I0522 21:41:41.372522 26558 solver.cpp:102] Creating training net from net file: models/AdditMarginLmdbNoE/AdditMarginLmdbNoE-b0.35s30_fc_0.35_112x96_faceNet-20-light2s4-bn/train.prototxt
I0522 21:41:41.378705 26558 net.cpp:51] Initializing net from parameters: 
name: "2018-05-22_AdditMarginLmdbNoE-b0.35s30_fc_0.35_112x96_faceNet-20-light2s4-bn_zkx_train"
state {
  phase: TRAIN
  level: 0
  stage: ""
}
layer {
  name: "data"
  type: "Data"
  top: "data"
  top: "label"
  data_param {
    source: "/home/zkx/Data_sdb/TrainData/Data_sdc/Patches/lmdb/fc_0.35_112x96_base-noencode-shuffle_lmdb"
    batch_size: 64
    backend: LMDB
  }
}
layer {
  name: "conv1_1"
  type: "Convolution"
  bottom: "data"
  top: "conv1_1"
  param {
    lr_mult: 1
    decay_mult: 1
  }
  param {
    lr_mult: 2
    decay_mult: 0
  }
  convolution_param {
    num_output: 24
    pad: 1
    kernel_size: 3
    stride: 2
    weight_filler {
      type: "xavier"
    }
    bias_filler {
      type: "constant"
      value: 0
    }
  }
}
layer {
  name: "relu1_1"
  type: "PReLU"
  bottom: "conv1_1"
  top: "conv1_1"
  prelu_param {
    filler {
      type: "gaussian"
      std: 0.03
    }
  }
}
layer {
  name: "conv1_3"
  type: "Convolution"
  bottom: "conv1_1"
  top: "conv1_3"
  param {
    lr_mult: 1
    decay_mult: 1
  }
  param {
    lr_mult: 0
    decay_mult: 0
  }
  convolution_param {
    num_output: 24
    pad: 1
    kernel_size: 3
    stride: 1
    weight_filler {
      type: "gaussian"
      std: 0.01
    }
    bias_filler {
      type: "constant"
      value: 0
    }
  }
}
layer {
  name: "relu1_3"
  type: "PReLU"
  bottom: "conv1_3"
  top: "conv1_3"
  prelu_param {
    filler {
      type: "gaussian"
      std: 0.03
    }
  }
}
layer {
  name: "res1_3"
  type: "Eltwise"
  bottom: "conv1_1"
  bottom: "conv1_3"
  top: "res1_3"
  eltwise_param {
    operation: SUM
  }
}
layer {
  name: "res1_3_reduce"
  type: "Convolution"
  bottom: "res1_3"
  top: "res1_3_reduce"
  param {
    lr_mult: 1
    decay_mult: 1
  }
  param {
    lr_mult: 0
    decay_mult: 0
  }
  convolution_param {
    num_output: 48
    kernel_size: 1
    stride: 1
    weight_filler {
      type: "gaussian"
      std: 0.01
    }
    bias_filler {
      type: "constant"
      value: 0
    }
  }
}
layer {
  name: "pool1"
  type: "Pooling"
  bottom: "res1_3_reduce"
  top: "pool1"
  pooling_param {
    pool: MAX
    kernel_size: 2
    stride: 2
  }
}
layer {
  name: "conv2_1"
  type: "Convolution"
  bottom: "res1_3"
  top: "conv2_1"
  param {
    lr_mult: 1
    decay_mult: 1
  }
  param {
    lr_mult: 2
    decay_mult: 0
  }
  convolution_param {
    num_output: 48
    pad: 1
    kernel_size: 3
    stride: 2
    weight_filler {
      type: "xavier"
    }
    bias_filler {
      type: "constant"
      value: 0
    }
  }
}
layer {
  name: "relu2_1"
  type: "PReLU"
  bottom: "conv2_1"
  top: "conv2_1"
  prelu_param {
    filler {
      type: "gaussian"
      std: 0.03
    }
  }
}
layer {
  name: "res1_3_p"
  type: "Eltwise"
  bottom: "pool1"
  bottom: "conv2_1"
  top: "res1_3_p"
  eltwise_param {
    operation: SUM
  }
}
layer {
  name: "conv2_3"
  type: "Convolution"
  bottom: "res1_3_p"
  top: "conv2_3"
  param {
    lr_mult: 1
    decay_mult: 1
  }
  param {
    lr_mult: 0
    decay_mult: 0
  }
  convolution_param {
    num_output: 48
    pad: 1
    kernel_size: 3
    stride: 1
    weight_filler {
      type: "gaussian"
      std: 0.01
    }
    bias_filler {
      type: "constant"
      value: 0
    }
  }
}
layer {
  name: "relu2_3"
  type: "PReLU"
  bottom: "conv2_3"
  top: "conv2_3"
  prelu_param {
    filler {
      type: "gaussian"
      std: 0.03
    }
  }
}
layer {
  name: "res2_3"
  type: "Eltwise"
  bottom: "res1_3_p"
  bottom: "conv2_3"
  top: "res2_3"
  eltwise_param {
    operation: SUM
  }
}
layer {
  name: "conv2_5"
  type: "Convolution"
  bottom: "res2_3"
  top: "conv2_5"
  param {
    lr_mult: 1
    decay_mult: 1
  }
  param {
    lr_mult: 0
    decay_mult: 0
  }
  convolution_param {
    num_output: 48
    pad: 1
    kernel_size: 3
    stride: 1
    weight_filler {
      type: "gaussian"
      std: 0.01
    }
    bias_filler {
      type: "constant"
      value: 0
    }
  }
}
layer {
  name: "relu2_5"
  type: "PReLU"
  bottom: "conv2_5"
  top: "conv2_5"
  prelu_param {
    filler {
      type: "gaussian"
      std: 0.03
    }
  }
}
layer {
  name: "res2_5"
  type: "Eltwise"
  bottom: "res2_3"
  bottom: "conv2_5"
  top: "res2_5"
  eltwise_param {
    operation: SUM
  }
}
layer {
  name: "res2_5_reduce"
  type: "Convolution"
  bottom: "res2_5"
  top: "res2_5_reduce"
  param {
    lr_mult: 1
    decay_mult: 1
  }
  param {
    lr_mult: 0
    decay_mult: 0
  }
  convolution_param {
    num_output: 72
    kernel_size: 1
    stride: 1
    weight_filler {
      type: "gaussian"
      std: 0.01
    }
    bias_filler {
      type: "constant"
      value: 0
    }
  }
}
layer {
  name: "pool2"
  type: "Pooling"
  bottom: "res2_5_reduce"
  top: "pool2"
  pooling_param {
    pool: MAX
    kernel_size: 2
    stride: 2
  }
}
layer {
  name: "conv3_1"
  type: "Convolution"
  bottom: "res2_5"
  top: "conv3_1"
  param {
    lr_mult: 1
    decay_mult: 1
  }
  param {
    lr_mult: 2
    decay_mult: 0
  }
  convolution_param {
    num_output: 72
    pad: 1
    kernel_size: 3
    stride: 2
    weight_filler {
      type: "xavier"
    }
    bias_filler {
      type: "constant"
      value: 0
    }
  }
}
layer {
  name: "relu3_1"
  type: "PReLU"
  bottom: "conv3_1"
  top: "conv3_1"
  prelu_param {
    filler {
      type: "gaussian"
      std: 0.03
    }
  }
}
layer {
  name: "res2_5_p"
  type: "Eltwise"
  bottom: "pool2"
  bottom: "conv3_1"
  top: "res2_5_p"
  eltwise_param {
    operation: SUM
  }
}
layer {
  name: "conv3_3"
  type: "Convolution"
  bottom: "res2_5_p"
  top: "conv3_3"
  param {
    lr_mult: 1
    decay_mult: 1
  }
  param {
    lr_mult: 0
    decay_mult: 0
  }
  convolution_param {
    num_output: 72
    pad: 1
    kernel_size: 3
    stride: 1
    weight_filler {
      type: "gaussian"
      std: 0.01
    }
    bias_filler {
      type: "constant"
      value: 0
    }
  }
}
layer {
  name: "relu3_3"
  type: "PReLU"
  bottom: "conv3_3"
  top: "conv3_3"
  prelu_param {
    filler {
      type: "gaussian"
      std: 0.03
    }
  }
}
layer {
  name: "res3_3"
  type: "Eltwise"
  bottom: "res2_5_p"
  bottom: "conv3_3"
  top: "res3_3"
  eltwise_param {
    operation: SUM
  }
}
layer {
  name: "conv3_5"
  type: "Convolution"
  bottom: "res3_3"
  top: "conv3_5"
  param {
    lr_mult: 1
    decay_mult: 1
  }
  param {
    lr_mult: 0
    decay_mult: 0
  }
  convolution_param {
    num_output: 72
    pad: 1
    kernel_size: 3
    stride: 1
    weight_filler {
      type: "gaussian"
      std: 0.01
    }
    bias_filler {
      type: "constant"
      value: 0
    }
  }
}
layer {
  name: "relu3_5"
  type: "PReLU"
  bottom: "conv3_5"
  top: "conv3_5"
  prelu_param {
    filler {
      type: "gaussian"
      std: 0.03
    }
  }
}
layer {
  name: "res3_5"
  type: "Eltwise"
  bottom: "res3_3"
  bottom: "conv3_5"
  top: "res3_5"
  eltwise_param {
    operation: SUM
  }
}
layer {
  name: "res3_5_reduce"
  type: "Convolution"
  bottom: "res3_5"
  top: "res3_5_reduce"
  param {
    lr_mult: 1
    decay_mult: 1
  }
  param {
    lr_mult: 0
    decay_mult: 0
  }
  convolution_param {
    num_output: 144
    kernel_size: 1
    stride: 1
    weight_filler {
      type: "gaussian"
      std: 0.01
    }
    bias_filler {
      type: "constant"
      value: 0
    }
  }
}
layer {
  name: "pool3"
  type: "Pooling"
  bottom: "res3_5_reduce"
  top: "pool3"
  pooling_param {
    pool: MAX
    kernel_size: 2
    stride: 2
  }
}
layer {
  name: "conv4_1"
  type: "Convolution"
  bottom: "res3_5"
  top: "conv4_1"
  param {
    lr_mult: 1
    decay_mult: 1
  }
  param {
    lr_mult: 2
    decay_mult: 0
  }
  convolution_param {
    num_output: 144
    pad: 1
    kernel_size: 3
    stride: 2
    weight_filler {
      type: "xavier"
    }
    bias_filler {
      type: "constant"
      value: 0
    }
  }
}
layer {
  name: "relu4_1"
  type: "PReLU"
  bottom: "conv4_1"
  top: "conv4_1"
  prelu_param {
    filler {
      type: "gaussian"
      std: 0.03
    }
  }
}
layer {
  name: "res3_5_p"
  type: "Eltwise"
  bottom: "pool3"
  bottom: "conv4_1"
  top: "res3_5_p"
  eltwise_param {
    operation: SUM
  }
}
layer {
  name: "conv4_3"
  type: "Convolution"
  bottom: "res3_5_p"
  top: "conv4_3"
  param {
    lr_mult: 1
    decay_mult: 1
  }
  param {
    lr_mult: 0
    decay_mult: 0
  }
  convolution_param {
    num_output: 144
    pad: 1
    kernel_size: 3
    stride: 1
    weight_filler {
      type: "gaussian"
      std: 0.01
    }
    bias_filler {
      type: "constant"
      value: 0
    }
  }
}
layer {
  name: "relu4_3"
  type: "PReLU"
  bottom: "conv4_3"
  top: "conv4_3"
  prelu_param {
    filler {
      type: "gaussian"
      std: 0.03
    }
  }
}
layer {
  name: "res4_3"
  type: "Eltwise"
  bottom: "res3_5_p"
  bottom: "conv4_3"
  top: "res4_3"
  eltwise_param {
    operation: SUM
  }
}
layer {
  name: "fc5"
  type: "InnerProduct"
  bottom: "res4_3"
  top: "fc5"
  param {
    lr_mult: 1
    decay_mult: 1
  }
  param {
    lr_mult: 2
    decay_mult: 0
  }
  inner_product_param {
    num_output: 256
    weight_filler {
      type: "xavier"
    }
    bias_filler {
      type: "constant"
      value: 0
    }
  }
}
layer {
  name: "fc5_bn"
  type: "BatchNorm"
  bottom: "fc5"
  top: "fc5"
  batch_norm_param {
    use_global_stats: false
  }
}
layer {
  name: "norm1"
  type: "Normalize"
  bottom: "fc5"
  top: "norm1"
}
layer {
  name: "fc-6_l2"
  type: "InnerProduct"
  bottom: "norm1"
  top: "fc-6_l2"
  param {
    lr_mult: 1
  }
  inner_product_param {
    num_output: 21331
    bias_term: false
    weight_filler {
      type: "xavier"
    }
    normalize: true
  }
}
layer {
  name: "fc-6_margin"
  type: "LabelSpecificAdd"
  bottom: "fc-6_l2"
  bottom: "label"
  top: "fc-6_margin"
  label_specific_add_param {
    bias: -0.35
  }
}
layer {
  name: "fc-6_margin_scale"
  type: "Scale"
  bottom: "fc-6_margin"
  top: "fc-6_margin_scale"
  param {
    lr_mult: 0
    decay_mult: 0
  }
  scale_param {
    filler {
      type: "constant"
      value: 30
    }
  }
}
layer {
  name: "softmax_loss"
  type: "SoftmaxWithLoss"
  bottom: "fc-6_margin_scale"
  bottom: "label"
  top: "softmax_loss"
}
I0522 21:41:41.379346 26558 layer_factory.hpp:77] Creating layer data
I0522 21:41:41.379614 26558 db_lmdb.cpp:35] Opened lmdb /home/zkx/Data_sdb/TrainData/Data_sdc/Patches/lmdb/fc_0.35_112x96_base-noencode-shuffle_lmdb
I0522 21:41:41.379717 26558 net.cpp:84] Creating Layer data
I0522 21:41:41.382859 26558 net.cpp:380] data -> data
I0522 21:41:41.382937 26558 net.cpp:380] data -> label
I0522 21:41:41.385440 26558 data_layer.cpp:45] output data size: 64,3,112,96
I0522 21:41:41.485353 26558 net.cpp:122] Setting up data
I0522 21:41:41.485404 26558 net.cpp:129] Top shape: 64 3 112 96 (2064384)
I0522 21:41:41.485414 26558 net.cpp:129] Top shape: 64 (64)
I0522 21:41:41.485446 26558 net.cpp:137] Memory required for data: 8257792
I0522 21:41:41.485461 26558 layer_factory.hpp:77] Creating layer label_data_1_split
I0522 21:41:41.485487 26558 net.cpp:84] Creating Layer label_data_1_split
I0522 21:41:41.485496 26558 net.cpp:406] label_data_1_split <- label
I0522 21:41:41.485512 26558 net.cpp:380] label_data_1_split -> label_data_1_split_0
I0522 21:41:41.485527 26558 net.cpp:380] label_data_1_split -> label_data_1_split_1
I0522 21:41:41.485641 26558 net.cpp:122] Setting up label_data_1_split
I0522 21:41:41.485652 26558 net.cpp:129] Top shape: 64 (64)
I0522 21:41:41.485659 26558 net.cpp:129] Top shape: 64 (64)
I0522 21:41:41.485663 26558 net.cpp:137] Memory required for data: 8258304
I0522 21:41:41.485667 26558 layer_factory.hpp:77] Creating layer conv1_1
I0522 21:41:41.485699 26558 net.cpp:84] Creating Layer conv1_1
I0522 21:41:41.485707 26558 net.cpp:406] conv1_1 <- data
I0522 21:41:41.485716 26558 net.cpp:380] conv1_1 -> conv1_1
I0522 21:41:43.084406 26558 net.cpp:122] Setting up conv1_1
I0522 21:41:43.084473 26558 net.cpp:129] Top shape: 64 24 56 48 (4128768)
I0522 21:41:43.084481 26558 net.cpp:137] Memory required for data: 24773376
I0522 21:41:43.084527 26558 layer_factory.hpp:77] Creating layer relu1_1
I0522 21:41:43.084589 26558 net.cpp:84] Creating Layer relu1_1
I0522 21:41:43.084599 26558 net.cpp:406] relu1_1 <- conv1_1
I0522 21:41:43.084609 26558 net.cpp:367] relu1_1 -> conv1_1 (in-place)
I0522 21:41:43.086009 26558 net.cpp:122] Setting up relu1_1
I0522 21:41:43.086025 26558 net.cpp:129] Top shape: 64 24 56 48 (4128768)
I0522 21:41:43.086045 26558 net.cpp:137] Memory required for data: 41288448
I0522 21:41:43.086063 26558 layer_factory.hpp:77] Creating layer conv1_1_relu1_1_0_split
I0522 21:41:43.086114 26558 net.cpp:84] Creating Layer conv1_1_relu1_1_0_split
I0522 21:41:43.086123 26558 net.cpp:406] conv1_1_relu1_1_0_split <- conv1_1
I0522 21:41:43.086145 26558 net.cpp:380] conv1_1_relu1_1_0_split -> conv1_1_relu1_1_0_split_0
I0522 21:41:43.086159 26558 net.cpp:380] conv1_1_relu1_1_0_split -> conv1_1_relu1_1_0_split_1
I0522 21:41:43.086216 26558 net.cpp:122] Setting up conv1_1_relu1_1_0_split
I0522 21:41:43.086225 26558 net.cpp:129] Top shape: 64 24 56 48 (4128768)
I0522 21:41:43.086239 26558 net.cpp:129] Top shape: 64 24 56 48 (4128768)
I0522 21:41:43.086251 26558 net.cpp:137] Memory required for data: 74318592
I0522 21:41:43.086263 26558 layer_factory.hpp:77] Creating layer conv1_3
I0522 21:41:43.086297 26558 net.cpp:84] Creating Layer conv1_3
I0522 21:41:43.086310 26558 net.cpp:406] conv1_3 <- conv1_1_relu1_1_0_split_0
I0522 21:41:43.086324 26558 net.cpp:380] conv1_3 -> conv1_3
I0522 21:41:43.089092 26558 net.cpp:122] Setting up conv1_3
I0522 21:41:43.089110 26558 net.cpp:129] Top shape: 64 24 56 48 (4128768)
I0522 21:41:43.089116 26558 net.cpp:137] Memory required for data: 90833664
I0522 21:41:43.089146 26558 layer_factory.hpp:77] Creating layer relu1_3
I0522 21:41:43.089159 26558 net.cpp:84] Creating Layer relu1_3
I0522 21:41:43.089164 26558 net.cpp:406] relu1_3 <- conv1_3
I0522 21:41:43.089172 26558 net.cpp:367] relu1_3 -> conv1_3 (in-place)
I0522 21:41:43.089318 26558 net.cpp:122] Setting up relu1_3
I0522 21:41:43.089326 26558 net.cpp:129] Top shape: 64 24 56 48 (4128768)
I0522 21:41:43.089330 26558 net.cpp:137] Memory required for data: 107348736
I0522 21:41:43.089335 26558 layer_factory.hpp:77] Creating layer res1_3
I0522 21:41:43.089345 26558 net.cpp:84] Creating Layer res1_3
I0522 21:41:43.089350 26558 net.cpp:406] res1_3 <- conv1_1_relu1_1_0_split_1
I0522 21:41:43.089354 26558 net.cpp:406] res1_3 <- conv1_3
I0522 21:41:43.089360 26558 net.cpp:380] res1_3 -> res1_3
I0522 21:41:43.089390 26558 net.cpp:122] Setting up res1_3
I0522 21:41:43.089396 26558 net.cpp:129] Top shape: 64 24 56 48 (4128768)
I0522 21:41:43.089401 26558 net.cpp:137] Memory required for data: 123863808
I0522 21:41:43.089403 26558 layer_factory.hpp:77] Creating layer res1_3_res1_3_0_split
I0522 21:41:43.089411 26558 net.cpp:84] Creating Layer res1_3_res1_3_0_split
I0522 21:41:43.089435 26558 net.cpp:406] res1_3_res1_3_0_split <- res1_3
I0522 21:41:43.089443 26558 net.cpp:380] res1_3_res1_3_0_split -> res1_3_res1_3_0_split_0
I0522 21:41:43.089450 26558 net.cpp:380] res1_3_res1_3_0_split -> res1_3_res1_3_0_split_1
I0522 21:41:43.089486 26558 net.cpp:122] Setting up res1_3_res1_3_0_split
I0522 21:41:43.089493 26558 net.cpp:129] Top shape: 64 24 56 48 (4128768)
I0522 21:41:43.089498 26558 net.cpp:129] Top shape: 64 24 56 48 (4128768)
I0522 21:41:43.089500 26558 net.cpp:137] Memory required for data: 156893952
I0522 21:41:43.089505 26558 layer_factory.hpp:77] Creating layer res1_3_reduce
I0522 21:41:43.089519 26558 net.cpp:84] Creating Layer res1_3_reduce
I0522 21:41:43.089524 26558 net.cpp:406] res1_3_reduce <- res1_3_res1_3_0_split_0
I0522 21:41:43.089532 26558 net.cpp:380] res1_3_reduce -> res1_3_reduce
I0522 21:41:43.093427 26558 net.cpp:122] Setting up res1_3_reduce
I0522 21:41:43.093443 26558 net.cpp:129] Top shape: 64 48 56 48 (8257536)
I0522 21:41:43.093449 26558 net.cpp:137] Memory required for data: 189924096
I0522 21:41:43.093457 26558 layer_factory.hpp:77] Creating layer pool1
I0522 21:41:43.093473 26558 net.cpp:84] Creating Layer pool1
I0522 21:41:43.093479 26558 net.cpp:406] pool1 <- res1_3_reduce
I0522 21:41:43.093487 26558 net.cpp:380] pool1 -> pool1
I0522 21:41:43.093544 26558 net.cpp:122] Setting up pool1
I0522 21:41:43.093551 26558 net.cpp:129] Top shape: 64 48 28 24 (2064384)
I0522 21:41:43.093555 26558 net.cpp:137] Memory required for data: 198181632
I0522 21:41:43.093559 26558 layer_factory.hpp:77] Creating layer conv2_1
I0522 21:41:43.093572 26558 net.cpp:84] Creating Layer conv2_1
I0522 21:41:43.093578 26558 net.cpp:406] conv2_1 <- res1_3_res1_3_0_split_1
I0522 21:41:43.093586 26558 net.cpp:380] conv2_1 -> conv2_1
I0522 21:41:43.100497 26558 net.cpp:122] Setting up conv2_1
I0522 21:41:43.100513 26558 net.cpp:129] Top shape: 64 48 28 24 (2064384)
I0522 21:41:43.100518 26558 net.cpp:137] Memory required for data: 206439168
I0522 21:41:43.100533 26558 layer_factory.hpp:77] Creating layer relu2_1
I0522 21:41:43.100545 26558 net.cpp:84] Creating Layer relu2_1
I0522 21:41:43.100553 26558 net.cpp:406] relu2_1 <- conv2_1
I0522 21:41:43.100563 26558 net.cpp:367] relu2_1 -> conv2_1 (in-place)
I0522 21:41:43.100678 26558 net.cpp:122] Setting up relu2_1
I0522 21:41:43.100687 26558 net.cpp:129] Top shape: 64 48 28 24 (2064384)
I0522 21:41:43.100693 26558 net.cpp:137] Memory required for data: 214696704
I0522 21:41:43.100702 26558 layer_factory.hpp:77] Creating layer res1_3_p
I0522 21:41:43.100710 26558 net.cpp:84] Creating Layer res1_3_p
I0522 21:41:43.100718 26558 net.cpp:406] res1_3_p <- pool1
I0522 21:41:43.100724 26558 net.cpp:406] res1_3_p <- conv2_1
I0522 21:41:43.100731 26558 net.cpp:380] res1_3_p -> res1_3_p
I0522 21:41:43.100757 26558 net.cpp:122] Setting up res1_3_p
I0522 21:41:43.100764 26558 net.cpp:129] Top shape: 64 48 28 24 (2064384)
I0522 21:41:43.100767 26558 net.cpp:137] Memory required for data: 222954240
I0522 21:41:43.100770 26558 layer_factory.hpp:77] Creating layer res1_3_p_res1_3_p_0_split
I0522 21:41:43.100780 26558 net.cpp:84] Creating Layer res1_3_p_res1_3_p_0_split
I0522 21:41:43.100785 26558 net.cpp:406] res1_3_p_res1_3_p_0_split <- res1_3_p
I0522 21:41:43.100790 26558 net.cpp:380] res1_3_p_res1_3_p_0_split -> res1_3_p_res1_3_p_0_split_0
I0522 21:41:43.100800 26558 net.cpp:380] res1_3_p_res1_3_p_0_split -> res1_3_p_res1_3_p_0_split_1
I0522 21:41:43.100836 26558 net.cpp:122] Setting up res1_3_p_res1_3_p_0_split
I0522 21:41:43.100842 26558 net.cpp:129] Top shape: 64 48 28 24 (2064384)
I0522 21:41:43.100850 26558 net.cpp:129] Top shape: 64 48 28 24 (2064384)
I0522 21:41:43.100857 26558 net.cpp:137] Memory required for data: 239469312
I0522 21:41:43.100860 26558 layer_factory.hpp:77] Creating layer conv2_3
I0522 21:41:43.100877 26558 net.cpp:84] Creating Layer conv2_3
I0522 21:41:43.100881 26558 net.cpp:406] conv2_3 <- res1_3_p_res1_3_p_0_split_0
I0522 21:41:43.100888 26558 net.cpp:380] conv2_3 -> conv2_3
I0522 21:41:43.107148 26558 net.cpp:122] Setting up conv2_3
I0522 21:41:43.107178 26558 net.cpp:129] Top shape: 64 48 28 24 (2064384)
I0522 21:41:43.107188 26558 net.cpp:137] Memory required for data: 247726848
I0522 21:41:43.107203 26558 layer_factory.hpp:77] Creating layer relu2_3
I0522 21:41:43.107218 26558 net.cpp:84] Creating Layer relu2_3
I0522 21:41:43.107223 26558 net.cpp:406] relu2_3 <- conv2_3
I0522 21:41:43.107231 26558 net.cpp:367] relu2_3 -> conv2_3 (in-place)
I0522 21:41:43.107355 26558 net.cpp:122] Setting up relu2_3
I0522 21:41:43.107364 26558 net.cpp:129] Top shape: 64 48 28 24 (2064384)
I0522 21:41:43.107367 26558 net.cpp:137] Memory required for data: 255984384
I0522 21:41:43.107373 26558 layer_factory.hpp:77] Creating layer res2_3
I0522 21:41:43.107380 26558 net.cpp:84] Creating Layer res2_3
I0522 21:41:43.107385 26558 net.cpp:406] res2_3 <- res1_3_p_res1_3_p_0_split_1
I0522 21:41:43.107390 26558 net.cpp:406] res2_3 <- conv2_3
I0522 21:41:43.107398 26558 net.cpp:380] res2_3 -> res2_3
I0522 21:41:43.107424 26558 net.cpp:122] Setting up res2_3
I0522 21:41:43.107430 26558 net.cpp:129] Top shape: 64 48 28 24 (2064384)
I0522 21:41:43.107434 26558 net.cpp:137] Memory required for data: 264241920
I0522 21:41:43.107436 26558 layer_factory.hpp:77] Creating layer res2_3_res2_3_0_split
I0522 21:41:43.107442 26558 net.cpp:84] Creating Layer res2_3_res2_3_0_split
I0522 21:41:43.107446 26558 net.cpp:406] res2_3_res2_3_0_split <- res2_3
I0522 21:41:43.107451 26558 net.cpp:380] res2_3_res2_3_0_split -> res2_3_res2_3_0_split_0
I0522 21:41:43.107457 26558 net.cpp:380] res2_3_res2_3_0_split -> res2_3_res2_3_0_split_1
I0522 21:41:43.107491 26558 net.cpp:122] Setting up res2_3_res2_3_0_split
I0522 21:41:43.107497 26558 net.cpp:129] Top shape: 64 48 28 24 (2064384)
I0522 21:41:43.107501 26558 net.cpp:129] Top shape: 64 48 28 24 (2064384)
I0522 21:41:43.107504 26558 net.cpp:137] Memory required for data: 280756992
I0522 21:41:43.107511 26558 layer_factory.hpp:77] Creating layer conv2_5
I0522 21:41:43.107528 26558 net.cpp:84] Creating Layer conv2_5
I0522 21:41:43.107533 26558 net.cpp:406] conv2_5 <- res2_3_res2_3_0_split_0
I0522 21:41:43.107542 26558 net.cpp:380] conv2_5 -> conv2_5
I0522 21:41:43.110673 26558 net.cpp:122] Setting up conv2_5
I0522 21:41:43.110692 26558 net.cpp:129] Top shape: 64 48 28 24 (2064384)
I0522 21:41:43.110708 26558 net.cpp:137] Memory required for data: 289014528
I0522 21:41:43.110716 26558 layer_factory.hpp:77] Creating layer relu2_5
I0522 21:41:43.110729 26558 net.cpp:84] Creating Layer relu2_5
I0522 21:41:43.110738 26558 net.cpp:406] relu2_5 <- conv2_5
I0522 21:41:43.110750 26558 net.cpp:367] relu2_5 -> conv2_5 (in-place)
I0522 21:41:43.110890 26558 net.cpp:122] Setting up relu2_5
I0522 21:41:43.110906 26558 net.cpp:129] Top shape: 64 48 28 24 (2064384)
I0522 21:41:43.110911 26558 net.cpp:137] Memory required for data: 297272064
I0522 21:41:43.110924 26558 layer_factory.hpp:77] Creating layer res2_5
I0522 21:41:43.110932 26558 net.cpp:84] Creating Layer res2_5
I0522 21:41:43.110937 26558 net.cpp:406] res2_5 <- res2_3_res2_3_0_split_1
I0522 21:41:43.110942 26558 net.cpp:406] res2_5 <- conv2_5
I0522 21:41:43.110949 26558 net.cpp:380] res2_5 -> res2_5
I0522 21:41:43.110975 26558 net.cpp:122] Setting up res2_5
I0522 21:41:43.110982 26558 net.cpp:129] Top shape: 64 48 28 24 (2064384)
I0522 21:41:43.110985 26558 net.cpp:137] Memory required for data: 305529600
I0522 21:41:43.110992 26558 layer_factory.hpp:77] Creating layer res2_5_res2_5_0_split
I0522 21:41:43.111002 26558 net.cpp:84] Creating Layer res2_5_res2_5_0_split
I0522 21:41:43.111006 26558 net.cpp:406] res2_5_res2_5_0_split <- res2_5
I0522 21:41:43.111012 26558 net.cpp:380] res2_5_res2_5_0_split -> res2_5_res2_5_0_split_0
I0522 21:41:43.111018 26558 net.cpp:380] res2_5_res2_5_0_split -> res2_5_res2_5_0_split_1
I0522 21:41:43.111050 26558 net.cpp:122] Setting up res2_5_res2_5_0_split
I0522 21:41:43.111062 26558 net.cpp:129] Top shape: 64 48 28 24 (2064384)
I0522 21:41:43.111068 26558 net.cpp:129] Top shape: 64 48 28 24 (2064384)
I0522 21:41:43.111070 26558 net.cpp:137] Memory required for data: 322044672
I0522 21:41:43.111088 26558 layer_factory.hpp:77] Creating layer res2_5_reduce
I0522 21:41:43.111100 26558 net.cpp:84] Creating Layer res2_5_reduce
I0522 21:41:43.111106 26558 net.cpp:406] res2_5_reduce <- res2_5_res2_5_0_split_0
I0522 21:41:43.111114 26558 net.cpp:380] res2_5_reduce -> res2_5_reduce
I0522 21:41:43.115350 26558 net.cpp:122] Setting up res2_5_reduce
I0522 21:41:43.115377 26558 net.cpp:129] Top shape: 64 72 28 24 (3096576)
I0522 21:41:43.115383 26558 net.cpp:137] Memory required for data: 334430976
I0522 21:41:43.115391 26558 layer_factory.hpp:77] Creating layer pool2
I0522 21:41:43.115402 26558 net.cpp:84] Creating Layer pool2
I0522 21:41:43.115408 26558 net.cpp:406] pool2 <- res2_5_reduce
I0522 21:41:43.115414 26558 net.cpp:380] pool2 -> pool2
I0522 21:41:43.115473 26558 net.cpp:122] Setting up pool2
I0522 21:41:43.115479 26558 net.cpp:129] Top shape: 64 72 14 12 (774144)
I0522 21:41:43.115484 26558 net.cpp:137] Memory required for data: 337527552
I0522 21:41:43.115489 26558 layer_factory.hpp:77] Creating layer conv3_1
I0522 21:41:43.115504 26558 net.cpp:84] Creating Layer conv3_1
I0522 21:41:43.115509 26558 net.cpp:406] conv3_1 <- res2_5_res2_5_0_split_1
I0522 21:41:43.115519 26558 net.cpp:380] conv3_1 -> conv3_1
I0522 21:41:43.120978 26558 net.cpp:122] Setting up conv3_1
I0522 21:41:43.121001 26558 net.cpp:129] Top shape: 64 72 14 12 (774144)
I0522 21:41:43.121006 26558 net.cpp:137] Memory required for data: 340624128
I0522 21:41:43.121016 26558 layer_factory.hpp:77] Creating layer relu3_1
I0522 21:41:43.121024 26558 net.cpp:84] Creating Layer relu3_1
I0522 21:41:43.121029 26558 net.cpp:406] relu3_1 <- conv3_1
I0522 21:41:43.121035 26558 net.cpp:367] relu3_1 -> conv3_1 (in-place)
I0522 21:41:43.121157 26558 net.cpp:122] Setting up relu3_1
I0522 21:41:43.121166 26558 net.cpp:129] Top shape: 64 72 14 12 (774144)
I0522 21:41:43.121171 26558 net.cpp:137] Memory required for data: 343720704
I0522 21:41:43.121176 26558 layer_factory.hpp:77] Creating layer res2_5_p
I0522 21:41:43.121186 26558 net.cpp:84] Creating Layer res2_5_p
I0522 21:41:43.121193 26558 net.cpp:406] res2_5_p <- pool2
I0522 21:41:43.121203 26558 net.cpp:406] res2_5_p <- conv3_1
I0522 21:41:43.121213 26558 net.cpp:380] res2_5_p -> res2_5_p
I0522 21:41:43.121239 26558 net.cpp:122] Setting up res2_5_p
I0522 21:41:43.121246 26558 net.cpp:129] Top shape: 64 72 14 12 (774144)
I0522 21:41:43.121249 26558 net.cpp:137] Memory required for data: 346817280
I0522 21:41:43.121253 26558 layer_factory.hpp:77] Creating layer res2_5_p_res2_5_p_0_split
I0522 21:41:43.121259 26558 net.cpp:84] Creating Layer res2_5_p_res2_5_p_0_split
I0522 21:41:43.121263 26558 net.cpp:406] res2_5_p_res2_5_p_0_split <- res2_5_p
I0522 21:41:43.121269 26558 net.cpp:380] res2_5_p_res2_5_p_0_split -> res2_5_p_res2_5_p_0_split_0
I0522 21:41:43.121276 26558 net.cpp:380] res2_5_p_res2_5_p_0_split -> res2_5_p_res2_5_p_0_split_1
I0522 21:41:43.121315 26558 net.cpp:122] Setting up res2_5_p_res2_5_p_0_split
I0522 21:41:43.121322 26558 net.cpp:129] Top shape: 64 72 14 12 (774144)
I0522 21:41:43.121326 26558 net.cpp:129] Top shape: 64 72 14 12 (774144)
I0522 21:41:43.121330 26558 net.cpp:137] Memory required for data: 353010432
I0522 21:41:43.121333 26558 layer_factory.hpp:77] Creating layer conv3_3
I0522 21:41:43.121348 26558 net.cpp:84] Creating Layer conv3_3
I0522 21:41:43.121356 26558 net.cpp:406] conv3_3 <- res2_5_p_res2_5_p_0_split_0
I0522 21:41:43.121369 26558 net.cpp:380] conv3_3 -> conv3_3
I0522 21:41:43.123994 26558 net.cpp:122] Setting up conv3_3
I0522 21:41:43.124012 26558 net.cpp:129] Top shape: 64 72 14 12 (774144)
I0522 21:41:43.124027 26558 net.cpp:137] Memory required for data: 356107008
I0522 21:41:43.124043 26558 layer_factory.hpp:77] Creating layer relu3_3
I0522 21:41:43.124058 26558 net.cpp:84] Creating Layer relu3_3
I0522 21:41:43.124065 26558 net.cpp:406] relu3_3 <- conv3_3
I0522 21:41:43.124076 26558 net.cpp:367] relu3_3 -> conv3_3 (in-place)
I0522 21:41:43.124217 26558 net.cpp:122] Setting up relu3_3
I0522 21:41:43.124225 26558 net.cpp:129] Top shape: 64 72 14 12 (774144)
I0522 21:41:43.124249 26558 net.cpp:137] Memory required for data: 359203584
I0522 21:41:43.124261 26558 layer_factory.hpp:77] Creating layer res3_3
I0522 21:41:43.124276 26558 net.cpp:84] Creating Layer res3_3
I0522 21:41:43.124282 26558 net.cpp:406] res3_3 <- res2_5_p_res2_5_p_0_split_1
I0522 21:41:43.124289 26558 net.cpp:406] res3_3 <- conv3_3
I0522 21:41:43.124297 26558 net.cpp:380] res3_3 -> res3_3
I0522 21:41:43.124343 26558 net.cpp:122] Setting up res3_3
I0522 21:41:43.124353 26558 net.cpp:129] Top shape: 64 72 14 12 (774144)
I0522 21:41:43.124357 26558 net.cpp:137] Memory required for data: 362300160
I0522 21:41:43.124361 26558 layer_factory.hpp:77] Creating layer res3_3_res3_3_0_split
I0522 21:41:43.124372 26558 net.cpp:84] Creating Layer res3_3_res3_3_0_split
I0522 21:41:43.124375 26558 net.cpp:406] res3_3_res3_3_0_split <- res3_3
I0522 21:41:43.124382 26558 net.cpp:380] res3_3_res3_3_0_split -> res3_3_res3_3_0_split_0
I0522 21:41:43.124392 26558 net.cpp:380] res3_3_res3_3_0_split -> res3_3_res3_3_0_split_1
I0522 21:41:43.124445 26558 net.cpp:122] Setting up res3_3_res3_3_0_split
I0522 21:41:43.124452 26558 net.cpp:129] Top shape: 64 72 14 12 (774144)
I0522 21:41:43.124460 26558 net.cpp:129] Top shape: 64 72 14 12 (774144)
I0522 21:41:43.124466 26558 net.cpp:137] Memory required for data: 368493312
I0522 21:41:43.124471 26558 layer_factory.hpp:77] Creating layer conv3_5
I0522 21:41:43.124487 26558 net.cpp:84] Creating Layer conv3_5
I0522 21:41:43.124495 26558 net.cpp:406] conv3_5 <- res3_3_res3_3_0_split_0
I0522 21:41:43.124506 26558 net.cpp:380] conv3_5 -> conv3_5
I0522 21:41:43.126991 26558 net.cpp:122] Setting up conv3_5
I0522 21:41:43.127013 26558 net.cpp:129] Top shape: 64 72 14 12 (774144)
I0522 21:41:43.127019 26558 net.cpp:137] Memory required for data: 371589888
I0522 21:41:43.127027 26558 layer_factory.hpp:77] Creating layer relu3_5
I0522 21:41:43.127037 26558 net.cpp:84] Creating Layer relu3_5
I0522 21:41:43.127043 26558 net.cpp:406] relu3_5 <- conv3_5
I0522 21:41:43.127050 26558 net.cpp:367] relu3_5 -> conv3_5 (in-place)
I0522 21:41:43.127173 26558 net.cpp:122] Setting up relu3_5
I0522 21:41:43.127182 26558 net.cpp:129] Top shape: 64 72 14 12 (774144)
I0522 21:41:43.127185 26558 net.cpp:137] Memory required for data: 374686464
I0522 21:41:43.127190 26558 layer_factory.hpp:77] Creating layer res3_5
I0522 21:41:43.127198 26558 net.cpp:84] Creating Layer res3_5
I0522 21:41:43.127203 26558 net.cpp:406] res3_5 <- res3_3_res3_3_0_split_1
I0522 21:41:43.127207 26558 net.cpp:406] res3_5 <- conv3_5
I0522 21:41:43.127213 26558 net.cpp:380] res3_5 -> res3_5
I0522 21:41:43.127244 26558 net.cpp:122] Setting up res3_5
I0522 21:41:43.127251 26558 net.cpp:129] Top shape: 64 72 14 12 (774144)
I0522 21:41:43.127255 26558 net.cpp:137] Memory required for data: 377783040
I0522 21:41:43.127259 26558 layer_factory.hpp:77] Creating layer res3_5_res3_5_0_split
I0522 21:41:43.127264 26558 net.cpp:84] Creating Layer res3_5_res3_5_0_split
I0522 21:41:43.127269 26558 net.cpp:406] res3_5_res3_5_0_split <- res3_5
I0522 21:41:43.127274 26558 net.cpp:380] res3_5_res3_5_0_split -> res3_5_res3_5_0_split_0
I0522 21:41:43.127281 26558 net.cpp:380] res3_5_res3_5_0_split -> res3_5_res3_5_0_split_1
I0522 21:41:43.127313 26558 net.cpp:122] Setting up res3_5_res3_5_0_split
I0522 21:41:43.127321 26558 net.cpp:129] Top shape: 64 72 14 12 (774144)
I0522 21:41:43.127326 26558 net.cpp:129] Top shape: 64 72 14 12 (774144)
I0522 21:41:43.127333 26558 net.cpp:137] Memory required for data: 383976192
I0522 21:41:43.127341 26558 layer_factory.hpp:77] Creating layer res3_5_reduce
I0522 21:41:43.127353 26558 net.cpp:84] Creating Layer res3_5_reduce
I0522 21:41:43.127358 26558 net.cpp:406] res3_5_reduce <- res3_5_res3_5_0_split_0
I0522 21:41:43.127365 26558 net.cpp:380] res3_5_reduce -> res3_5_reduce
I0522 21:41:43.129088 26558 net.cpp:122] Setting up res3_5_reduce
I0522 21:41:43.129117 26558 net.cpp:129] Top shape: 64 144 14 12 (1548288)
I0522 21:41:43.129127 26558 net.cpp:137] Memory required for data: 390169344
I0522 21:41:43.129142 26558 layer_factory.hpp:77] Creating layer pool3
I0522 21:41:43.129169 26558 net.cpp:84] Creating Layer pool3
I0522 21:41:43.129182 26558 net.cpp:406] pool3 <- res3_5_reduce
I0522 21:41:43.129199 26558 net.cpp:380] pool3 -> pool3
I0522 21:41:43.129273 26558 net.cpp:122] Setting up pool3
I0522 21:41:43.129281 26558 net.cpp:129] Top shape: 64 144 7 6 (387072)
I0522 21:41:43.129285 26558 net.cpp:137] Memory required for data: 391717632
I0522 21:41:43.129297 26558 layer_factory.hpp:77] Creating layer conv4_1
I0522 21:41:43.129320 26558 net.cpp:84] Creating Layer conv4_1
I0522 21:41:43.129330 26558 net.cpp:406] conv4_1 <- res3_5_res3_5_0_split_1
I0522 21:41:43.129343 26558 net.cpp:380] conv4_1 -> conv4_1
I0522 21:41:43.136622 26558 net.cpp:122] Setting up conv4_1
I0522 21:41:43.136667 26558 net.cpp:129] Top shape: 64 144 7 6 (387072)
I0522 21:41:43.136675 26558 net.cpp:137] Memory required for data: 393265920
I0522 21:41:43.136688 26558 layer_factory.hpp:77] Creating layer relu4_1
I0522 21:41:43.136704 26558 net.cpp:84] Creating Layer relu4_1
I0522 21:41:43.136714 26558 net.cpp:406] relu4_1 <- conv4_1
I0522 21:41:43.136732 26558 net.cpp:367] relu4_1 -> conv4_1 (in-place)
I0522 21:41:43.136878 26558 net.cpp:122] Setting up relu4_1
I0522 21:41:43.136900 26558 net.cpp:129] Top shape: 64 144 7 6 (387072)
I0522 21:41:43.136906 26558 net.cpp:137] Memory required for data: 394814208
I0522 21:41:43.136920 26558 layer_factory.hpp:77] Creating layer res3_5_p
I0522 21:41:43.136929 26558 net.cpp:84] Creating Layer res3_5_p
I0522 21:41:43.136934 26558 net.cpp:406] res3_5_p <- pool3
I0522 21:41:43.136945 26558 net.cpp:406] res3_5_p <- conv4_1
I0522 21:41:43.136958 26558 net.cpp:380] res3_5_p -> res3_5_p
I0522 21:41:43.136993 26558 net.cpp:122] Setting up res3_5_p
I0522 21:41:43.137001 26558 net.cpp:129] Top shape: 64 144 7 6 (387072)
I0522 21:41:43.137003 26558 net.cpp:137] Memory required for data: 396362496
I0522 21:41:43.137013 26558 layer_factory.hpp:77] Creating layer res3_5_p_res3_5_p_0_split
I0522 21:41:43.137025 26558 net.cpp:84] Creating Layer res3_5_p_res3_5_p_0_split
I0522 21:41:43.137034 26558 net.cpp:406] res3_5_p_res3_5_p_0_split <- res3_5_p
I0522 21:41:43.137051 26558 net.cpp:380] res3_5_p_res3_5_p_0_split -> res3_5_p_res3_5_p_0_split_0
I0522 21:41:43.137068 26558 net.cpp:380] res3_5_p_res3_5_p_0_split -> res3_5_p_res3_5_p_0_split_1
I0522 21:41:43.137145 26558 net.cpp:122] Setting up res3_5_p_res3_5_p_0_split
I0522 21:41:43.137157 26558 net.cpp:129] Top shape: 64 144 7 6 (387072)
I0522 21:41:43.137166 26558 net.cpp:129] Top shape: 64 144 7 6 (387072)
I0522 21:41:43.137173 26558 net.cpp:137] Memory required for data: 399459072
I0522 21:41:43.137177 26558 layer_factory.hpp:77] Creating layer conv4_3
I0522 21:41:43.137192 26558 net.cpp:84] Creating Layer conv4_3
I0522 21:41:43.137202 26558 net.cpp:406] conv4_3 <- res3_5_p_res3_5_p_0_split_0
I0522 21:41:43.137212 26558 net.cpp:380] conv4_3 -> conv4_3
I0522 21:41:43.143632 26558 net.cpp:122] Setting up conv4_3
I0522 21:41:43.143648 26558 net.cpp:129] Top shape: 64 144 7 6 (387072)
I0522 21:41:43.143683 26558 net.cpp:137] Memory required for data: 401007360
I0522 21:41:43.143694 26558 layer_factory.hpp:77] Creating layer relu4_3
I0522 21:41:43.143705 26558 net.cpp:84] Creating Layer relu4_3
I0522 21:41:43.143712 26558 net.cpp:406] relu4_3 <- conv4_3
I0522 21:41:43.143718 26558 net.cpp:367] relu4_3 -> conv4_3 (in-place)
I0522 21:41:43.143834 26558 net.cpp:122] Setting up relu4_3
I0522 21:41:43.143843 26558 net.cpp:129] Top shape: 64 144 7 6 (387072)
I0522 21:41:43.143847 26558 net.cpp:137] Memory required for data: 402555648
I0522 21:41:43.143853 26558 layer_factory.hpp:77] Creating layer res4_3
I0522 21:41:43.143862 26558 net.cpp:84] Creating Layer res4_3
I0522 21:41:43.143867 26558 net.cpp:406] res4_3 <- res3_5_p_res3_5_p_0_split_1
I0522 21:41:43.143872 26558 net.cpp:406] res4_3 <- conv4_3
I0522 21:41:43.143878 26558 net.cpp:380] res4_3 -> res4_3
I0522 21:41:43.143916 26558 net.cpp:122] Setting up res4_3
I0522 21:41:43.143923 26558 net.cpp:129] Top shape: 64 144 7 6 (387072)
I0522 21:41:43.143939 26558 net.cpp:137] Memory required for data: 404103936
I0522 21:41:43.143942 26558 layer_factory.hpp:77] Creating layer fc5
I0522 21:41:43.143961 26558 net.cpp:84] Creating Layer fc5
I0522 21:41:43.143967 26558 net.cpp:406] fc5 <- res4_3
I0522 21:41:43.143976 26558 net.cpp:380] fc5 -> fc5
I0522 21:41:43.157896 26558 net.cpp:122] Setting up fc5
I0522 21:41:43.157913 26558 net.cpp:129] Top shape: 64 256 (16384)
I0522 21:41:43.157917 26558 net.cpp:137] Memory required for data: 404169472
I0522 21:41:43.157928 26558 layer_factory.hpp:77] Creating layer fc5_bn
I0522 21:41:43.157948 26558 net.cpp:84] Creating Layer fc5_bn
I0522 21:41:43.157954 26558 net.cpp:406] fc5_bn <- fc5
I0522 21:41:43.157963 26558 net.cpp:367] fc5_bn -> fc5 (in-place)
I0522 21:41:43.158165 26558 net.cpp:122] Setting up fc5_bn
I0522 21:41:43.158174 26558 net.cpp:129] Top shape: 64 256 (16384)
I0522 21:41:43.158179 26558 net.cpp:137] Memory required for data: 404235008
I0522 21:41:43.158186 26558 layer_factory.hpp:77] Creating layer norm1
I0522 21:41:43.158200 26558 net.cpp:84] Creating Layer norm1
I0522 21:41:43.158205 26558 net.cpp:406] norm1 <- fc5
I0522 21:41:43.158211 26558 net.cpp:380] norm1 -> norm1
I0522 21:41:43.158278 26558 net.cpp:122] Setting up norm1
I0522 21:41:43.158285 26558 net.cpp:129] Top shape: 64 256 1 1 (16384)
I0522 21:41:43.158293 26558 net.cpp:137] Memory required for data: 404300544
I0522 21:41:43.158299 26558 layer_factory.hpp:77] Creating layer fc-6_l2
I0522 21:41:43.158310 26558 net.cpp:84] Creating Layer fc-6_l2
I0522 21:41:43.158316 26558 net.cpp:406] fc-6_l2 <- norm1
I0522 21:41:43.158327 26558 net.cpp:380] fc-6_l2 -> fc-6_l2
I0522 21:41:43.208570 26558 net.cpp:122] Setting up fc-6_l2
I0522 21:41:43.208602 26558 net.cpp:129] Top shape: 64 21331 (1365184)
I0522 21:41:43.208607 26558 net.cpp:137] Memory required for data: 409761280
I0522 21:41:43.208616 26558 layer_factory.hpp:77] Creating layer fc-6_margin
I0522 21:41:43.208642 26558 net.cpp:84] Creating Layer fc-6_margin
I0522 21:41:43.208649 26558 net.cpp:406] fc-6_margin <- fc-6_l2
I0522 21:41:43.208657 26558 net.cpp:406] fc-6_margin <- label_data_1_split_0
I0522 21:41:43.208665 26558 net.cpp:380] fc-6_margin -> fc-6_margin
I0522 21:41:43.208708 26558 net.cpp:122] Setting up fc-6_margin
I0522 21:41:43.208714 26558 net.cpp:129] Top shape: 64 21331 (1365184)
I0522 21:41:43.208719 26558 net.cpp:137] Memory required for data: 415222016
I0522 21:41:43.208722 26558 layer_factory.hpp:77] Creating layer fc-6_margin_scale
I0522 21:41:43.208748 26558 net.cpp:84] Creating Layer fc-6_margin_scale
I0522 21:41:43.208755 26558 net.cpp:406] fc-6_margin_scale <- fc-6_margin
I0522 21:41:43.208765 26558 net.cpp:380] fc-6_margin_scale -> fc-6_margin_scale
I0522 21:41:43.208948 26558 net.cpp:122] Setting up fc-6_margin_scale
I0522 21:41:43.208958 26558 net.cpp:129] Top shape: 64 21331 (1365184)
I0522 21:41:43.208964 26558 net.cpp:137] Memory required for data: 420682752
I0522 21:41:43.208973 26558 layer_factory.hpp:77] Creating layer softmax_loss
I0522 21:41:43.208984 26558 net.cpp:84] Creating Layer softmax_loss
I0522 21:41:43.208992 26558 net.cpp:406] softmax_loss <- fc-6_margin_scale
I0522 21:41:43.208997 26558 net.cpp:406] softmax_loss <- label_data_1_split_1
I0522 21:41:43.209007 26558 net.cpp:380] softmax_loss -> softmax_loss
…
