…
I0522 10:53:50.569681 21771 solver.cpp:102] Creating training net from net file: models/AdditMarginLmdbNoE/AdditMarginLmdbNoE-b0.35s30_fc_0.35_112x96_faceNet-20-light2s4-bn/train.prototxt
I0522 10:53:50.572129 21771 net.cpp:51] Initializing net from parameters: 
name: "2018-05-22_AdditMarginLmdbNoE-b0.35s30_fc_0.35_112x96_faceNet-20-light2s4-bn_zkx_train"
state {
  phase: TRAIN
  level: 0
  stage: ""
}
layer {
  name: "data"
  type: "Data"
  top: "data"
  top: "label"
  data_param {
    source: "/home/zkx/Data_sdb/TrainData/Data_sdc/Patches/shot_Oriental_Age_Lan_DHUA_PAKJ_Indon_Migrant_celeb/fc_0.35_112x96-train-noencode-shuffle_lmdb"
    batch_size: 64
    backend: LMDB
  }
}
layer {
  name: "conv1_1"
  type: "Convolution"
  bottom: "data"
  top: "conv1_1"
  param {
    lr_mult: 1
    decay_mult: 1
  }
  param {
    lr_mult: 2
    decay_mult: 0
  }
  convolution_param {
    num_output: 24
    pad: 1
    kernel_size: 3
    stride: 2
    weight_filler {
      type: "xavier"
    }
    bias_filler {
      type: "constant"
      value: 0
    }
  }
}
layer {
  name: "relu1_1"
  type: "PReLU"
  bottom: "conv1_1"
  top: "conv1_1"
  prelu_param {
    filler {
      type: "gaussian"
      std: 0.03
    }
  }
}
layer {
  name: "conv1_3"
  type: "Convolution"
  bottom: "conv1_1"
  top: "conv1_3"
  param {
    lr_mult: 1
    decay_mult: 1
  }
  param {
    lr_mult: 0
    decay_mult: 0
  }
  convolution_param {
    num_output: 24
    pad: 1
    kernel_size: 3
    stride: 1
    weight_filler {
      type: "gaussian"
      std: 0.01
    }
    bias_filler {
      type: "constant"
      value: 0
    }
  }
}
layer {
  name: "relu1_3"
  type: "PReLU"
  bottom: "conv1_3"
  top: "conv1_3"
  prelu_param {
    filler {
      type: "gaussian"
      std: 0.03
    }
  }
}
layer {
  name: "res1_3"
  type: "Eltwise"
  bottom: "conv1_1"
  bottom: "conv1_3"
  top: "res1_3"
  eltwise_param {
    operation: SUM
  }
}
layer {
  name: "res1_3_reduce"
  type: "Convolution"
  bottom: "res1_3"
  top: "res1_3_reduce"
  param {
    lr_mult: 1
    decay_mult: 1
  }
  param {
    lr_mult: 0
    decay_mult: 0
  }
  convolution_param {
    num_output: 48
    kernel_size: 1
    stride: 1
    weight_filler {
      type: "gaussian"
      std: 0.01
    }
    bias_filler {
      type: "constant"
      value: 0
    }
  }
}
layer {
  name: "pool1"
  type: "Pooling"
  bottom: "res1_3_reduce"
  top: "pool1"
  pooling_param {
    pool: MAX
    kernel_size: 2
    stride: 2
  }
}
layer {
  name: "conv2_1"
  type: "Convolution"
  bottom: "res1_3"
  top: "conv2_1"
  param {
    lr_mult: 1
    decay_mult: 1
  }
  param {
    lr_mult: 2
    decay_mult: 0
  }
  convolution_param {
    num_output: 48
    pad: 1
    kernel_size: 3
    stride: 2
    weight_filler {
      type: "xavier"
    }
    bias_filler {
      type: "constant"
      value: 0
    }
  }
}
layer {
  name: "relu2_1"
  type: "PReLU"
  bottom: "conv2_1"
  top: "conv2_1"
  prelu_param {
    filler {
      type: "gaussian"
      std: 0.03
    }
  }
}
layer {
  name: "res1_3_p"
  type: "Eltwise"
  bottom: "pool1"
  bottom: "conv2_1"
  top: "res1_3_p"
  eltwise_param {
    operation: SUM
  }
}
layer {
  name: "conv2_3"
  type: "Convolution"
  bottom: "res1_3_p"
  top: "conv2_3"
  param {
    lr_mult: 1
    decay_mult: 1
  }
  param {
    lr_mult: 0
    decay_mult: 0
  }
  convolution_param {
    num_output: 48
    pad: 1
    kernel_size: 3
    stride: 1
    weight_filler {
      type: "gaussian"
      std: 0.01
    }
    bias_filler {
      type: "constant"
      value: 0
    }
  }
}
layer {
  name: "relu2_3"
  type: "PReLU"
  bottom: "conv2_3"
  top: "conv2_3"
  prelu_param {
    filler {
      type: "gaussian"
      std: 0.03
    }
  }
}
layer {
  name: "res2_3"
  type: "Eltwise"
  bottom: "res1_3_p"
  bottom: "conv2_3"
  top: "res2_3"
  eltwise_param {
    operation: SUM
  }
}
layer {
  name: "conv2_5"
  type: "Convolution"
  bottom: "res2_3"
  top: "conv2_5"
  param {
    lr_mult: 1
    decay_mult: 1
  }
  param {
    lr_mult: 0
    decay_mult: 0
  }
  convolution_param {
    num_output: 48
    pad: 1
    kernel_size: 3
    stride: 1
    weight_filler {
      type: "gaussian"
      std: 0.01
    }
    bias_filler {
      type: "constant"
      value: 0
    }
  }
}
layer {
  name: "relu2_5"
  type: "PReLU"
  bottom: "conv2_5"
  top: "conv2_5"
  prelu_param {
    filler {
      type: "gaussian"
      std: 0.03
    }
  }
}
layer {
  name: "res2_5"
  type: "Eltwise"
  bottom: "res2_3"
  bottom: "conv2_5"
  top: "res2_5"
  eltwise_param {
    operation: SUM
  }
}
layer {
  name: "res2_5_reduce"
  type: "Convolution"
  bottom: "res2_5"
  top: "res2_5_reduce"
  param {
    lr_mult: 1
    decay_mult: 1
  }
  param {
    lr_mult: 0
    decay_mult: 0
  }
  convolution_param {
    num_output: 72
    kernel_size: 1
    stride: 1
    weight_filler {
      type: "gaussian"
      std: 0.01
    }
    bias_filler {
      type: "constant"
      value: 0
    }
  }
}
layer {
  name: "pool2"
  type: "Pooling"
  bottom: "res2_5_reduce"
  top: "pool2"
  pooling_param {
    pool: MAX
    kernel_size: 2
    stride: 2
  }
}
layer {
  name: "conv3_1"
  type: "Convolution"
  bottom: "res2_5"
  top: "conv3_1"
  param {
    lr_mult: 1
    decay_mult: 1
  }
  param {
    lr_mult: 2
    decay_mult: 0
  }
  convolution_param {
    num_output: 72
    pad: 1
    kernel_size: 3
    stride: 2
    weight_filler {
      type: "xavier"
    }
    bias_filler {
      type: "constant"
      value: 0
    }
  }
}
layer {
  name: "relu3_1"
  type: "PReLU"
  bottom: "conv3_1"
  top: "conv3_1"
  prelu_param {
    filler {
      type: "gaussian"
      std: 0.03
    }
  }
}
layer {
  name: "res2_5_p"
  type: "Eltwise"
  bottom: "pool2"
  bottom: "conv3_1"
  top: "res2_5_p"
  eltwise_param {
    operation: SUM
  }
}
layer {
  name: "conv3_3"
  type: "Convolution"
  bottom: "res2_5_p"
  top: "conv3_3"
  param {
    lr_mult: 1
    decay_mult: 1
  }
  param {
    lr_mult: 0
    decay_mult: 0
  }
  convolution_param {
    num_output: 72
    pad: 1
    kernel_size: 3
    stride: 1
    weight_filler {
      type: "gaussian"
      std: 0.01
    }
    bias_filler {
      type: "constant"
      value: 0
    }
  }
}
layer {
  name: "relu3_3"
  type: "PReLU"
  bottom: "conv3_3"
  top: "conv3_3"
  prelu_param {
    filler {
      type: "gaussian"
      std: 0.03
    }
  }
}
layer {
  name: "res3_3"
  type: "Eltwise"
  bottom: "res2_5_p"
  bottom: "conv3_3"
  top: "res3_3"
  eltwise_param {
    operation: SUM
  }
}
layer {
  name: "conv3_5"
  type: "Convolution"
  bottom: "res3_3"
  top: "conv3_5"
  param {
    lr_mult: 1
    decay_mult: 1
  }
  param {
    lr_mult: 0
    decay_mult: 0
  }
  convolution_param {
    num_output: 72
    pad: 1
    kernel_size: 3
    stride: 1
    weight_filler {
      type: "gaussian"
      std: 0.01
    }
    bias_filler {
      type: "constant"
      value: 0
    }
  }
}
layer {
  name: "relu3_5"
  type: "PReLU"
  bottom: "conv3_5"
  top: "conv3_5"
  prelu_param {
    filler {
      type: "gaussian"
      std: 0.03
    }
  }
}
layer {
  name: "res3_5"
  type: "Eltwise"
  bottom: "res3_3"
  bottom: "conv3_5"
  top: "res3_5"
  eltwise_param {
    operation: SUM
  }
}
layer {
  name: "res3_5_reduce"
  type: "Convolution"
  bottom: "res3_5"
  top: "res3_5_reduce"
  param {
    lr_mult: 1
    decay_mult: 1
  }
  param {
    lr_mult: 0
    decay_mult: 0
  }
  convolution_param {
    num_output: 144
    kernel_size: 1
    stride: 1
    weight_filler {
      type: "gaussian"
      std: 0.01
    }
    bias_filler {
      type: "constant"
      value: 0
    }
  }
}
layer {
  name: "pool3"
  type: "Pooling"
  bottom: "res3_5_reduce"
  top: "pool3"
  pooling_param {
    pool: MAX
    kernel_size: 2
    stride: 2
  }
}
layer {
  name: "conv4_1"
  type: "Convolution"
  bottom: "res3_5"
  top: "conv4_1"
  param {
    lr_mult: 1
    decay_mult: 1
  }
  param {
    lr_mult: 2
    decay_mult: 0
  }
  convolution_param {
    num_output: 144
    pad: 1
    kernel_size: 3
    stride: 2
    weight_filler {
      type: "xavier"
    }
    bias_filler {
      type: "constant"
      value: 0
    }
  }
}
layer {
  name: "relu4_1"
  type: "PReLU"
  bottom: "conv4_1"
  top: "conv4_1"
  prelu_param {
    filler {
      type: "gaussian"
      std: 0.03
    }
  }
}
layer {
  name: "res3_5_p"
  type: "Eltwise"
  bottom: "pool3"
  bottom: "conv4_1"
  top: "res3_5_p"
  eltwise_param {
    operation: SUM
  }
}
layer {
  name: "conv4_3"
  type: "Convolution"
  bottom: "res3_5_p"
  top: "conv4_3"
  param {
    lr_mult: 1
    decay_mult: 1
  }
  param {
    lr_mult: 0
    decay_mult: 0
  }
  convolution_param {
    num_output: 144
    pad: 1
    kernel_size: 3
    stride: 1
    weight_filler {
      type: "gaussian"
      std: 0.01
    }
    bias_filler {
      type: "constant"
      value: 0
    }
  }
}
layer {
  name: "relu4_3"
  type: "PReLU"
  bottom: "conv4_3"
  top: "conv4_3"
  prelu_param {
    filler {
      type: "gaussian"
      std: 0.03
    }
  }
}
layer {
  name: "res4_3"
  type: "Eltwise"
  bottom: "res3_5_p"
  bottom: "conv4_3"
  top: "res4_3"
  eltwise_param {
    operation: SUM
  }
}
layer {
  name: "fc5"
  type: "InnerProduct"
  bottom: "res4_3"
  top: "fc5"
  param {
    lr_mult: 1
    decay_mult: 1
  }
  param {
    lr_mult: 2
    decay_mult: 0
  }
  inner_product_param {
    num_output: 256
    weight_filler {
      type: "xavier"
    }
    bias_filler {
      type: "constant"
      value: 0
    }
  }
}
layer {
  name: "fc5_bn"
  type: "BatchNorm"
  bottom: "fc5"
  top: "fc5"
  batch_norm_param {
    use_global_stats: false
  }
}
layer {
  name: "norm1"
  type: "Normalize"
  bottom: "fc5"
  top: "norm1"
}
layer {
  name: "fc-6_l2"
  type: "InnerProduct"
  bottom: "norm1"
  top: "fc-6_l2"
  param {
    lr_mult: 1
  }
  inner_product_param {
    num_output: 21331
    bias_term: false
    weight_filler {
      type: "xavier"
    }
    normalize: true
  }
}
layer {
  name: "fc-6_margin"
  type: "LabelSpecificAdd"
  bottom: "fc-6_l2"
  bottom: "label"
  top: "fc-6_margin"
  label_specific_add_param {
    bias: -0.35
  }
}
layer {
  name: "fc-6_margin_scale"
  type: "Scale"
  bottom: "fc-6_margin"
  top: "fc-6_margin_scale"
  param {
    lr_mult: 0
    decay_mult: 0
  }
  scale_param {
    filler {
      type: "constant"
      value: 30
    }
  }
}
layer {
  name: "softmax_loss"
  type: "SoftmaxWithLoss"
  bottom: "fc-6_margin_scale"
  bottom: "label"
  top: "softmax_loss"
}
I0522 10:53:50.573232 21771 layer_factory.hpp:77] Creating layer data
I0522 10:53:50.573529 21771 db_lmdb.cpp:35] Opened lmdb /home/zkx/Data_sdb/TrainData/Data_sdc/Patches/shot_Oriental_Age_Lan_DHUA_PAKJ_Indon_Migrant_celeb/fc_0.35_112x96-train-noencode-shuffle_lmdb
I0522 10:53:50.573614 21771 net.cpp:84] Creating Layer data
I0522 10:53:50.573642 21771 net.cpp:380] data -> data
I0522 10:53:50.573770 21771 net.cpp:380] data -> label
I0522 10:53:50.575462 21771 data_layer.cpp:45] output data size: 64,3,112,96
I0522 10:53:50.598485 21771 base_data_layer.cpp:72] Initializing prefetch
I0522 10:53:50.599602 21771 base_data_layer.cpp:75] Prefetch initialized.
I0522 10:53:50.599618 21771 net.cpp:122] Setting up data
I0522 10:53:50.599683 21771 net.cpp:129] Top shape: 64 3 112 96 (2064384)
I0522 10:53:50.599715 21771 net.cpp:129] Top shape: 64 (64)
I0522 10:53:50.599721 21771 net.cpp:137] Memory required for data: 8257792
I0522 10:53:50.599756 21771 layer_factory.hpp:77] Creating layer label_data_1_split
I0522 10:53:50.599810 21771 net.cpp:84] Creating Layer label_data_1_split
I0522 10:53:50.599834 21771 net.cpp:406] label_data_1_split <- label
I0522 10:53:50.599884 21771 net.cpp:380] label_data_1_split -> label_data_1_split_0
I0522 10:53:50.599921 21771 net.cpp:380] label_data_1_split -> label_data_1_split_1
I0522 10:53:50.600023 21771 net.cpp:122] Setting up label_data_1_split
I0522 10:53:50.600039 21771 net.cpp:129] Top shape: 64 (64)
I0522 10:53:50.600049 21771 net.cpp:129] Top shape: 64 (64)
I0522 10:53:50.600054 21771 net.cpp:137] Memory required for data: 8258304
I0522 10:53:50.600061 21771 layer_factory.hpp:77] Creating layer conv1_1
I0522 10:53:50.600126 21771 net.cpp:84] Creating Layer conv1_1
I0522 10:53:50.600137 21771 net.cpp:406] conv1_1 <- data
I0522 10:53:50.600164 21771 net.cpp:380] conv1_1 -> conv1_1
I0522 10:53:50.639168 21815 data_layer.cpp:128] Prefetch batch: 36 ms.
I0522 10:53:50.639222 21815 data_layer.cpp:129]      Read time: 1.533 ms.
I0522 10:53:50.639242 21815 data_layer.cpp:130] Transform time: 34.633 ms.
I0522 10:53:50.724283 21815 data_layer.cpp:128] Prefetch batch: 59 ms.
I0522 10:53:50.724308 21815 data_layer.cpp:129]      Read time: 1.473 ms.
I0522 10:53:50.724324 21815 data_layer.cpp:130] Transform time: 57.958 ms.
I0522 10:53:50.825614 21815 data_layer.cpp:128] Prefetch batch: 65 ms.
I0522 10:53:50.825641 21815 data_layer.cpp:129]      Read time: 1.456 ms.
I0522 10:53:50.825649 21815 data_layer.cpp:130] Transform time: 63.463 ms.
I0522 10:53:50.888249 21815 data_layer.cpp:128] Prefetch batch: 49 ms.
I0522 10:53:50.888280 21815 data_layer.cpp:129]      Read time: 1.339 ms.
I0522 10:53:50.888288 21815 data_layer.cpp:130] Transform time: 47.228 ms.
I0522 10:53:51.131114 21771 cudnn_conv_layer.cpp:194] Reallocating workspace storage: 324
I0522 10:53:51.131162 21771 net.cpp:122] Setting up conv1_1
I0522 10:53:51.131184 21771 net.cpp:129] Top shape: 64 24 56 48 (4128768)
I0522 10:53:51.131188 21771 net.cpp:137] Memory required for data: 24773376
I0522 10:53:51.131276 21771 layer_factory.hpp:77] Creating layer relu1_1
I0522 10:53:51.131320 21771 net.cpp:84] Creating Layer relu1_1
I0522 10:53:51.131335 21771 net.cpp:406] relu1_1 <- conv1_1
I0522 10:53:51.131356 21771 net.cpp:367] relu1_1 -> conv1_1 (in-place)
I0522 10:53:51.132952 21771 net.cpp:122] Setting up relu1_1
I0522 10:53:51.132972 21771 net.cpp:129] Top shape: 64 24 56 48 (4128768)
I0522 10:53:51.132975 21771 net.cpp:137] Memory required for data: 41288448
I0522 10:53:51.133000 21771 layer_factory.hpp:77] Creating layer conv1_1_relu1_1_0_split
I0522 10:53:51.133024 21771 net.cpp:84] Creating Layer conv1_1_relu1_1_0_split
I0522 10:53:51.133033 21771 net.cpp:406] conv1_1_relu1_1_0_split <- conv1_1
I0522 10:53:51.133050 21771 net.cpp:380] conv1_1_relu1_1_0_split -> conv1_1_relu1_1_0_split_0
I0522 10:53:51.133075 21771 net.cpp:380] conv1_1_relu1_1_0_split -> conv1_1_relu1_1_0_split_1
I0522 10:53:51.133147 21771 net.cpp:122] Setting up conv1_1_relu1_1_0_split
I0522 10:53:51.133159 21771 net.cpp:129] Top shape: 64 24 56 48 (4128768)
I0522 10:53:51.133165 21771 net.cpp:129] Top shape: 64 24 56 48 (4128768)
I0522 10:53:51.133168 21771 net.cpp:137] Memory required for data: 74318592
I0522 10:53:51.133174 21771 layer_factory.hpp:77] Creating layer conv1_3
I0522 10:53:51.133208 21771 net.cpp:84] Creating Layer conv1_3
I0522 10:53:51.133216 21771 net.cpp:406] conv1_3 <- conv1_1_relu1_1_0_split_0
I0522 10:53:51.133235 21771 net.cpp:380] conv1_3 -> conv1_3
I0522 10:53:51.136615 21771 cudnn_conv_layer.cpp:194] Reallocating workspace storage: 147456
I0522 10:53:51.136955 21771 net.cpp:122] Setting up conv1_3
I0522 10:53:51.136973 21771 net.cpp:129] Top shape: 64 24 56 48 (4128768)
I0522 10:53:51.136978 21771 net.cpp:137] Memory required for data: 90833664
I0522 10:53:51.137022 21771 layer_factory.hpp:77] Creating layer relu1_3
I0522 10:53:51.137073 21771 net.cpp:84] Creating Layer relu1_3
I0522 10:53:51.137086 21771 net.cpp:406] relu1_3 <- conv1_3
I0522 10:53:51.137121 21771 net.cpp:367] relu1_3 -> conv1_3 (in-place)
I0522 10:53:51.137481 21771 net.cpp:122] Setting up relu1_3
I0522 10:53:51.137495 21771 net.cpp:129] Top shape: 64 24 56 48 (4128768)
I0522 10:53:51.137514 21771 net.cpp:137] Memory required for data: 107348736
I0522 10:53:51.137526 21771 layer_factory.hpp:77] Creating layer res1_3
I0522 10:53:51.137564 21771 net.cpp:84] Creating Layer res1_3
I0522 10:53:51.137573 21771 net.cpp:406] res1_3 <- conv1_1_relu1_1_0_split_1
I0522 10:53:51.137588 21771 net.cpp:406] res1_3 <- conv1_3
I0522 10:53:51.137601 21771 net.cpp:380] res1_3 -> res1_3
I0522 10:53:51.137681 21771 net.cpp:122] Setting up res1_3
I0522 10:53:51.137693 21771 net.cpp:129] Top shape: 64 24 56 48 (4128768)
I0522 10:53:51.137698 21771 net.cpp:137] Memory required for data: 123863808
I0522 10:53:51.137706 21771 layer_factory.hpp:77] Creating layer res1_3_res1_3_0_split
I0522 10:53:51.137723 21771 net.cpp:84] Creating Layer res1_3_res1_3_0_split
I0522 10:53:51.137732 21771 net.cpp:406] res1_3_res1_3_0_split <- res1_3
I0522 10:53:51.137748 21771 net.cpp:380] res1_3_res1_3_0_split -> res1_3_res1_3_0_split_0
I0522 10:53:51.137766 21771 net.cpp:380] res1_3_res1_3_0_split -> res1_3_res1_3_0_split_1
I0522 10:53:51.137815 21771 net.cpp:122] Setting up res1_3_res1_3_0_split
I0522 10:53:51.137826 21771 net.cpp:129] Top shape: 64 24 56 48 (4128768)
I0522 10:53:51.137833 21771 net.cpp:129] Top shape: 64 24 56 48 (4128768)
I0522 10:53:51.137838 21771 net.cpp:137] Memory required for data: 156893952
I0522 10:53:51.137845 21771 layer_factory.hpp:77] Creating layer res1_3_reduce
I0522 10:53:51.137873 21771 net.cpp:84] Creating Layer res1_3_reduce
I0522 10:53:51.137882 21771 net.cpp:406] res1_3_reduce <- res1_3_res1_3_0_split_0
I0522 10:53:51.137902 21771 net.cpp:380] res1_3_reduce -> res1_3_reduce
I0522 10:53:51.138965 21771 cudnn_conv_layer.cpp:194] Reallocating workspace storage: 288
I0522 10:53:51.138993 21771 net.cpp:122] Setting up res1_3_reduce
I0522 10:53:51.139009 21771 net.cpp:129] Top shape: 64 48 56 48 (8257536)
I0522 10:53:51.139014 21771 net.cpp:137] Memory required for data: 189924096
I0522 10:53:51.139031 21771 layer_factory.hpp:77] Creating layer pool1
I0522 10:53:51.139058 21771 net.cpp:84] Creating Layer pool1
I0522 10:53:51.139068 21771 net.cpp:406] pool1 <- res1_3_reduce
I0522 10:53:51.139088 21771 net.cpp:380] pool1 -> pool1
I0522 10:53:51.139173 21771 net.cpp:122] Setting up pool1
I0522 10:53:51.139187 21771 net.cpp:129] Top shape: 64 48 28 24 (2064384)
I0522 10:53:51.139192 21771 net.cpp:137] Memory required for data: 198181632
I0522 10:53:51.139199 21771 layer_factory.hpp:77] Creating layer conv2_1
I0522 10:53:51.139225 21771 net.cpp:84] Creating Layer conv2_1
I0522 10:53:51.139235 21771 net.cpp:406] conv2_1 <- res1_3_res1_3_0_split_1
I0522 10:53:51.139255 21771 net.cpp:380] conv2_1 -> conv2_1
I0522 10:53:51.141142 21771 cudnn_conv_layer.cpp:194] Reallocating workspace storage: 2592
I0522 10:53:51.141484 21771 net.cpp:122] Setting up conv2_1
I0522 10:53:51.141502 21771 net.cpp:129] Top shape: 64 48 28 24 (2064384)
I0522 10:53:51.141508 21771 net.cpp:137] Memory required for data: 206439168
I0522 10:53:51.141539 21771 layer_factory.hpp:77] Creating layer relu2_1
I0522 10:53:51.141561 21771 net.cpp:84] Creating Layer relu2_1
I0522 10:53:51.141571 21771 net.cpp:406] relu2_1 <- conv2_1
I0522 10:53:51.141590 21771 net.cpp:367] relu2_1 -> conv2_1 (in-place)
I0522 10:53:51.141829 21771 net.cpp:122] Setting up relu2_1
I0522 10:53:51.141844 21771 net.cpp:129] Top shape: 64 48 28 24 (2064384)
I0522 10:53:51.141849 21771 net.cpp:137] Memory required for data: 214696704
I0522 10:53:51.141860 21771 layer_factory.hpp:77] Creating layer res1_3_p
I0522 10:53:51.141877 21771 net.cpp:84] Creating Layer res1_3_p
I0522 10:53:51.141886 21771 net.cpp:406] res1_3_p <- pool1
I0522 10:53:51.141901 21771 net.cpp:406] res1_3_p <- conv2_1
I0522 10:53:51.141914 21771 net.cpp:380] res1_3_p -> res1_3_p
I0522 10:53:51.141976 21771 net.cpp:122] Setting up res1_3_p
I0522 10:53:51.141990 21771 net.cpp:129] Top shape: 64 48 28 24 (2064384)
I0522 10:53:51.141995 21771 net.cpp:137] Memory required for data: 222954240
I0522 10:53:51.142002 21771 layer_factory.hpp:77] Creating layer res1_3_p_res1_3_p_0_split
I0522 10:53:51.142016 21771 net.cpp:84] Creating Layer res1_3_p_res1_3_p_0_split
I0522 10:53:51.142024 21771 net.cpp:406] res1_3_p_res1_3_p_0_split <- res1_3_p
I0522 10:53:51.142041 21771 net.cpp:380] res1_3_p_res1_3_p_0_split -> res1_3_p_res1_3_p_0_split_0
I0522 10:53:51.142060 21771 net.cpp:380] res1_3_p_res1_3_p_0_split -> res1_3_p_res1_3_p_0_split_1
I0522 10:53:51.142117 21771 net.cpp:122] Setting up res1_3_p_res1_3_p_0_split
I0522 10:53:51.142128 21771 net.cpp:129] Top shape: 64 48 28 24 (2064384)
I0522 10:53:51.142136 21771 net.cpp:129] Top shape: 64 48 28 24 (2064384)
I0522 10:53:51.142141 21771 net.cpp:137] Memory required for data: 239469312
I0522 10:53:51.142148 21771 layer_factory.hpp:77] Creating layer conv2_3
I0522 10:53:51.142174 21771 net.cpp:84] Creating Layer conv2_3
I0522 10:53:51.142182 21771 net.cpp:406] conv2_3 <- res1_3_p_res1_3_p_0_split_0
I0522 10:53:51.142204 21771 net.cpp:380] conv2_3 -> conv2_3
I0522 10:53:51.147502 21771 cudnn_conv_layer.cpp:194] Reallocating workspace storage: 589824
I0522 10:53:51.147843 21771 net.cpp:122] Setting up conv2_3
I0522 10:53:51.147861 21771 net.cpp:129] Top shape: 64 48 28 24 (2064384)
I0522 10:53:51.147867 21771 net.cpp:137] Memory required for data: 247726848
I0522 10:53:51.147886 21771 layer_factory.hpp:77] Creating layer relu2_3
I0522 10:53:51.147912 21771 net.cpp:84] Creating Layer relu2_3
I0522 10:53:51.147922 21771 net.cpp:406] relu2_3 <- conv2_3
I0522 10:53:51.147943 21771 net.cpp:367] relu2_3 -> conv2_3 (in-place)
I0522 10:53:51.148187 21771 net.cpp:122] Setting up relu2_3
I0522 10:53:51.148200 21771 net.cpp:129] Top shape: 64 48 28 24 (2064384)
I0522 10:53:51.148205 21771 net.cpp:137] Memory required for data: 255984384
I0522 10:53:51.148222 21771 layer_factory.hpp:77] Creating layer res2_3
I0522 10:53:51.148239 21771 net.cpp:84] Creating Layer res2_3
I0522 10:53:51.148248 21771 net.cpp:406] res2_3 <- res1_3_p_res1_3_p_0_split_1
I0522 10:53:51.148262 21771 net.cpp:406] res2_3 <- conv2_3
I0522 10:53:51.148277 21771 net.cpp:380] res2_3 -> res2_3
I0522 10:53:51.148324 21771 net.cpp:122] Setting up res2_3
I0522 10:53:51.148335 21771 net.cpp:129] Top shape: 64 48 28 24 (2064384)
I0522 10:53:51.148340 21771 net.cpp:137] Memory required for data: 264241920
I0522 10:53:51.148347 21771 layer_factory.hpp:77] Creating layer res2_3_res2_3_0_split
I0522 10:53:51.148360 21771 net.cpp:84] Creating Layer res2_3_res2_3_0_split
I0522 10:53:51.148368 21771 net.cpp:406] res2_3_res2_3_0_split <- res2_3
I0522 10:53:51.148385 21771 net.cpp:380] res2_3_res2_3_0_split -> res2_3_res2_3_0_split_0
I0522 10:53:51.148402 21771 net.cpp:380] res2_3_res2_3_0_split -> res2_3_res2_3_0_split_1
I0522 10:53:51.148453 21771 net.cpp:122] Setting up res2_3_res2_3_0_split
I0522 10:53:51.148464 21771 net.cpp:129] Top shape: 64 48 28 24 (2064384)
I0522 10:53:51.148471 21771 net.cpp:129] Top shape: 64 48 28 24 (2064384)
I0522 10:53:51.148476 21771 net.cpp:137] Memory required for data: 280756992
I0522 10:53:51.148483 21771 layer_factory.hpp:77] Creating layer conv2_5
I0522 10:53:51.148507 21771 net.cpp:84] Creating Layer conv2_5
I0522 10:53:51.148516 21771 net.cpp:406] conv2_5 <- res2_3_res2_3_0_split_0
I0522 10:53:51.148537 21771 net.cpp:380] conv2_5 -> conv2_5
I0522 10:53:51.153828 21771 cudnn_conv_layer.cpp:194] Reallocating workspace storage: 589824
I0522 10:53:51.153854 21771 net.cpp:122] Setting up conv2_5
I0522 10:53:51.153867 21771 net.cpp:129] Top shape: 64 48 28 24 (2064384)
I0522 10:53:51.153872 21771 net.cpp:137] Memory required for data: 289014528
I0522 10:53:51.153889 21771 layer_factory.hpp:77] Creating layer relu2_5
I0522 10:53:51.153909 21771 net.cpp:84] Creating Layer relu2_5
I0522 10:53:51.153919 21771 net.cpp:406] relu2_5 <- conv2_5
I0522 10:53:51.153939 21771 net.cpp:367] relu2_5 -> conv2_5 (in-place)
I0522 10:53:51.154198 21771 net.cpp:122] Setting up relu2_5
I0522 10:53:51.154212 21771 net.cpp:129] Top shape: 64 48 28 24 (2064384)
I0522 10:53:51.154217 21771 net.cpp:137] Memory required for data: 297272064
I0522 10:53:51.154243 21771 layer_factory.hpp:77] Creating layer res2_5
I0522 10:53:51.154261 21771 net.cpp:84] Creating Layer res2_5
I0522 10:53:51.154270 21771 net.cpp:406] res2_5 <- res2_3_res2_3_0_split_1
I0522 10:53:51.154284 21771 net.cpp:406] res2_5 <- conv2_5
I0522 10:53:51.154299 21771 net.cpp:380] res2_5 -> res2_5
I0522 10:53:51.154347 21771 net.cpp:122] Setting up res2_5
I0522 10:53:51.154359 21771 net.cpp:129] Top shape: 64 48 28 24 (2064384)
I0522 10:53:51.154364 21771 net.cpp:137] Memory required for data: 305529600
I0522 10:53:51.154371 21771 layer_factory.hpp:77] Creating layer res2_5_res2_5_0_split
I0522 10:53:51.154384 21771 net.cpp:84] Creating Layer res2_5_res2_5_0_split
I0522 10:53:51.154392 21771 net.cpp:406] res2_5_res2_5_0_split <- res2_5
I0522 10:53:51.154409 21771 net.cpp:380] res2_5_res2_5_0_split -> res2_5_res2_5_0_split_0
I0522 10:53:51.154428 21771 net.cpp:380] res2_5_res2_5_0_split -> res2_5_res2_5_0_split_1
I0522 10:53:51.154479 21771 net.cpp:122] Setting up res2_5_res2_5_0_split
I0522 10:53:51.154489 21771 net.cpp:129] Top shape: 64 48 28 24 (2064384)
I0522 10:53:51.154496 21771 net.cpp:129] Top shape: 64 48 28 24 (2064384)
I0522 10:53:51.154500 21771 net.cpp:137] Memory required for data: 322044672
I0522 10:53:51.154506 21771 layer_factory.hpp:77] Creating layer res2_5_reduce
I0522 10:53:51.154532 21771 net.cpp:84] Creating Layer res2_5_reduce
I0522 10:53:51.154541 21771 net.cpp:406] res2_5_reduce <- res2_5_res2_5_0_split_0
I0522 10:53:51.154563 21771 net.cpp:380] res2_5_reduce -> res2_5_reduce
I0522 10:53:51.156469 21771 cudnn_conv_layer.cpp:194] Reallocating workspace storage: 576
I0522 10:53:51.156498 21771 net.cpp:122] Setting up res2_5_reduce
I0522 10:53:51.156510 21771 net.cpp:129] Top shape: 64 72 28 24 (3096576)
I0522 10:53:51.156517 21771 net.cpp:137] Memory required for data: 334430976
I0522 10:53:51.156533 21771 layer_factory.hpp:77] Creating layer pool2
I0522 10:53:51.156554 21771 net.cpp:84] Creating Layer pool2
I0522 10:53:51.156564 21771 net.cpp:406] pool2 <- res2_5_reduce
I0522 10:53:51.156585 21771 net.cpp:380] pool2 -> pool2
I0522 10:53:51.156656 21771 net.cpp:122] Setting up pool2
I0522 10:53:51.156668 21771 net.cpp:129] Top shape: 64 72 14 12 (774144)
I0522 10:53:51.156673 21771 net.cpp:137] Memory required for data: 337527552
I0522 10:53:51.156680 21771 layer_factory.hpp:77] Creating layer conv3_1
I0522 10:53:51.156707 21771 net.cpp:84] Creating Layer conv3_1
I0522 10:53:51.156716 21771 net.cpp:406] conv3_1 <- res2_5_res2_5_0_split_1
I0522 10:53:51.156738 21771 net.cpp:380] conv3_1 -> conv3_1
I0522 10:53:51.160085 21771 cudnn_conv_layer.cpp:194] Reallocating workspace storage: 5184
I0522 10:53:51.160428 21771 net.cpp:122] Setting up conv3_1
I0522 10:53:51.160445 21771 net.cpp:129] Top shape: 64 72 14 12 (774144)
I0522 10:53:51.160451 21771 net.cpp:137] Memory required for data: 340624128
I0522 10:53:51.160470 21771 layer_factory.hpp:77] Creating layer relu3_1
I0522 10:53:51.160490 21771 net.cpp:84] Creating Layer relu3_1
I0522 10:53:51.160501 21771 net.cpp:406] relu3_1 <- conv3_1
I0522 10:53:51.160521 21771 net.cpp:367] relu3_1 -> conv3_1 (in-place)
I0522 10:53:51.160714 21771 net.cpp:122] Setting up relu3_1
I0522 10:53:51.160727 21771 net.cpp:129] Top shape: 64 72 14 12 (774144)
I0522 10:53:51.160732 21771 net.cpp:137] Memory required for data: 343720704
I0522 10:53:51.160744 21771 layer_factory.hpp:77] Creating layer res2_5_p
I0522 10:53:51.160761 21771 net.cpp:84] Creating Layer res2_5_p
I0522 10:53:51.160770 21771 net.cpp:406] res2_5_p <- pool2
I0522 10:53:51.160785 21771 net.cpp:406] res2_5_p <- conv3_1
I0522 10:53:51.160799 21771 net.cpp:380] res2_5_p -> res2_5_p
I0522 10:53:51.160848 21771 net.cpp:122] Setting up res2_5_p
I0522 10:53:51.160861 21771 net.cpp:129] Top shape: 64 72 14 12 (774144)
I0522 10:53:51.160866 21771 net.cpp:137] Memory required for data: 346817280
I0522 10:53:51.160886 21771 layer_factory.hpp:77] Creating layer res2_5_p_res2_5_p_0_split
I0522 10:53:51.160902 21771 net.cpp:84] Creating Layer res2_5_p_res2_5_p_0_split
I0522 10:53:51.160909 21771 net.cpp:406] res2_5_p_res2_5_p_0_split <- res2_5_p
I0522 10:53:51.160928 21771 net.cpp:380] res2_5_p_res2_5_p_0_split -> res2_5_p_res2_5_p_0_split_0
I0522 10:53:51.160948 21771 net.cpp:380] res2_5_p_res2_5_p_0_split -> res2_5_p_res2_5_p_0_split_1
I0522 10:53:51.161001 21771 net.cpp:122] Setting up res2_5_p_res2_5_p_0_split
I0522 10:53:51.161013 21771 net.cpp:129] Top shape: 64 72 14 12 (774144)
I0522 10:53:51.161020 21771 net.cpp:129] Top shape: 64 72 14 12 (774144)
I0522 10:53:51.161026 21771 net.cpp:137] Memory required for data: 353010432
I0522 10:53:51.161031 21771 layer_factory.hpp:77] Creating layer conv3_3
I0522 10:53:51.161057 21771 net.cpp:84] Creating Layer conv3_3
I0522 10:53:51.161067 21771 net.cpp:406] conv3_3 <- res2_5_p_res2_5_p_0_split_0
I0522 10:53:51.161088 21771 net.cpp:380] conv3_3 -> conv3_3
I0522 10:53:51.171661 21771 cudnn_conv_layer.cpp:194] Reallocating workspace storage: 1327104
I0522 10:53:51.172008 21771 net.cpp:122] Setting up conv3_3
I0522 10:53:51.172027 21771 net.cpp:129] Top shape: 64 72 14 12 (774144)
I0522 10:53:51.172034 21771 net.cpp:137] Memory required for data: 356107008
I0522 10:53:51.172056 21771 layer_factory.hpp:77] Creating layer relu3_3
I0522 10:53:51.172080 21771 net.cpp:84] Creating Layer relu3_3
I0522 10:53:51.172092 21771 net.cpp:406] relu3_3 <- conv3_3
I0522 10:53:51.172114 21771 net.cpp:367] relu3_3 -> conv3_3 (in-place)
I0522 10:53:51.172319 21771 net.cpp:122] Setting up relu3_3
I0522 10:53:51.172333 21771 net.cpp:129] Top shape: 64 72 14 12 (774144)
I0522 10:53:51.172338 21771 net.cpp:137] Memory required for data: 359203584
I0522 10:53:51.172349 21771 layer_factory.hpp:77] Creating layer res3_3
I0522 10:53:51.172368 21771 net.cpp:84] Creating Layer res3_3
I0522 10:53:51.172376 21771 net.cpp:406] res3_3 <- res2_5_p_res2_5_p_0_split_1
I0522 10:53:51.172392 21771 net.cpp:406] res3_3 <- conv3_3
I0522 10:53:51.172405 21771 net.cpp:380] res3_3 -> res3_3
I0522 10:53:51.172464 21771 net.cpp:122] Setting up res3_3
I0522 10:53:51.172479 21771 net.cpp:129] Top shape: 64 72 14 12 (774144)
I0522 10:53:51.172484 21771 net.cpp:137] Memory required for data: 362300160
I0522 10:53:51.172492 21771 layer_factory.hpp:77] Creating layer res3_3_res3_3_0_split
I0522 10:53:51.172515 21771 net.cpp:84] Creating Layer res3_3_res3_3_0_split
I0522 10:53:51.172524 21771 net.cpp:406] res3_3_res3_3_0_split <- res3_3
I0522 10:53:51.172541 21771 net.cpp:380] res3_3_res3_3_0_split -> res3_3_res3_3_0_split_0
I0522 10:53:51.172560 21771 net.cpp:380] res3_3_res3_3_0_split -> res3_3_res3_3_0_split_1
I0522 10:53:51.172613 21771 net.cpp:122] Setting up res3_3_res3_3_0_split
I0522 10:53:51.172626 21771 net.cpp:129] Top shape: 64 72 14 12 (774144)
I0522 10:53:51.172632 21771 net.cpp:129] Top shape: 64 72 14 12 (774144)
I0522 10:53:51.172636 21771 net.cpp:137] Memory required for data: 368493312
I0522 10:53:51.172642 21771 layer_factory.hpp:77] Creating layer conv3_5
I0522 10:53:51.172670 21771 net.cpp:84] Creating Layer conv3_5
I0522 10:53:51.172679 21771 net.cpp:406] conv3_5 <- res3_3_res3_3_0_split_0
I0522 10:53:51.172701 21771 net.cpp:380] conv3_5 -> conv3_5
I0522 10:53:51.183251 21771 cudnn_conv_layer.cpp:194] Reallocating workspace storage: 1327104
I0522 10:53:51.183598 21771 net.cpp:122] Setting up conv3_5
I0522 10:53:51.183616 21771 net.cpp:129] Top shape: 64 72 14 12 (774144)
I0522 10:53:51.183622 21771 net.cpp:137] Memory required for data: 371589888
I0522 10:53:51.183645 21771 layer_factory.hpp:77] Creating layer relu3_5
I0522 10:53:51.183667 21771 net.cpp:84] Creating Layer relu3_5
I0522 10:53:51.183679 21771 net.cpp:406] relu3_5 <- conv3_5
I0522 10:53:51.183701 21771 net.cpp:367] relu3_5 -> conv3_5 (in-place)
I0522 10:53:51.183902 21771 net.cpp:122] Setting up relu3_5
I0522 10:53:51.183917 21771 net.cpp:129] Top shape: 64 72 14 12 (774144)
I0522 10:53:51.183938 21771 net.cpp:137] Memory required for data: 374686464
I0522 10:53:51.183953 21771 layer_factory.hpp:77] Creating layer res3_5
I0522 10:53:51.183970 21771 net.cpp:84] Creating Layer res3_5
I0522 10:53:51.183980 21771 net.cpp:406] res3_5 <- res3_3_res3_3_0_split_1
I0522 10:53:51.183995 21771 net.cpp:406] res3_5 <- conv3_5
I0522 10:53:51.184010 21771 net.cpp:380] res3_5 -> res3_5
I0522 10:53:51.184059 21771 net.cpp:122] Setting up res3_5
I0522 10:53:51.184072 21771 net.cpp:129] Top shape: 64 72 14 12 (774144)
I0522 10:53:51.184077 21771 net.cpp:137] Memory required for data: 377783040
I0522 10:53:51.184082 21771 layer_factory.hpp:77] Creating layer res3_5_res3_5_0_split
I0522 10:53:51.184096 21771 net.cpp:84] Creating Layer res3_5_res3_5_0_split
I0522 10:53:51.184104 21771 net.cpp:406] res3_5_res3_5_0_split <- res3_5
I0522 10:53:51.184121 21771 net.cpp:380] res3_5_res3_5_0_split -> res3_5_res3_5_0_split_0
I0522 10:53:51.184139 21771 net.cpp:380] res3_5_res3_5_0_split -> res3_5_res3_5_0_split_1
I0522 10:53:51.184191 21771 net.cpp:122] Setting up res3_5_res3_5_0_split
I0522 10:53:51.184202 21771 net.cpp:129] Top shape: 64 72 14 12 (774144)
I0522 10:53:51.184209 21771 net.cpp:129] Top shape: 64 72 14 12 (774144)
I0522 10:53:51.184212 21771 net.cpp:137] Memory required for data: 383976192
I0522 10:53:51.184218 21771 layer_factory.hpp:77] Creating layer res3_5_reduce
I0522 10:53:51.184245 21771 net.cpp:84] Creating Layer res3_5_reduce
I0522 10:53:51.184254 21771 net.cpp:406] res3_5_reduce <- res3_5_res3_5_0_split_0
I0522 10:53:51.184275 21771 net.cpp:380] res3_5_reduce -> res3_5_reduce
I0522 10:53:51.187567 21771 cudnn_conv_layer.cpp:194] Reallocating workspace storage: 864
I0522 10:53:51.187597 21771 net.cpp:122] Setting up res3_5_reduce
I0522 10:53:51.187608 21771 net.cpp:129] Top shape: 64 144 14 12 (1548288)
I0522 10:53:51.187614 21771 net.cpp:137] Memory required for data: 390169344
I0522 10:53:51.187633 21771 layer_factory.hpp:77] Creating layer pool3
I0522 10:53:51.187655 21771 net.cpp:84] Creating Layer pool3
I0522 10:53:51.187665 21771 net.cpp:406] pool3 <- res3_5_reduce
I0522 10:53:51.187687 21771 net.cpp:380] pool3 -> pool3
I0522 10:53:51.187759 21771 net.cpp:122] Setting up pool3
I0522 10:53:51.187773 21771 net.cpp:129] Top shape: 64 144 7 6 (387072)
I0522 10:53:51.187778 21771 net.cpp:137] Memory required for data: 391717632
I0522 10:53:51.187785 21771 layer_factory.hpp:77] Creating layer conv4_1
I0522 10:53:51.187813 21771 net.cpp:84] Creating Layer conv4_1
I0522 10:53:51.187821 21771 net.cpp:406] conv4_1 <- res3_5_res3_5_0_split_1
I0522 10:53:51.187844 21771 net.cpp:380] conv4_1 -> conv4_1
I0522 10:53:51.196852 21771 cudnn_conv_layer.cpp:194] Reallocating workspace storage: 7776
I0522 10:53:51.196890 21771 net.cpp:122] Setting up conv4_1
I0522 10:53:51.196902 21771 net.cpp:129] Top shape: 64 144 7 6 (387072)
I0522 10:53:51.196907 21771 net.cpp:137] Memory required for data: 393265920
I0522 10:53:51.196925 21771 layer_factory.hpp:77] Creating layer relu4_1
I0522 10:53:51.196945 21771 net.cpp:84] Creating Layer relu4_1
I0522 10:53:51.196955 21771 net.cpp:406] relu4_1 <- conv4_1
I0522 10:53:51.196976 21771 net.cpp:367] relu4_1 -> conv4_1 (in-place)
I0522 10:53:51.197162 21771 net.cpp:122] Setting up relu4_1
I0522 10:53:51.197176 21771 net.cpp:129] Top shape: 64 144 7 6 (387072)
I0522 10:53:51.197181 21771 net.cpp:137] Memory required for data: 394814208
I0522 10:53:51.197213 21771 layer_factory.hpp:77] Creating layer res3_5_p
I0522 10:53:51.197232 21771 net.cpp:84] Creating Layer res3_5_p
I0522 10:53:51.197242 21771 net.cpp:406] res3_5_p <- pool3
I0522 10:53:51.197255 21771 net.cpp:406] res3_5_p <- conv4_1
I0522 10:53:51.197269 21771 net.cpp:380] res3_5_p -> res3_5_p
I0522 10:53:51.197320 21771 net.cpp:122] Setting up res3_5_p
I0522 10:53:51.197333 21771 net.cpp:129] Top shape: 64 144 7 6 (387072)
I0522 10:53:51.197340 21771 net.cpp:137] Memory required for data: 396362496
I0522 10:53:51.197345 21771 layer_factory.hpp:77] Creating layer res3_5_p_res3_5_p_0_split
I0522 10:53:51.197360 21771 net.cpp:84] Creating Layer res3_5_p_res3_5_p_0_split
I0522 10:53:51.197381 21771 net.cpp:406] res3_5_p_res3_5_p_0_split <- res3_5_p
I0522 10:53:51.197402 21771 net.cpp:380] res3_5_p_res3_5_p_0_split -> res3_5_p_res3_5_p_0_split_0
I0522 10:53:51.197422 21771 net.cpp:380] res3_5_p_res3_5_p_0_split -> res3_5_p_res3_5_p_0_split_1
I0522 10:53:51.197477 21771 net.cpp:122] Setting up res3_5_p_res3_5_p_0_split
I0522 10:53:51.197489 21771 net.cpp:129] Top shape: 64 144 7 6 (387072)
I0522 10:53:51.197495 21771 net.cpp:129] Top shape: 64 144 7 6 (387072)
I0522 10:53:51.197500 21771 net.cpp:137] Memory required for data: 399459072
I0522 10:53:51.197506 21771 layer_factory.hpp:77] Creating layer conv4_3
I0522 10:53:51.197532 21771 net.cpp:84] Creating Layer conv4_3
I0522 10:53:51.197542 21771 net.cpp:406] conv4_3 <- res3_5_p_res3_5_p_0_split_0
I0522 10:53:51.197563 21771 net.cpp:380] conv4_3 -> conv4_3
I0522 10:53:51.234864 21771 cudnn_conv_layer.cpp:194] Reallocating workspace storage: 4423680
I0522 10:53:51.235448 21771 net.cpp:122] Setting up conv4_3
I0522 10:53:51.235476 21771 net.cpp:129] Top shape: 64 144 7 6 (387072)
I0522 10:53:51.235481 21771 net.cpp:137] Memory required for data: 401007360
I0522 10:53:51.235510 21771 layer_factory.hpp:77] Creating layer relu4_3
I0522 10:53:51.235548 21771 net.cpp:84] Creating Layer relu4_3
I0522 10:53:51.235563 21771 net.cpp:406] relu4_3 <- conv4_3
I0522 10:53:51.235594 21771 net.cpp:367] relu4_3 -> conv4_3 (in-place)
I0522 10:53:51.235815 21771 net.cpp:122] Setting up relu4_3
I0522 10:53:51.235827 21771 net.cpp:129] Top shape: 64 144 7 6 (387072)
I0522 10:53:51.235832 21771 net.cpp:137] Memory required for data: 402555648
I0522 10:53:51.235846 21771 layer_factory.hpp:77] Creating layer res4_3
I0522 10:53:51.235865 21771 net.cpp:84] Creating Layer res4_3
I0522 10:53:51.235877 21771 net.cpp:406] res4_3 <- res3_5_p_res3_5_p_0_split_1
I0522 10:53:51.235898 21771 net.cpp:406] res4_3 <- conv4_3
I0522 10:53:51.235913 21771 net.cpp:380] res4_3 -> res4_3
I0522 10:53:51.235966 21771 net.cpp:122] Setting up res4_3
I0522 10:53:51.235978 21771 net.cpp:129] Top shape: 64 144 7 6 (387072)
I0522 10:53:51.235983 21771 net.cpp:137] Memory required for data: 404103936
I0522 10:53:51.235990 21771 layer_factory.hpp:77] Creating layer fc5
I0522 10:53:51.236018 21771 net.cpp:84] Creating Layer fc5
I0522 10:53:51.236027 21771 net.cpp:406] fc5 <- res4_3
I0522 10:53:51.236047 21771 net.cpp:380] fc5 -> fc5
I0522 10:53:51.343319 21771 net.cpp:122] Setting up fc5
I0522 10:53:51.343384 21771 net.cpp:129] Top shape: 64 256 (16384)
I0522 10:53:51.343389 21771 net.cpp:137] Memory required for data: 404169472
I0522 10:53:51.343417 21771 layer_factory.hpp:77] Creating layer fc5_bn
I0522 10:53:51.343461 21771 net.cpp:84] Creating Layer fc5_bn
I0522 10:53:51.343479 21771 net.cpp:406] fc5_bn <- fc5
I0522 10:53:51.343508 21771 net.cpp:367] fc5_bn -> fc5 (in-place)
I0522 10:53:51.343751 21771 net.cpp:122] Setting up fc5_bn
I0522 10:53:51.343765 21771 net.cpp:129] Top shape: 64 256 (16384)
I0522 10:53:51.343770 21771 net.cpp:137] Memory required for data: 404235008
I0522 10:53:51.343794 21771 layer_factory.hpp:77] Creating layer norm1
I0522 10:53:51.343816 21771 net.cpp:84] Creating Layer norm1
I0522 10:53:51.343823 21771 net.cpp:406] norm1 <- fc5
I0522 10:53:51.343842 21771 net.cpp:380] norm1 -> norm1
I0522 10:53:51.343932 21771 net.cpp:122] Setting up norm1
I0522 10:53:51.343945 21771 net.cpp:129] Top shape: 64 256 1 1 (16384)
I0522 10:53:51.343950 21771 net.cpp:137] Memory required for data: 404300544
I0522 10:53:51.343956 21771 layer_factory.hpp:77] Creating layer fc-6_l2
I0522 10:53:51.343979 21771 net.cpp:84] Creating Layer fc-6_l2
I0522 10:53:51.343988 21771 net.cpp:406] fc-6_l2 <- norm1
I0522 10:53:51.344007 21771 net.cpp:380] fc-6_l2 -> fc-6_l2
I0522 10:53:51.723840 21771 net.cpp:122] Setting up fc-6_l2
I0522 10:53:51.723902 21771 net.cpp:129] Top shape: 64 21331 (1365184)
I0522 10:53:51.723907 21771 net.cpp:137] Memory required for data: 409761280
I0522 10:53:51.723953 21771 layer_factory.hpp:77] Creating layer fc-6_margin
I0522 10:53:51.724020 21771 net.cpp:84] Creating Layer fc-6_margin
I0522 10:53:51.724037 21771 net.cpp:406] fc-6_margin <- fc-6_l2
I0522 10:53:51.724062 21771 net.cpp:406] fc-6_margin <- label_data_1_split_0
I0522 10:53:51.724079 21771 net.cpp:380] fc-6_margin -> fc-6_margin
I0522 10:53:51.724143 21771 net.cpp:122] Setting up fc-6_margin
I0522 10:53:51.724156 21771 net.cpp:129] Top shape: 64 21331 (1365184)
I0522 10:53:51.724161 21771 net.cpp:137] Memory required for data: 415222016
I0522 10:53:51.724167 21771 layer_factory.hpp:77] Creating layer fc-6_margin_scale
I0522 10:53:51.724197 21771 net.cpp:84] Creating Layer fc-6_margin_scale
I0522 10:53:51.724206 21771 net.cpp:406] fc-6_margin_scale <- fc-6_margin
I0522 10:53:51.724226 21771 net.cpp:380] fc-6_margin_scale -> fc-6_margin_scale
I0522 10:53:51.724457 21771 net.cpp:122] Setting up fc-6_margin_scale
I0522 10:53:51.724470 21771 net.cpp:129] Top shape: 64 21331 (1365184)
I0522 10:53:51.724475 21771 net.cpp:137] Memory required for data: 420682752
I0522 10:53:51.724488 21771 layer_factory.hpp:77] Creating layer softmax_loss
I0522 10:53:51.724509 21771 net.cpp:84] Creating Layer softmax_loss
I0522 10:53:51.724519 21771 net.cpp:406] softmax_loss <- fc-6_margin_scale
I0522 10:53:51.724532 21771 net.cpp:406] softmax_loss <- label_data_1_split_1
I0522 10:53:51.724550 21771 net.cpp:380] softmax_loss -> softmax_loss
…
