…
name: "2018-05-22_AdditMarginLmdbImage-b0.35s30_fc_0.35_112x96_faceNet-20-light2s4-bn_zkx_train"
state {
  phase: TRAIN
  level: 0
  stage: ""
}
layer {
  name: "data"
  type: "ImageData"
  top: "data"
  top: "label"
  image_data_param {
    source: "/home/zkx/Data_sdb/TrainData/Data_sdc/Patches/shot_Oriental_Age_Lan_DHUA_PAKJ_Indon_Migrant_celeb/shot_Oriental_Age_Lan_DHUA_PAKJ_Indon_Migrant_celeb_label.txt"
    batch_size: 64
    shuffle: true
    root_folder: "/home/zkx/Data_sdb/TrainData/Data_sdc/Patches/shot_Oriental_Age_Lan_DHUA_PAKJ_Indon_Migrant_celeb/fc_0.35_112x96/"
  }
}
layer {
  name: "conv1_1"
  type: "Convolution"
  bottom: "data"
  top: "conv1_1"
  param {
    lr_mult: 1
    decay_mult: 1
  }
  param {
    lr_mult: 2
    decay_mult: 0
  }
  convolution_param {
    num_output: 24
    pad: 1
    kernel_size: 3
    stride: 2
    weight_filler {
      type: "xavier"
    }
    bias_filler {
      type: "constant"
      value: 0
    }
  }
}
layer {
  name: "relu1_1"
  type: "PReLU"
  bottom: "conv1_1"
  top: "conv1_1"
  prelu_param {
    filler {
      type: "gaussian"
      std: 0.03
    }
  }
}
layer {
  name: "conv1_3"
  type: "Convolution"
  bottom: "conv1_1"
  top: "conv1_3"
  param {
    lr_mult: 1
    decay_mult: 1
  }
  param {
    lr_mult: 0
    decay_mult: 0
  }
  convolution_param {
    num_output: 24
    pad: 1
    kernel_size: 3
    stride: 1
    weight_filler {
      type: "gaussian"
      std: 0.01
    }
    bias_filler {
      type: "constant"
      value: 0
    }
  }
}
layer {
  name: "relu1_3"
  type: "PReLU"
  bottom: "conv1_3"
  top: "conv1_3"
  prelu_param {
    filler {
      type: "gaussian"
      std: 0.03
    }
  }
}
layer {
  name: "res1_3"
  type: "Eltwise"
  bottom: "conv1_1"
  bottom: "conv1_3"
  top: "res1_3"
  eltwise_param {
    operation: SUM
  }
}
layer {
  name: "res1_3_reduce"
  type: "Convolution"
  bottom: "res1_3"
  top: "res1_3_reduce"
  param {
    lr_mult: 1
    decay_mult: 1
  }
  param {
    lr_mult: 0
    decay_mult: 0
  }
  convolution_param {
    num_output: 48
    kernel_size: 1
    stride: 1
    weight_filler {
      type: "gaussian"
      std: 0.01
    }
    bias_filler {
      type: "constant"
      value: 0
    }
  }
}
layer {
  name: "pool1"
  type: "Pooling"
  bottom: "res1_3_reduce"
  top: "pool1"
  pooling_param {
    pool: MAX
    kernel_size: 2
    stride: 2
  }
}
layer {
  name: "conv2_1"
  type: "Convolution"
  bottom: "res1_3"
  top: "conv2_1"
  param {
    lr_mult: 1
    decay_mult: 1
  }
  param {
    lr_mult: 2
    decay_mult: 0
  }
  convolution_param {
    num_output: 48
    pad: 1
    kernel_size: 3
    stride: 2
    weight_filler {
      type: "xavier"
    }
    bias_filler {
      type: "constant"
      value: 0
    }
  }
}
layer {
  name: "relu2_1"
  type: "PReLU"
  bottom: "conv2_1"
  top: "conv2_1"
  prelu_param {
    filler {
      type: "gaussian"
      std: 0.03
    }
  }
}
layer {
  name: "res1_3_p"
  type: "Eltwise"
  bottom: "pool1"
  bottom: "conv2_1"
  top: "res1_3_p"
  eltwise_param {
    operation: SUM
  }
}
layer {
  name: "conv2_3"
  type: "Convolution"
  bottom: "res1_3_p"
  top: "conv2_3"
  param {
    lr_mult: 1
    decay_mult: 1
  }
  param {
    lr_mult: 0
    decay_mult: 0
  }
  convolution_param {
    num_output: 48
    pad: 1
    kernel_size: 3
    stride: 1
    weight_filler {
      type: "gaussian"
      std: 0.01
    }
    bias_filler {
      type: "constant"
      value: 0
    }
  }
}
layer {
  name: "relu2_3"
  type: "PReLU"
  bottom: "conv2_3"
  top: "conv2_3"
  prelu_param {
    filler {
      type: "gaussian"
      std: 0.03
    }
  }
}
layer {
  name: "res2_3"
  type: "Eltwise"
  bottom: "res1_3_p"
  bottom: "conv2_3"
  top: "res2_3"
  eltwise_param {
    operation: SUM
  }
}
layer {
  name: "conv2_5"
  type: "Convolution"
  bottom: "res2_3"
  top: "conv2_5"
  param {
    lr_mult: 1
    decay_mult: 1
  }
  param {
    lr_mult: 0
    decay_mult: 0
  }
  convolution_param {
    num_output: 48
    pad: 1
    kernel_size: 3
    stride: 1
    weight_filler {
      type: "gaussian"
      std: 0.01
    }
    bias_filler {
      type: "constant"
      value: 0
    }
  }
}
layer {
  name: "relu2_5"
  type: "PReLU"
  bottom: "conv2_5"
  top: "conv2_5"
  prelu_param {
    filler {
      type: "gaussian"
      std: 0.03
    }
  }
}
layer {
  name: "res2_5"
  type: "Eltwise"
  bottom: "res2_3"
  bottom: "conv2_5"
  top: "res2_5"
  eltwise_param {
    operation: SUM
  }
}
layer {
  name: "res2_5_reduce"
  type: "Convolution"
  bottom: "res2_5"
  top: "res2_5_reduce"
  param {
    lr_mult: 1
    decay_mult: 1
  }
  param {
    lr_mult: 0
    decay_mult: 0
  }
  convolution_param {
    num_output: 72
    kernel_size: 1
    stride: 1
    weight_filler {
      type: "gaussian"
      std: 0.01
    }
    bias_filler {
      type: "constant"
      value: 0
    }
  }
}
layer {
  name: "pool2"
  type: "Pooling"
  bottom: "res2_5_reduce"
  top: "pool2"
  pooling_param {
    pool: MAX
    kernel_size: 2
    stride: 2
  }
}
layer {
  name: "conv3_1"
  type: "Convolution"
  bottom: "res2_5"
  top: "conv3_1"
  param {
    lr_mult: 1
    decay_mult: 1
  }
  param {
    lr_mult: 2
    decay_mult: 0
  }
  convolution_param {
    num_output: 72
    pad: 1
    kernel_size: 3
    stride: 2
    weight_filler {
      type: "xavier"
    }
    bias_filler {
      type: "constant"
      value: 0
    }
  }
}
layer {
  name: "relu3_1"
  type: "PReLU"
  bottom: "conv3_1"
  top: "conv3_1"
  prelu_param {
    filler {
      type: "gaussian"
      std: 0.03
    }
  }
}
layer {
  name: "res2_5_p"
  type: "Eltwise"
  bottom: "pool2"
  bottom: "conv3_1"
  top: "res2_5_p"
  eltwise_param {
    operation: SUM
  }
}
layer {
  name: "conv3_3"
  type: "Convolution"
  bottom: "res2_5_p"
  top: "conv3_3"
  param {
    lr_mult: 1
    decay_mult: 1
  }
  param {
    lr_mult: 0
    decay_mult: 0
  }
  convolution_param {
    num_output: 72
    pad: 1
    kernel_size: 3
    stride: 1
    weight_filler {
      type: "gaussian"
      std: 0.01
    }
    bias_filler {
      type: "constant"
      value: 0
    }
  }
}
layer {
  name: "relu3_3"
  type: "PReLU"
  bottom: "conv3_3"
  top: "conv3_3"
  prelu_param {
    filler {
      type: "gaussian"
      std: 0.03
    }
  }
}
layer {
  name: "res3_3"
  type: "Eltwise"
  bottom: "res2_5_p"
  bottom: "conv3_3"
  top: "res3_3"
  eltwise_param {
    operation: SUM
  }
}
layer {
  name: "conv3_5"
  type: "Convolution"
  bottom: "res3_3"
  top: "conv3_5"
  param {
    lr_mult: 1
    decay_mult: 1
  }
  param {
    lr_mult: 0
    decay_mult: 0
  }
  convolution_param {
    num_output: 72
    pad: 1
    kernel_size: 3
    stride: 1
    weight_filler {
      type: "gaussian"
      std: 0.01
    }
    bias_filler {
      type: "constant"
      value: 0
    }
  }
}
layer {
  name: "relu3_5"
  type: "PReLU"
  bottom: "conv3_5"
  top: "conv3_5"
  prelu_param {
    filler {
      type: "gaussian"
      std: 0.03
    }
  }
}
layer {
  name: "res3_5"
  type: "Eltwise"
  bottom: "res3_3"
  bottom: "conv3_5"
  top: "res3_5"
  eltwise_param {
    operation: SUM
  }
}
layer {
  name: "res3_5_reduce"
  type: "Convolution"
  bottom: "res3_5"
  top: "res3_5_reduce"
  param {
    lr_mult: 1
    decay_mult: 1
  }
  param {
    lr_mult: 0
    decay_mult: 0
  }
  convolution_param {
    num_output: 144
    kernel_size: 1
    stride: 1
    weight_filler {
      type: "gaussian"
      std: 0.01
    }
    bias_filler {
      type: "constant"
      value: 0
    }
  }
}
layer {
  name: "pool3"
  type: "Pooling"
  bottom: "res3_5_reduce"
  top: "pool3"
  pooling_param {
    pool: MAX
    kernel_size: 2
    stride: 2
  }
}
layer {
  name: "conv4_1"
  type: "Convolution"
  bottom: "res3_5"
  top: "conv4_1"
  param {
    lr_mult: 1
    decay_mult: 1
  }
  param {
    lr_mult: 2
    decay_mult: 0
  }
  convolution_param {
    num_output: 144
    pad: 1
    kernel_size: 3
    stride: 2
    weight_filler {
      type: "xavier"
    }
    bias_filler {
      type: "constant"
      value: 0
    }
  }
}
layer {
  name: "relu4_1"
  type: "PReLU"
  bottom: "conv4_1"
  top: "conv4_1"
  prelu_param {
    filler {
      type: "gaussian"
      std: 0.03
    }
  }
}
layer {
  name: "res3_5_p"
  type: "Eltwise"
  bottom: "pool3"
  bottom: "conv4_1"
  top: "res3_5_p"
  eltwise_param {
    operation: SUM
  }
}
layer {
  name: "conv4_3"
  type: "Convolution"
  bottom: "res3_5_p"
  top: "conv4_3"
  param {
    lr_mult: 1
    decay_mult: 1
  }
  param {
    lr_mult: 0
    decay_mult: 0
  }
  convolution_param {
    num_output: 144
    pad: 1
    kernel_size: 3
    stride: 1
    weight_filler {
      type: "gaussian"
      std: 0.01
    }
    bias_filler {
      type: "constant"
      value: 0
    }
  }
}
layer {
  name: "relu4_3"
  type: "PReLU"
  bottom: "conv4_3"
  top: "conv4_3"
  prelu_param {
    filler {
      type: "gaussian"
      std: 0.03
    }
  }
}
layer {
  name: "res4_3"
  type: "Eltwise"
  bottom: "res3_5_p"
  bottom: "conv4_3"
  top: "res4_3"
  eltwise_param {
    operation: SUM
  }
}
layer {
  name: "fc5"
  type: "InnerProduct"
  bottom: "res4_3"
  top: "fc5"
  param {
    lr_mult: 1
    decay_mult: 1
  }
  param {
    lr_mult: 2
    decay_mult: 0
  }
  inner_product_param {
    num_output: 256
    weight_filler {
      type: "xavier"
    }
    bias_filler {
      type: "constant"
      value: 0
    }
  }
}
layer {
  name: "fc5_bn"
  type: "BatchNorm"
  bottom: "fc5"
  top: "fc5"
  batch_norm_param {
    use_global_stats: false
  }
}
layer {
  name: "norm1"
  type: "Normalize"
  bottom: "fc5"
  top: "norm1"
}
layer {
  name: "fc-6_l2"
  type: "InnerProduct"
  bottom: "norm1"
  top: "fc-6_l2"
  param {
    lr_mult: 1
  }
  inner_product_param {
    num_output: 21331
    bias_term: false
    weight_filler {
      type: "xavier"
    }
    normalize: true
  }
}
layer {
  name: "fc-6_margin"
  type: "LabelSpecificAdd"
  bottom: "fc-6_l2"
  bottom: "label"
  top: "fc-6_margin"
  label_specific_add_param {
    bias: -0.35
  }
}
layer {
  name: "fc-6_margin_scale"
  type: "Scale"
  bottom: "fc-6_margin"
  top: "fc-6_margin_scale"
  param {
    lr_mult: 0
    decay_mult: 0
  }
  scale_param {
    filler {
      type: "constant"
      value: 30
    }
  }
}
layer {
  name: "softmax_loss"
  type: "SoftmaxWithLoss"
  bottom: "fc-6_margin_scale"
  bottom: "label"
  top: "softmax_loss"
}
I0522 10:55:21.375195 22299 layer_factory.hpp:77] Creating layer data
I0522 10:55:21.375413 22299 net.cpp:84] Creating Layer data
I0522 10:55:21.375450 22299 net.cpp:380] data -> data
I0522 10:55:21.375598 22299 net.cpp:380] data -> label
I0522 10:55:21.375660 22299 image_data_layer.cpp:38] Opening file /home/zkx/Data_sdb/TrainData/Data_sdc/Patches/shot_Oriental_Age_Lan_DHUA_PAKJ_Indon_Migrant_celeb/shot_Oriental_Age_Lan_DHUA_PAKJ_Indon_Migrant_celeb_label.txt
I0522 10:55:21.911384 22299 image_data_layer.cpp:53] Shuffling data
I0522 10:55:22.316125 22299 image_data_layer.cpp:63] A total of 1134127 images.
I0522 10:55:22.318397 22299 image_data_layer.cpp:90] output data size: 64,3,112,96
I0522 10:55:22.341902 22299 base_data_layer.cpp:72] Initializing prefetch
I0522 10:55:22.342129 22299 base_data_layer.cpp:75] Prefetch initialized.
I0522 10:55:22.342152 22299 net.cpp:122] Setting up data
I0522 10:55:22.342212 22299 net.cpp:129] Top shape: 64 3 112 96 (2064384)
I0522 10:55:22.342231 22299 net.cpp:129] Top shape: 64 (64)
I0522 10:55:22.342242 22299 net.cpp:137] Memory required for data: 8257792
I0522 10:55:22.342283 22299 layer_factory.hpp:77] Creating layer label_data_1_split
I0522 10:55:22.342356 22299 net.cpp:84] Creating Layer label_data_1_split
I0522 10:55:22.342394 22299 net.cpp:406] label_data_1_split <- label
I0522 10:55:22.342470 22299 net.cpp:380] label_data_1_split -> label_data_1_split_0
I0522 10:55:22.342531 22299 net.cpp:380] label_data_1_split -> label_data_1_split_1
I0522 10:55:22.342669 22299 net.cpp:122] Setting up label_data_1_split
I0522 10:55:22.342703 22299 net.cpp:129] Top shape: 64 (64)
I0522 10:55:22.342726 22299 net.cpp:129] Top shape: 64 (64)
I0522 10:55:22.342734 22299 net.cpp:137] Memory required for data: 8258304
I0522 10:55:22.342746 22299 layer_factory.hpp:77] Creating layer conv1_1
I0522 10:55:22.342844 22299 net.cpp:84] Creating Layer conv1_1
I0522 10:55:22.342862 22299 net.cpp:406] conv1_1 <- data
I0522 10:55:22.342905 22299 net.cpp:380] conv1_1 -> conv1_1
I0522 10:55:22.404130 22343 image_data_layer.cpp:170] Prefetch batch: 58 ms.
I0522 10:55:22.404178 22343 image_data_layer.cpp:171]      Read time: 32.631 ms.
I0522 10:55:22.404188 22343 image_data_layer.cpp:172] Transform time: 23.668 ms.
I0522 10:55:22.488555 22343 image_data_layer.cpp:170] Prefetch batch: 81 ms.
I0522 10:55:22.488593 22343 image_data_layer.cpp:171]      Read time: 27.947 ms.
I0522 10:55:22.488601 22343 image_data_layer.cpp:172] Transform time: 20.765 ms.
I0522 10:55:22.535284 22343 image_data_layer.cpp:170] Prefetch batch: 45 ms.
I0522 10:55:22.535317 22343 image_data_layer.cpp:171]      Read time: 24.333 ms.
I0522 10:55:22.535323 22343 image_data_layer.cpp:172] Transform time: 17.774 ms.
I0522 10:55:22.613031 22343 image_data_layer.cpp:170] Prefetch batch: 63 ms.
I0522 10:55:22.613065 22343 image_data_layer.cpp:171]      Read time: 23.345 ms.
I0522 10:55:22.613072 22343 image_data_layer.cpp:172] Transform time: 17.054 ms.
I0522 10:55:22.875893 22299 cudnn_conv_layer.cpp:194] Reallocating workspace storage: 324
I0522 10:55:22.875953 22299 net.cpp:122] Setting up conv1_1
I0522 10:55:22.875982 22299 net.cpp:129] Top shape: 64 24 56 48 (4128768)
I0522 10:55:22.875986 22299 net.cpp:137] Memory required for data: 24773376
I0522 10:55:22.876096 22299 layer_factory.hpp:77] Creating layer relu1_1
I0522 10:55:22.876148 22299 net.cpp:84] Creating Layer relu1_1
I0522 10:55:22.876168 22299 net.cpp:406] relu1_1 <- conv1_1
I0522 10:55:22.876196 22299 net.cpp:367] relu1_1 -> conv1_1 (in-place)
I0522 10:55:22.877979 22299 net.cpp:122] Setting up relu1_1
I0522 10:55:22.877998 22299 net.cpp:129] Top shape: 64 24 56 48 (4128768)
I0522 10:55:22.878003 22299 net.cpp:137] Memory required for data: 41288448
I0522 10:55:22.878031 22299 layer_factory.hpp:77] Creating layer conv1_1_relu1_1_0_split
I0522 10:55:22.878057 22299 net.cpp:84] Creating Layer conv1_1_relu1_1_0_split
I0522 10:55:22.878068 22299 net.cpp:406] conv1_1_relu1_1_0_split <- conv1_1
I0522 10:55:22.878088 22299 net.cpp:380] conv1_1_relu1_1_0_split -> conv1_1_relu1_1_0_split_0
I0522 10:55:22.878114 22299 net.cpp:380] conv1_1_relu1_1_0_split -> conv1_1_relu1_1_0_split_1
I0522 10:55:22.878173 22299 net.cpp:122] Setting up conv1_1_relu1_1_0_split
I0522 10:55:22.878187 22299 net.cpp:129] Top shape: 64 24 56 48 (4128768)
I0522 10:55:22.878196 22299 net.cpp:129] Top shape: 64 24 56 48 (4128768)
I0522 10:55:22.878199 22299 net.cpp:137] Memory required for data: 74318592
I0522 10:55:22.878206 22299 layer_factory.hpp:77] Creating layer conv1_3
I0522 10:55:22.878245 22299 net.cpp:84] Creating Layer conv1_3
I0522 10:55:22.878255 22299 net.cpp:406] conv1_3 <- conv1_1_relu1_1_0_split_0
I0522 10:55:22.878307 22299 net.cpp:380] conv1_3 -> conv1_3
I0522 10:55:22.882128 22299 cudnn_conv_layer.cpp:194] Reallocating workspace storage: 147456
I0522 10:55:22.882505 22299 net.cpp:122] Setting up conv1_3
I0522 10:55:22.882525 22299 net.cpp:129] Top shape: 64 24 56 48 (4128768)
I0522 10:55:22.882531 22299 net.cpp:137] Memory required for data: 90833664
I0522 10:55:22.882562 22299 layer_factory.hpp:77] Creating layer relu1_3
I0522 10:55:22.882585 22299 net.cpp:84] Creating Layer relu1_3
I0522 10:55:22.882593 22299 net.cpp:406] relu1_3 <- conv1_3
I0522 10:55:22.882613 22299 net.cpp:367] relu1_3 -> conv1_3 (in-place)
I0522 10:55:22.882977 22299 net.cpp:122] Setting up relu1_3
I0522 10:55:22.882990 22299 net.cpp:129] Top shape: 64 24 56 48 (4128768)
I0522 10:55:22.882994 22299 net.cpp:137] Memory required for data: 107348736
I0522 10:55:22.883008 22299 layer_factory.hpp:77] Creating layer res1_3
I0522 10:55:22.883033 22299 net.cpp:84] Creating Layer res1_3
I0522 10:55:22.883041 22299 net.cpp:406] res1_3 <- conv1_1_relu1_1_0_split_1
I0522 10:55:22.883056 22299 net.cpp:406] res1_3 <- conv1_3
I0522 10:55:22.883071 22299 net.cpp:380] res1_3 -> res1_3
I0522 10:55:22.883159 22299 net.cpp:122] Setting up res1_3
I0522 10:55:22.883174 22299 net.cpp:129] Top shape: 64 24 56 48 (4128768)
I0522 10:55:22.883180 22299 net.cpp:137] Memory required for data: 123863808
I0522 10:55:22.883188 22299 layer_factory.hpp:77] Creating layer res1_3_res1_3_0_split
I0522 10:55:22.883205 22299 net.cpp:84] Creating Layer res1_3_res1_3_0_split
I0522 10:55:22.883215 22299 net.cpp:406] res1_3_res1_3_0_split <- res1_3
I0522 10:55:22.883232 22299 net.cpp:380] res1_3_res1_3_0_split -> res1_3_res1_3_0_split_0
I0522 10:55:22.883252 22299 net.cpp:380] res1_3_res1_3_0_split -> res1_3_res1_3_0_split_1
I0522 10:55:22.883304 22299 net.cpp:122] Setting up res1_3_res1_3_0_split
I0522 10:55:22.883317 22299 net.cpp:129] Top shape: 64 24 56 48 (4128768)
I0522 10:55:22.883323 22299 net.cpp:129] Top shape: 64 24 56 48 (4128768)
I0522 10:55:22.883327 22299 net.cpp:137] Memory required for data: 156893952
I0522 10:55:22.883333 22299 layer_factory.hpp:77] Creating layer res1_3_reduce
I0522 10:55:22.883360 22299 net.cpp:84] Creating Layer res1_3_reduce
I0522 10:55:22.883370 22299 net.cpp:406] res1_3_reduce <- res1_3_res1_3_0_split_0
I0522 10:55:22.883393 22299 net.cpp:380] res1_3_reduce -> res1_3_reduce
I0522 10:55:22.884544 22299 cudnn_conv_layer.cpp:194] Reallocating workspace storage: 288
I0522 10:55:22.884573 22299 net.cpp:122] Setting up res1_3_reduce
I0522 10:55:22.884587 22299 net.cpp:129] Top shape: 64 48 56 48 (8257536)
I0522 10:55:22.884593 22299 net.cpp:137] Memory required for data: 189924096
I0522 10:55:22.884611 22299 layer_factory.hpp:77] Creating layer pool1
I0522 10:55:22.884642 22299 net.cpp:84] Creating Layer pool1
I0522 10:55:22.884654 22299 net.cpp:406] pool1 <- res1_3_reduce
I0522 10:55:22.884675 22299 net.cpp:380] pool1 -> pool1
I0522 10:55:22.884759 22299 net.cpp:122] Setting up pool1
I0522 10:55:22.884774 22299 net.cpp:129] Top shape: 64 48 28 24 (2064384)
I0522 10:55:22.884780 22299 net.cpp:137] Memory required for data: 198181632
I0522 10:55:22.884788 22299 layer_factory.hpp:77] Creating layer conv2_1
I0522 10:55:22.884814 22299 net.cpp:84] Creating Layer conv2_1
I0522 10:55:22.884824 22299 net.cpp:406] conv2_1 <- res1_3_res1_3_0_split_1
I0522 10:55:22.884846 22299 net.cpp:380] conv2_1 -> conv2_1
I0522 10:55:22.886909 22299 cudnn_conv_layer.cpp:194] Reallocating workspace storage: 2592
I0522 10:55:22.887286 22299 net.cpp:122] Setting up conv2_1
I0522 10:55:22.887306 22299 net.cpp:129] Top shape: 64 48 28 24 (2064384)
I0522 10:55:22.887313 22299 net.cpp:137] Memory required for data: 206439168
I0522 10:55:22.887346 22299 layer_factory.hpp:77] Creating layer relu2_1
I0522 10:55:22.887368 22299 net.cpp:84] Creating Layer relu2_1
I0522 10:55:22.887379 22299 net.cpp:406] relu2_1 <- conv2_1
I0522 10:55:22.887399 22299 net.cpp:367] relu2_1 -> conv2_1 (in-place)
I0522 10:55:22.887652 22299 net.cpp:122] Setting up relu2_1
I0522 10:55:22.887666 22299 net.cpp:129] Top shape: 64 48 28 24 (2064384)
I0522 10:55:22.887686 22299 net.cpp:137] Memory required for data: 214696704
I0522 10:55:22.887701 22299 layer_factory.hpp:77] Creating layer res1_3_p
I0522 10:55:22.887720 22299 net.cpp:84] Creating Layer res1_3_p
I0522 10:55:22.887732 22299 net.cpp:406] res1_3_p <- pool1
I0522 10:55:22.887747 22299 net.cpp:406] res1_3_p <- conv2_1
I0522 10:55:22.887761 22299 net.cpp:380] res1_3_p -> res1_3_p
I0522 10:55:22.887814 22299 net.cpp:122] Setting up res1_3_p
I0522 10:55:22.887827 22299 net.cpp:129] Top shape: 64 48 28 24 (2064384)
I0522 10:55:22.887833 22299 net.cpp:137] Memory required for data: 222954240
I0522 10:55:22.887840 22299 layer_factory.hpp:77] Creating layer res1_3_p_res1_3_p_0_split
I0522 10:55:22.887854 22299 net.cpp:84] Creating Layer res1_3_p_res1_3_p_0_split
I0522 10:55:22.887862 22299 net.cpp:406] res1_3_p_res1_3_p_0_split <- res1_3_p
I0522 10:55:22.887881 22299 net.cpp:380] res1_3_p_res1_3_p_0_split -> res1_3_p_res1_3_p_0_split_0
I0522 10:55:22.887902 22299 net.cpp:380] res1_3_p_res1_3_p_0_split -> res1_3_p_res1_3_p_0_split_1
I0522 10:55:22.887960 22299 net.cpp:122] Setting up res1_3_p_res1_3_p_0_split
I0522 10:55:22.887974 22299 net.cpp:129] Top shape: 64 48 28 24 (2064384)
I0522 10:55:22.887981 22299 net.cpp:129] Top shape: 64 48 28 24 (2064384)
I0522 10:55:22.887986 22299 net.cpp:137] Memory required for data: 239469312
I0522 10:55:22.887993 22299 layer_factory.hpp:77] Creating layer conv2_3
I0522 10:55:22.888020 22299 net.cpp:84] Creating Layer conv2_3
I0522 10:55:22.888031 22299 net.cpp:406] conv2_3 <- res1_3_p_res1_3_p_0_split_0
I0522 10:55:22.888053 22299 net.cpp:380] conv2_3 -> conv2_3
I0522 10:55:22.893854 22299 cudnn_conv_layer.cpp:194] Reallocating workspace storage: 589824
I0522 10:55:22.894232 22299 net.cpp:122] Setting up conv2_3
I0522 10:55:22.894253 22299 net.cpp:129] Top shape: 64 48 28 24 (2064384)
I0522 10:55:22.894259 22299 net.cpp:137] Memory required for data: 247726848
I0522 10:55:22.894279 22299 layer_factory.hpp:77] Creating layer relu2_3
I0522 10:55:22.894307 22299 net.cpp:84] Creating Layer relu2_3
I0522 10:55:22.894320 22299 net.cpp:406] relu2_3 <- conv2_3
I0522 10:55:22.894341 22299 net.cpp:367] relu2_3 -> conv2_3 (in-place)
I0522 10:55:22.894601 22299 net.cpp:122] Setting up relu2_3
I0522 10:55:22.894614 22299 net.cpp:129] Top shape: 64 48 28 24 (2064384)
I0522 10:55:22.894619 22299 net.cpp:137] Memory required for data: 255984384
I0522 10:55:22.894631 22299 layer_factory.hpp:77] Creating layer res2_3
I0522 10:55:22.894650 22299 net.cpp:84] Creating Layer res2_3
I0522 10:55:22.894661 22299 net.cpp:406] res2_3 <- res1_3_p_res1_3_p_0_split_1
I0522 10:55:22.894675 22299 net.cpp:406] res2_3 <- conv2_3
I0522 10:55:22.894690 22299 net.cpp:380] res2_3 -> res2_3
I0522 10:55:22.894767 22299 net.cpp:122] Setting up res2_3
I0522 10:55:22.894781 22299 net.cpp:129] Top shape: 64 48 28 24 (2064384)
I0522 10:55:22.894788 22299 net.cpp:137] Memory required for data: 264241920
I0522 10:55:22.894794 22299 layer_factory.hpp:77] Creating layer res2_3_res2_3_0_split
I0522 10:55:22.894809 22299 net.cpp:84] Creating Layer res2_3_res2_3_0_split
I0522 10:55:22.894816 22299 net.cpp:406] res2_3_res2_3_0_split <- res2_3
I0522 10:55:22.894834 22299 net.cpp:380] res2_3_res2_3_0_split -> res2_3_res2_3_0_split_0
I0522 10:55:22.894853 22299 net.cpp:380] res2_3_res2_3_0_split -> res2_3_res2_3_0_split_1
I0522 10:55:22.894907 22299 net.cpp:122] Setting up res2_3_res2_3_0_split
I0522 10:55:22.894920 22299 net.cpp:129] Top shape: 64 48 28 24 (2064384)
I0522 10:55:22.894927 22299 net.cpp:129] Top shape: 64 48 28 24 (2064384)
I0522 10:55:22.894929 22299 net.cpp:137] Memory required for data: 280756992
I0522 10:55:22.894937 22299 layer_factory.hpp:77] Creating layer conv2_5
I0522 10:55:22.894963 22299 net.cpp:84] Creating Layer conv2_5
I0522 10:55:22.894973 22299 net.cpp:406] conv2_5 <- res2_3_res2_3_0_split_0
I0522 10:55:22.894995 22299 net.cpp:380] conv2_5 -> conv2_5
I0522 10:55:22.900816 22299 cudnn_conv_layer.cpp:194] Reallocating workspace storage: 589824
I0522 10:55:22.900858 22299 net.cpp:122] Setting up conv2_5
I0522 10:55:22.900872 22299 net.cpp:129] Top shape: 64 48 28 24 (2064384)
I0522 10:55:22.900879 22299 net.cpp:137] Memory required for data: 289014528
I0522 10:55:22.900897 22299 layer_factory.hpp:77] Creating layer relu2_5
I0522 10:55:22.900920 22299 net.cpp:84] Creating Layer relu2_5
I0522 10:55:22.900931 22299 net.cpp:406] relu2_5 <- conv2_5
I0522 10:55:22.900951 22299 net.cpp:367] relu2_5 -> conv2_5 (in-place)
I0522 10:55:22.901208 22299 net.cpp:122] Setting up relu2_5
I0522 10:55:22.901222 22299 net.cpp:129] Top shape: 64 48 28 24 (2064384)
I0522 10:55:22.901226 22299 net.cpp:137] Memory required for data: 297272064
I0522 10:55:22.901253 22299 layer_factory.hpp:77] Creating layer res2_5
I0522 10:55:22.901273 22299 net.cpp:84] Creating Layer res2_5
I0522 10:55:22.901283 22299 net.cpp:406] res2_5 <- res2_3_res2_3_0_split_1
I0522 10:55:22.901298 22299 net.cpp:406] res2_5 <- conv2_5
I0522 10:55:22.901311 22299 net.cpp:380] res2_5 -> res2_5
I0522 10:55:22.901362 22299 net.cpp:122] Setting up res2_5
I0522 10:55:22.901376 22299 net.cpp:129] Top shape: 64 48 28 24 (2064384)
I0522 10:55:22.901382 22299 net.cpp:137] Memory required for data: 305529600
I0522 10:55:22.901389 22299 layer_factory.hpp:77] Creating layer res2_5_res2_5_0_split
I0522 10:55:22.901403 22299 net.cpp:84] Creating Layer res2_5_res2_5_0_split
I0522 10:55:22.901412 22299 net.cpp:406] res2_5_res2_5_0_split <- res2_5
I0522 10:55:22.901428 22299 net.cpp:380] res2_5_res2_5_0_split -> res2_5_res2_5_0_split_0
I0522 10:55:22.901448 22299 net.cpp:380] res2_5_res2_5_0_split -> res2_5_res2_5_0_split_1
I0522 10:55:22.901502 22299 net.cpp:122] Setting up res2_5_res2_5_0_split
I0522 10:55:22.901515 22299 net.cpp:129] Top shape: 64 48 28 24 (2064384)
I0522 10:55:22.901520 22299 net.cpp:129] Top shape: 64 48 28 24 (2064384)
I0522 10:55:22.901525 22299 net.cpp:137] Memory required for data: 322044672
I0522 10:55:22.901531 22299 layer_factory.hpp:77] Creating layer res2_5_reduce
I0522 10:55:22.901557 22299 net.cpp:84] Creating Layer res2_5_reduce
I0522 10:55:22.901568 22299 net.cpp:406] res2_5_reduce <- res2_5_res2_5_0_split_0
I0522 10:55:22.901590 22299 net.cpp:380] res2_5_reduce -> res2_5_reduce
I0522 10:55:22.903642 22299 cudnn_conv_layer.cpp:194] Reallocating workspace storage: 576
I0522 10:55:22.903673 22299 net.cpp:122] Setting up res2_5_reduce
I0522 10:55:22.903687 22299 net.cpp:129] Top shape: 64 72 28 24 (3096576)
I0522 10:55:22.903693 22299 net.cpp:137] Memory required for data: 334430976
I0522 10:55:22.903712 22299 layer_factory.hpp:77] Creating layer pool2
I0522 10:55:22.903734 22299 net.cpp:84] Creating Layer pool2
I0522 10:55:22.903745 22299 net.cpp:406] pool2 <- res2_5_reduce
I0522 10:55:22.903767 22299 net.cpp:380] pool2 -> pool2
I0522 10:55:22.903838 22299 net.cpp:122] Setting up pool2
I0522 10:55:22.903852 22299 net.cpp:129] Top shape: 64 72 14 12 (774144)
I0522 10:55:22.903858 22299 net.cpp:137] Memory required for data: 337527552
I0522 10:55:22.903865 22299 layer_factory.hpp:77] Creating layer conv3_1
I0522 10:55:22.903893 22299 net.cpp:84] Creating Layer conv3_1
I0522 10:55:22.903903 22299 net.cpp:406] conv3_1 <- res2_5_res2_5_0_split_1
I0522 10:55:22.903928 22299 net.cpp:380] conv3_1 -> conv3_1
I0522 10:55:22.907620 22299 cudnn_conv_layer.cpp:194] Reallocating workspace storage: 5184
I0522 10:55:22.908008 22299 net.cpp:122] Setting up conv3_1
I0522 10:55:22.908028 22299 net.cpp:129] Top shape: 64 72 14 12 (774144)
I0522 10:55:22.908035 22299 net.cpp:137] Memory required for data: 340624128
I0522 10:55:22.908054 22299 layer_factory.hpp:77] Creating layer relu3_1
I0522 10:55:22.908077 22299 net.cpp:84] Creating Layer relu3_1
I0522 10:55:22.908088 22299 net.cpp:406] relu3_1 <- conv3_1
I0522 10:55:22.908109 22299 net.cpp:367] relu3_1 -> conv3_1 (in-place)
I0522 10:55:22.908311 22299 net.cpp:122] Setting up relu3_1
I0522 10:55:22.908325 22299 net.cpp:129] Top shape: 64 72 14 12 (774144)
I0522 10:55:22.908329 22299 net.cpp:137] Memory required for data: 343720704
I0522 10:55:22.908342 22299 layer_factory.hpp:77] Creating layer res2_5_p
I0522 10:55:22.908376 22299 net.cpp:84] Creating Layer res2_5_p
I0522 10:55:22.908387 22299 net.cpp:406] res2_5_p <- pool2
I0522 10:55:22.908403 22299 net.cpp:406] res2_5_p <- conv3_1
I0522 10:55:22.908419 22299 net.cpp:380] res2_5_p -> res2_5_p
I0522 10:55:22.908473 22299 net.cpp:122] Setting up res2_5_p
I0522 10:55:22.908486 22299 net.cpp:129] Top shape: 64 72 14 12 (774144)
I0522 10:55:22.908493 22299 net.cpp:137] Memory required for data: 346817280
I0522 10:55:22.908499 22299 layer_factory.hpp:77] Creating layer res2_5_p_res2_5_p_0_split
I0522 10:55:22.908514 22299 net.cpp:84] Creating Layer res2_5_p_res2_5_p_0_split
I0522 10:55:22.908524 22299 net.cpp:406] res2_5_p_res2_5_p_0_split <- res2_5_p
I0522 10:55:22.908541 22299 net.cpp:380] res2_5_p_res2_5_p_0_split -> res2_5_p_res2_5_p_0_split_0
I0522 10:55:22.908562 22299 net.cpp:380] res2_5_p_res2_5_p_0_split -> res2_5_p_res2_5_p_0_split_1
I0522 10:55:22.908617 22299 net.cpp:122] Setting up res2_5_p_res2_5_p_0_split
I0522 10:55:22.908630 22299 net.cpp:129] Top shape: 64 72 14 12 (774144)
I0522 10:55:22.908637 22299 net.cpp:129] Top shape: 64 72 14 12 (774144)
I0522 10:55:22.908640 22299 net.cpp:137] Memory required for data: 353010432
I0522 10:55:22.908646 22299 layer_factory.hpp:77] Creating layer conv3_3
I0522 10:55:22.908679 22299 net.cpp:84] Creating Layer conv3_3
I0522 10:55:22.908689 22299 net.cpp:406] conv3_3 <- res2_5_p_res2_5_p_0_split_0
I0522 10:55:22.908712 22299 net.cpp:380] conv3_3 -> conv3_3
I0522 10:55:22.920235 22299 cudnn_conv_layer.cpp:194] Reallocating workspace storage: 1327104
I0522 10:55:22.920614 22299 net.cpp:122] Setting up conv3_3
I0522 10:55:22.920634 22299 net.cpp:129] Top shape: 64 72 14 12 (774144)
I0522 10:55:22.920640 22299 net.cpp:137] Memory required for data: 356107008
I0522 10:55:22.920660 22299 layer_factory.hpp:77] Creating layer relu3_3
I0522 10:55:22.920683 22299 net.cpp:84] Creating Layer relu3_3
I0522 10:55:22.920696 22299 net.cpp:406] relu3_3 <- conv3_3
I0522 10:55:22.920718 22299 net.cpp:367] relu3_3 -> conv3_3 (in-place)
I0522 10:55:22.920928 22299 net.cpp:122] Setting up relu3_3
I0522 10:55:22.920941 22299 net.cpp:129] Top shape: 64 72 14 12 (774144)
I0522 10:55:22.920946 22299 net.cpp:137] Memory required for data: 359203584
I0522 10:55:22.920959 22299 layer_factory.hpp:77] Creating layer res3_3
I0522 10:55:22.920979 22299 net.cpp:84] Creating Layer res3_3
I0522 10:55:22.920989 22299 net.cpp:406] res3_3 <- res2_5_p_res2_5_p_0_split_1
I0522 10:55:22.921006 22299 net.cpp:406] res3_3 <- conv3_3
I0522 10:55:22.921021 22299 net.cpp:380] res3_3 -> res3_3
I0522 10:55:22.921082 22299 net.cpp:122] Setting up res3_3
I0522 10:55:22.921097 22299 net.cpp:129] Top shape: 64 72 14 12 (774144)
I0522 10:55:22.921103 22299 net.cpp:137] Memory required for data: 362300160
I0522 10:55:22.921109 22299 layer_factory.hpp:77] Creating layer res3_3_res3_3_0_split
I0522 10:55:22.921130 22299 net.cpp:84] Creating Layer res3_3_res3_3_0_split
I0522 10:55:22.921139 22299 net.cpp:406] res3_3_res3_3_0_split <- res3_3
I0522 10:55:22.921159 22299 net.cpp:380] res3_3_res3_3_0_split -> res3_3_res3_3_0_split_0
I0522 10:55:22.921178 22299 net.cpp:380] res3_3_res3_3_0_split -> res3_3_res3_3_0_split_1
I0522 10:55:22.921234 22299 net.cpp:122] Setting up res3_3_res3_3_0_split
I0522 10:55:22.921247 22299 net.cpp:129] Top shape: 64 72 14 12 (774144)
I0522 10:55:22.921254 22299 net.cpp:129] Top shape: 64 72 14 12 (774144)
I0522 10:55:22.921258 22299 net.cpp:137] Memory required for data: 368493312
I0522 10:55:22.921264 22299 layer_factory.hpp:77] Creating layer conv3_5
I0522 10:55:22.921291 22299 net.cpp:84] Creating Layer conv3_5
I0522 10:55:22.921301 22299 net.cpp:406] conv3_5 <- res3_3_res3_3_0_split_0
I0522 10:55:22.921324 22299 net.cpp:380] conv3_5 -> conv3_5
I0522 10:55:22.932859 22299 cudnn_conv_layer.cpp:194] Reallocating workspace storage: 1327104
I0522 10:55:22.933238 22299 net.cpp:122] Setting up conv3_5
I0522 10:55:22.933259 22299 net.cpp:129] Top shape: 64 72 14 12 (774144)
I0522 10:55:22.933265 22299 net.cpp:137] Memory required for data: 371589888
I0522 10:55:22.933300 22299 layer_factory.hpp:77] Creating layer relu3_5
I0522 10:55:22.933323 22299 net.cpp:84] Creating Layer relu3_5
I0522 10:55:22.933336 22299 net.cpp:406] relu3_5 <- conv3_5
I0522 10:55:22.933357 22299 net.cpp:367] relu3_5 -> conv3_5 (in-place)
I0522 10:55:22.933567 22299 net.cpp:122] Setting up relu3_5
I0522 10:55:22.933580 22299 net.cpp:129] Top shape: 64 72 14 12 (774144)
I0522 10:55:22.933585 22299 net.cpp:137] Memory required for data: 374686464
I0522 10:55:22.933598 22299 layer_factory.hpp:77] Creating layer res3_5
I0522 10:55:22.933616 22299 net.cpp:84] Creating Layer res3_5
I0522 10:55:22.933626 22299 net.cpp:406] res3_5 <- res3_3_res3_3_0_split_1
I0522 10:55:22.933641 22299 net.cpp:406] res3_5 <- conv3_5
I0522 10:55:22.933656 22299 net.cpp:380] res3_5 -> res3_5
I0522 10:55:22.933708 22299 net.cpp:122] Setting up res3_5
I0522 10:55:22.933722 22299 net.cpp:129] Top shape: 64 72 14 12 (774144)
I0522 10:55:22.933727 22299 net.cpp:137] Memory required for data: 377783040
I0522 10:55:22.933734 22299 layer_factory.hpp:77] Creating layer res3_5_res3_5_0_split
I0522 10:55:22.933748 22299 net.cpp:84] Creating Layer res3_5_res3_5_0_split
I0522 10:55:22.933756 22299 net.cpp:406] res3_5_res3_5_0_split <- res3_5
I0522 10:55:22.933773 22299 net.cpp:380] res3_5_res3_5_0_split -> res3_5_res3_5_0_split_0
I0522 10:55:22.933794 22299 net.cpp:380] res3_5_res3_5_0_split -> res3_5_res3_5_0_split_1
I0522 10:55:22.933848 22299 net.cpp:122] Setting up res3_5_res3_5_0_split
I0522 10:55:22.933861 22299 net.cpp:129] Top shape: 64 72 14 12 (774144)
I0522 10:55:22.933867 22299 net.cpp:129] Top shape: 64 72 14 12 (774144)
I0522 10:55:22.933871 22299 net.cpp:137] Memory required for data: 383976192
I0522 10:55:22.933877 22299 layer_factory.hpp:77] Creating layer res3_5_reduce
I0522 10:55:22.933904 22299 net.cpp:84] Creating Layer res3_5_reduce
I0522 10:55:22.933914 22299 net.cpp:406] res3_5_reduce <- res3_5_res3_5_0_split_0
I0522 10:55:22.933936 22299 net.cpp:380] res3_5_reduce -> res3_5_reduce
I0522 10:55:22.937533 22299 cudnn_conv_layer.cpp:194] Reallocating workspace storage: 864
I0522 10:55:22.937566 22299 net.cpp:122] Setting up res3_5_reduce
I0522 10:55:22.937579 22299 net.cpp:129] Top shape: 64 144 14 12 (1548288)
I0522 10:55:22.937585 22299 net.cpp:137] Memory required for data: 390169344
I0522 10:55:22.937604 22299 layer_factory.hpp:77] Creating layer pool3
I0522 10:55:22.937626 22299 net.cpp:84] Creating Layer pool3
I0522 10:55:22.937638 22299 net.cpp:406] pool3 <- res3_5_reduce
I0522 10:55:22.937662 22299 net.cpp:380] pool3 -> pool3
I0522 10:55:22.937734 22299 net.cpp:122] Setting up pool3
I0522 10:55:22.937748 22299 net.cpp:129] Top shape: 64 144 7 6 (387072)
I0522 10:55:22.937754 22299 net.cpp:137] Memory required for data: 391717632
I0522 10:55:22.937762 22299 layer_factory.hpp:77] Creating layer conv4_1
I0522 10:55:22.937789 22299 net.cpp:84] Creating Layer conv4_1
I0522 10:55:22.937800 22299 net.cpp:406] conv4_1 <- res3_5_res3_5_0_split_1
I0522 10:55:22.937824 22299 net.cpp:380] conv4_1 -> conv4_1
I0522 10:55:22.947768 22299 cudnn_conv_layer.cpp:194] Reallocating workspace storage: 7776
I0522 10:55:22.947804 22299 net.cpp:122] Setting up conv4_1
I0522 10:55:22.947818 22299 net.cpp:129] Top shape: 64 144 7 6 (387072)
I0522 10:55:22.947825 22299 net.cpp:137] Memory required for data: 393265920
I0522 10:55:22.947844 22299 layer_factory.hpp:77] Creating layer relu4_1
I0522 10:55:22.947866 22299 net.cpp:84] Creating Layer relu4_1
I0522 10:55:22.947878 22299 net.cpp:406] relu4_1 <- conv4_1
I0522 10:55:22.947901 22299 net.cpp:367] relu4_1 -> conv4_1 (in-place)
I0522 10:55:22.948107 22299 net.cpp:122] Setting up relu4_1
I0522 10:55:22.948123 22299 net.cpp:129] Top shape: 64 144 7 6 (387072)
I0522 10:55:22.948127 22299 net.cpp:137] Memory required for data: 394814208
I0522 10:55:22.948156 22299 layer_factory.hpp:77] Creating layer res3_5_p
I0522 10:55:22.948175 22299 net.cpp:84] Creating Layer res3_5_p
I0522 10:55:22.948185 22299 net.cpp:406] res3_5_p <- pool3
I0522 10:55:22.948199 22299 net.cpp:406] res3_5_p <- conv4_1
I0522 10:55:22.948231 22299 net.cpp:380] res3_5_p -> res3_5_p
I0522 10:55:22.948289 22299 net.cpp:122] Setting up res3_5_p
I0522 10:55:22.948303 22299 net.cpp:129] Top shape: 64 144 7 6 (387072)
I0522 10:55:22.948309 22299 net.cpp:137] Memory required for data: 396362496
I0522 10:55:22.948316 22299 layer_factory.hpp:77] Creating layer res3_5_p_res3_5_p_0_split
I0522 10:55:22.948331 22299 net.cpp:84] Creating Layer res3_5_p_res3_5_p_0_split
I0522 10:55:22.948341 22299 net.cpp:406] res3_5_p_res3_5_p_0_split <- res3_5_p
I0522 10:55:22.948359 22299 net.cpp:380] res3_5_p_res3_5_p_0_split -> res3_5_p_res3_5_p_0_split_0
I0522 10:55:22.948380 22299 net.cpp:380] res3_5_p_res3_5_p_0_split -> res3_5_p_res3_5_p_0_split_1
I0522 10:55:22.948437 22299 net.cpp:122] Setting up res3_5_p_res3_5_p_0_split
I0522 10:55:22.948449 22299 net.cpp:129] Top shape: 64 144 7 6 (387072)
I0522 10:55:22.948457 22299 net.cpp:129] Top shape: 64 144 7 6 (387072)
I0522 10:55:22.948459 22299 net.cpp:137] Memory required for data: 399459072
I0522 10:55:22.948467 22299 layer_factory.hpp:77] Creating layer conv4_3
I0522 10:55:22.948493 22299 net.cpp:84] Creating Layer conv4_3
I0522 10:55:22.948504 22299 net.cpp:406] conv4_3 <- res3_5_p_res3_5_p_0_split_0
I0522 10:55:22.948527 22299 net.cpp:380] conv4_3 -> conv4_3
I0522 10:55:22.990294 22299 cudnn_conv_layer.cpp:194] Reallocating workspace storage: 4423680
I0522 10:55:22.990742 22299 net.cpp:122] Setting up conv4_3
I0522 10:55:22.990767 22299 net.cpp:129] Top shape: 64 144 7 6 (387072)
I0522 10:55:22.990773 22299 net.cpp:137] Memory required for data: 401007360
I0522 10:55:22.990797 22299 layer_factory.hpp:77] Creating layer relu4_3
I0522 10:55:22.990823 22299 net.cpp:84] Creating Layer relu4_3
I0522 10:55:22.990835 22299 net.cpp:406] relu4_3 <- conv4_3
I0522 10:55:22.990859 22299 net.cpp:367] relu4_3 -> conv4_3 (in-place)
I0522 10:55:22.991097 22299 net.cpp:122] Setting up relu4_3
I0522 10:55:22.991111 22299 net.cpp:129] Top shape: 64 144 7 6 (387072)
I0522 10:55:22.991116 22299 net.cpp:137] Memory required for data: 402555648
I0522 10:55:22.991128 22299 layer_factory.hpp:77] Creating layer res4_3
I0522 10:55:22.991148 22299 net.cpp:84] Creating Layer res4_3
I0522 10:55:22.991159 22299 net.cpp:406] res4_3 <- res3_5_p_res3_5_p_0_split_1
I0522 10:55:22.991174 22299 net.cpp:406] res4_3 <- conv4_3
I0522 10:55:22.991189 22299 net.cpp:380] res4_3 -> res4_3
I0522 10:55:22.991241 22299 net.cpp:122] Setting up res4_3
I0522 10:55:22.991255 22299 net.cpp:129] Top shape: 64 144 7 6 (387072)
I0522 10:55:22.991261 22299 net.cpp:137] Memory required for data: 404103936
I0522 10:55:22.991268 22299 layer_factory.hpp:77] Creating layer fc5
I0522 10:55:22.991297 22299 net.cpp:84] Creating Layer fc5
I0522 10:55:22.991307 22299 net.cpp:406] fc5 <- res4_3
I0522 10:55:22.991329 22299 net.cpp:380] fc5 -> fc5
I0522 10:55:23.107193 22299 net.cpp:122] Setting up fc5
I0522 10:55:23.107252 22299 net.cpp:129] Top shape: 64 256 (16384)
I0522 10:55:23.107259 22299 net.cpp:137] Memory required for data: 404169472
I0522 10:55:23.107291 22299 layer_factory.hpp:77] Creating layer fc5_bn
I0522 10:55:23.107338 22299 net.cpp:84] Creating Layer fc5_bn
I0522 10:55:23.107378 22299 net.cpp:406] fc5_bn <- fc5
I0522 10:55:23.107411 22299 net.cpp:367] fc5_bn -> fc5 (in-place)
I0522 10:55:23.107652 22299 net.cpp:122] Setting up fc5_bn
I0522 10:55:23.107664 22299 net.cpp:129] Top shape: 64 256 (16384)
I0522 10:55:23.107668 22299 net.cpp:137] Memory required for data: 404235008
I0522 10:55:23.107694 22299 layer_factory.hpp:77] Creating layer norm1
I0522 10:55:23.107718 22299 net.cpp:84] Creating Layer norm1
I0522 10:55:23.107728 22299 net.cpp:406] norm1 <- fc5
I0522 10:55:23.107744 22299 net.cpp:380] norm1 -> norm1
I0522 10:55:23.107843 22299 net.cpp:122] Setting up norm1
I0522 10:55:23.107856 22299 net.cpp:129] Top shape: 64 256 1 1 (16384)
I0522 10:55:23.107862 22299 net.cpp:137] Memory required for data: 404300544
I0522 10:55:23.107869 22299 layer_factory.hpp:77] Creating layer fc-6_l2
I0522 10:55:23.107895 22299 net.cpp:84] Creating Layer fc-6_l2
I0522 10:55:23.107925 22299 net.cpp:406] fc-6_l2 <- norm1
I0522 10:55:23.107950 22299 net.cpp:380] fc-6_l2 -> fc-6_l2
I0522 10:55:23.452030 22299 net.cpp:122] Setting up fc-6_l2
I0522 10:55:23.452066 22299 net.cpp:129] Top shape: 64 21331 (1365184)
I0522 10:55:23.452071 22299 net.cpp:137] Memory required for data: 409761280
I0522 10:55:23.452095 22299 layer_factory.hpp:77] Creating layer fc-6_margin
I0522 10:55:23.452157 22299 net.cpp:84] Creating Layer fc-6_margin
I0522 10:55:23.452172 22299 net.cpp:406] fc-6_margin <- fc-6_l2
I0522 10:55:23.452195 22299 net.cpp:406] fc-6_margin <- label_data_1_split_0
I0522 10:55:23.452214 22299 net.cpp:380] fc-6_margin -> fc-6_margin
I0522 10:55:23.452271 22299 net.cpp:122] Setting up fc-6_margin
I0522 10:55:23.452283 22299 net.cpp:129] Top shape: 64 21331 (1365184)
I0522 10:55:23.452287 22299 net.cpp:137] Memory required for data: 415222016
I0522 10:55:23.452294 22299 layer_factory.hpp:77] Creating layer fc-6_margin_scale
I0522 10:55:23.452325 22299 net.cpp:84] Creating Layer fc-6_margin_scale
I0522 10:55:23.452334 22299 net.cpp:406] fc-6_margin_scale <- fc-6_margin
I0522 10:55:23.452353 22299 net.cpp:380] fc-6_margin_scale -> fc-6_margin_scale
I0522 10:55:23.452625 22299 net.cpp:122] Setting up fc-6_margin_scale
I0522 10:55:23.452639 22299 net.cpp:129] Top shape: 64 21331 (1365184)
I0522 10:55:23.452642 22299 net.cpp:137] Memory required for data: 420682752
I0522 10:55:23.452654 22299 layer_factory.hpp:77] Creating layer softmax_loss
I0522 10:55:23.452692 22299 net.cpp:84] Creating Layer softmax_loss
I0522 10:55:23.452702 22299 net.cpp:406] softmax_loss <- fc-6_margin_scale
I0522 10:55:23.452715 22299 net.cpp:406] softmax_loss <- label_data_1_split_1
I0522 10:55:23.452741 22299 net.cpp:380] softmax_loss -> softmax_loss
…
