…
I0522 10:51:56.074116 21211 solver.cpp:102] Creating training net from net file: models/AdditMarginLmdbEncode/AdditMarginLmdbEncode-b0.35s30_fc_0.35_112x96_faceNet-20-light2s4-bn/train.prototxt
I0522 10:51:56.076514 21211 net.cpp:51] Initializing net from parameters: 
name: "2018-05-22_AdditMarginLmdbEncode-b0.35s30_fc_0.35_112x96_faceNet-20-light2s4-bn_zkx_train"
state {
  phase: TRAIN
  level: 0
  stage: ""
}
layer {
  name: "data"
  type: "Data"
  top: "data"
  top: "label"
  data_param {
    source: "/home/zkx/Data_sdb/TrainData/Data_sdc/Patches/shot_Oriental_Age_Lan_DHUA_PAKJ_Indon_Migrant_celeb/fc_0.35_112x96-train_cvdecode-shuffle_lmdb"
    batch_size: 64
    backend: LMDB
  }
}
layer {
  name: "conv1_1"
  type: "Convolution"
  bottom: "data"
  top: "conv1_1"
  param {
    lr_mult: 1
    decay_mult: 1
  }
  param {
    lr_mult: 2
    decay_mult: 0
  }
  convolution_param {
    num_output: 24
    pad: 1
    kernel_size: 3
    stride: 2
    weight_filler {
      type: "xavier"
    }
    bias_filler {
      type: "constant"
      value: 0
    }
  }
}
layer {
  name: "relu1_1"
  type: "PReLU"
  bottom: "conv1_1"
  top: "conv1_1"
  prelu_param {
    filler {
      type: "gaussian"
      std: 0.03
    }
  }
}
layer {
  name: "conv1_3"
  type: "Convolution"
  bottom: "conv1_1"
  top: "conv1_3"
  param {
    lr_mult: 1
    decay_mult: 1
  }
  param {
    lr_mult: 0
    decay_mult: 0
  }
  convolution_param {
    num_output: 24
    pad: 1
    kernel_size: 3
    stride: 1
    weight_filler {
      type: "gaussian"
      std: 0.01
    }
    bias_filler {
      type: "constant"
      value: 0
    }
  }
}
layer {
  name: "relu1_3"
  type: "PReLU"
  bottom: "conv1_3"
  top: "conv1_3"
  prelu_param {
    filler {
      type: "gaussian"
      std: 0.03
    }
  }
}
layer {
  name: "res1_3"
  type: "Eltwise"
  bottom: "conv1_1"
  bottom: "conv1_3"
  top: "res1_3"
  eltwise_param {
    operation: SUM
  }
}
layer {
  name: "res1_3_reduce"
  type: "Convolution"
  bottom: "res1_3"
  top: "res1_3_reduce"
  param {
    lr_mult: 1
    decay_mult: 1
  }
  param {
    lr_mult: 0
    decay_mult: 0
  }
  convolution_param {
    num_output: 48
    kernel_size: 1
    stride: 1
    weight_filler {
      type: "gaussian"
      std: 0.01
    }
    bias_filler {
      type: "constant"
      value: 0
    }
  }
}
layer {
  name: "pool1"
  type: "Pooling"
  bottom: "res1_3_reduce"
  top: "pool1"
  pooling_param {
    pool: MAX
    kernel_size: 2
    stride: 2
  }
}
layer {
  name: "conv2_1"
  type: "Convolution"
  bottom: "res1_3"
  top: "conv2_1"
  param {
    lr_mult: 1
    decay_mult: 1
  }
  param {
    lr_mult: 2
    decay_mult: 0
  }
  convolution_param {
    num_output: 48
    pad: 1
    kernel_size: 3
    stride: 2
    weight_filler {
      type: "xavier"
    }
    bias_filler {
      type: "constant"
      value: 0
    }
  }
}
layer {
  name: "relu2_1"
  type: "PReLU"
  bottom: "conv2_1"
  top: "conv2_1"
  prelu_param {
    filler {
      type: "gaussian"
      std: 0.03
    }
  }
}
layer {
  name: "res1_3_p"
  type: "Eltwise"
  bottom: "pool1"
  bottom: "conv2_1"
  top: "res1_3_p"
  eltwise_param {
    operation: SUM
  }
}
layer {
  name: "conv2_3"
  type: "Convolution"
  bottom: "res1_3_p"
  top: "conv2_3"
  param {
    lr_mult: 1
    decay_mult: 1
  }
  param {
    lr_mult: 0
    decay_mult: 0
  }
  convolution_param {
    num_output: 48
    pad: 1
    kernel_size: 3
    stride: 1
    weight_filler {
      type: "gaussian"
      std: 0.01
    }
    bias_filler {
      type: "constant"
      value: 0
    }
  }
}
layer {
  name: "relu2_3"
  type: "PReLU"
  bottom: "conv2_3"
  top: "conv2_3"
  prelu_param {
    filler {
      type: "gaussian"
      std: 0.03
    }
  }
}
layer {
  name: "res2_3"
  type: "Eltwise"
  bottom: "res1_3_p"
  bottom: "conv2_3"
  top: "res2_3"
  eltwise_param {
    operation: SUM
  }
}
layer {
  name: "conv2_5"
  type: "Convolution"
  bottom: "res2_3"
  top: "conv2_5"
  param {
    lr_mult: 1
    decay_mult: 1
  }
  param {
    lr_mult: 0
    decay_mult: 0
  }
  convolution_param {
    num_output: 48
    pad: 1
    kernel_size: 3
    stride: 1
    weight_filler {
      type: "gaussian"
      std: 0.01
    }
    bias_filler {
      type: "constant"
      value: 0
    }
  }
}
layer {
  name: "relu2_5"
  type: "PReLU"
  bottom: "conv2_5"
  top: "conv2_5"
  prelu_param {
    filler {
      type: "gaussian"
      std: 0.03
    }
  }
}
layer {
  name: "res2_5"
  type: "Eltwise"
  bottom: "res2_3"
  bottom: "conv2_5"
  top: "res2_5"
  eltwise_param {
    operation: SUM
  }
}
layer {
  name: "res2_5_reduce"
  type: "Convolution"
  bottom: "res2_5"
  top: "res2_5_reduce"
  param {
    lr_mult: 1
    decay_mult: 1
  }
  param {
    lr_mult: 0
    decay_mult: 0
  }
  convolution_param {
    num_output: 72
    kernel_size: 1
    stride: 1
    weight_filler {
      type: "gaussian"
      std: 0.01
    }
    bias_filler {
      type: "constant"
      value: 0
    }
  }
}
layer {
  name: "pool2"
  type: "Pooling"
  bottom: "res2_5_reduce"
  top: "pool2"
  pooling_param {
    pool: MAX
    kernel_size: 2
    stride: 2
  }
}
layer {
  name: "conv3_1"
  type: "Convolution"
  bottom: "res2_5"
  top: "conv3_1"
  param {
    lr_mult: 1
    decay_mult: 1
  }
  param {
    lr_mult: 2
    decay_mult: 0
  }
  convolution_param {
    num_output: 72
    pad: 1
    kernel_size: 3
    stride: 2
    weight_filler {
      type: "xavier"
    }
    bias_filler {
      type: "constant"
      value: 0
    }
  }
}
layer {
  name: "relu3_1"
  type: "PReLU"
  bottom: "conv3_1"
  top: "conv3_1"
  prelu_param {
    filler {
      type: "gaussian"
      std: 0.03
    }
  }
}
layer {
  name: "res2_5_p"
  type: "Eltwise"
  bottom: "pool2"
  bottom: "conv3_1"
  top: "res2_5_p"
  eltwise_param {
    operation: SUM
  }
}
layer {
  name: "conv3_3"
  type: "Convolution"
  bottom: "res2_5_p"
  top: "conv3_3"
  param {
    lr_mult: 1
    decay_mult: 1
  }
  param {
    lr_mult: 0
    decay_mult: 0
  }
  convolution_param {
    num_output: 72
    pad: 1
    kernel_size: 3
    stride: 1
    weight_filler {
      type: "gaussian"
      std: 0.01
    }
    bias_filler {
      type: "constant"
      value: 0
    }
  }
}
layer {
  name: "relu3_3"
  type: "PReLU"
  bottom: "conv3_3"
  top: "conv3_3"
  prelu_param {
    filler {
      type: "gaussian"
      std: 0.03
    }
  }
}
layer {
  name: "res3_3"
  type: "Eltwise"
  bottom: "res2_5_p"
  bottom: "conv3_3"
  top: "res3_3"
  eltwise_param {
    operation: SUM
  }
}
layer {
  name: "conv3_5"
  type: "Convolution"
  bottom: "res3_3"
  top: "conv3_5"
  param {
    lr_mult: 1
    decay_mult: 1
  }
  param {
    lr_mult: 0
    decay_mult: 0
  }
  convolution_param {
    num_output: 72
    pad: 1
    kernel_size: 3
    stride: 1
    weight_filler {
      type: "gaussian"
      std: 0.01
    }
    bias_filler {
      type: "constant"
      value: 0
    }
  }
}
layer {
  name: "relu3_5"
  type: "PReLU"
  bottom: "conv3_5"
  top: "conv3_5"
  prelu_param {
    filler {
      type: "gaussian"
      std: 0.03
    }
  }
}
layer {
  name: "res3_5"
  type: "Eltwise"
  bottom: "res3_3"
  bottom: "conv3_5"
  top: "res3_5"
  eltwise_param {
    operation: SUM
  }
}
layer {
  name: "res3_5_reduce"
  type: "Convolution"
  bottom: "res3_5"
  top: "res3_5_reduce"
  param {
    lr_mult: 1
    decay_mult: 1
  }
  param {
    lr_mult: 0
    decay_mult: 0
  }
  convolution_param {
    num_output: 144
    kernel_size: 1
    stride: 1
    weight_filler {
      type: "gaussian"
      std: 0.01
    }
    bias_filler {
      type: "constant"
      value: 0
    }
  }
}
layer {
  name: "pool3"
  type: "Pooling"
  bottom: "res3_5_reduce"
  top: "pool3"
  pooling_param {
    pool: MAX
    kernel_size: 2
    stride: 2
  }
}
layer {
  name: "conv4_1"
  type: "Convolution"
  bottom: "res3_5"
  top: "conv4_1"
  param {
    lr_mult: 1
    decay_mult: 1
  }
  param {
    lr_mult: 2
    decay_mult: 0
  }
  convolution_param {
    num_output: 144
    pad: 1
    kernel_size: 3
    stride: 2
    weight_filler {
      type: "xavier"
    }
    bias_filler {
      type: "constant"
      value: 0
    }
  }
}
layer {
  name: "relu4_1"
  type: "PReLU"
  bottom: "conv4_1"
  top: "conv4_1"
  prelu_param {
    filler {
      type: "gaussian"
      std: 0.03
    }
  }
}
layer {
  name: "res3_5_p"
  type: "Eltwise"
  bottom: "pool3"
  bottom: "conv4_1"
  top: "res3_5_p"
  eltwise_param {
    operation: SUM
  }
}
layer {
  name: "conv4_3"
  type: "Convolution"
  bottom: "res3_5_p"
  top: "conv4_3"
  param {
    lr_mult: 1
    decay_mult: 1
  }
  param {
    lr_mult: 0
    decay_mult: 0
  }
  convolution_param {
    num_output: 144
    pad: 1
    kernel_size: 3
    stride: 1
    weight_filler {
      type: "gaussian"
      std: 0.01
    }
    bias_filler {
      type: "constant"
      value: 0
    }
  }
}
layer {
  name: "relu4_3"
  type: "PReLU"
  bottom: "conv4_3"
  top: "conv4_3"
  prelu_param {
    filler {
      type: "gaussian"
      std: 0.03
    }
  }
}
layer {
  name: "res4_3"
  type: "Eltwise"
  bottom: "res3_5_p"
  bottom: "conv4_3"
  top: "res4_3"
  eltwise_param {
    operation: SUM
  }
}
layer {
  name: "fc5"
  type: "InnerProduct"
  bottom: "res4_3"
  top: "fc5"
  param {
    lr_mult: 1
    decay_mult: 1
  }
  param {
    lr_mult: 2
    decay_mult: 0
  }
  inner_product_param {
    num_output: 256
    weight_filler {
      type: "xavier"
    }
    bias_filler {
      type: "constant"
      value: 0
    }
  }
}
layer {
  name: "fc5_bn"
  type: "BatchNorm"
  bottom: "fc5"
  top: "fc5"
  batch_norm_param {
    use_global_stats: false
  }
}
layer {
  name: "norm1"
  type: "Normalize"
  bottom: "fc5"
  top: "norm1"
}
layer {
  name: "fc-6_l2"
  type: "InnerProduct"
  bottom: "norm1"
  top: "fc-6_l2"
  param {
    lr_mult: 1
  }
  inner_product_param {
    num_output: 21331
    bias_term: false
    weight_filler {
      type: "xavier"
    }
    normalize: true
  }
}
layer {
  name: "fc-6_margin"
  type: "LabelSpecificAdd"
  bottom: "fc-6_l2"
  bottom: "label"
  top: "fc-6_margin"
  label_specific_add_param {
    bias: -0.35
  }
}
layer {
  name: "fc-6_margin_scale"
  type: "Scale"
  bottom: "fc-6_margin"
  top: "fc-6_margin_scale"
  param {
    lr_mult: 0
    decay_mult: 0
  }
  scale_param {
    filler {
      type: "constant"
      value: 30
    }
  }
}
layer {
  name: "softmax_loss"
  type: "SoftmaxWithLoss"
  bottom: "fc-6_margin_scale"
  bottom: "label"
  top: "softmax_loss"
}
I0522 10:51:56.077597 21211 layer_factory.hpp:77] Creating layer data
I0522 10:51:56.077872 21211 db_lmdb.cpp:35] Opened lmdb /home/zkx/Data_sdb/TrainData/Data_sdc/Patches/shot_Oriental_Age_Lan_DHUA_PAKJ_Indon_Migrant_celeb/fc_0.35_112x96-train_cvdecode-shuffle_lmdb
I0522 10:51:56.077953 21211 net.cpp:84] Creating Layer data
I0522 10:51:56.077983 21211 net.cpp:380] data -> data
I0522 10:51:56.078116 21211 net.cpp:380] data -> label
I0522 10:51:56.080219 21211 data_layer.cpp:45] output data size: 64,3,112,96
I0522 10:51:56.103107 21211 base_data_layer.cpp:72] Initializing prefetch
I0522 10:51:56.103751 21211 base_data_layer.cpp:75] Prefetch initialized.
I0522 10:51:56.103775 21211 net.cpp:122] Setting up data
I0522 10:51:56.103824 21211 net.cpp:129] Top shape: 64 3 112 96 (2064384)
I0522 10:51:56.103855 21211 net.cpp:129] Top shape: 64 (64)
I0522 10:51:56.103863 21211 net.cpp:137] Memory required for data: 8257792
I0522 10:51:56.103899 21211 layer_factory.hpp:77] Creating layer label_data_1_split
I0522 10:51:56.103957 21211 net.cpp:84] Creating Layer label_data_1_split
I0522 10:51:56.103984 21211 net.cpp:406] label_data_1_split <- label
I0522 10:51:56.104039 21211 net.cpp:380] label_data_1_split -> label_data_1_split_0
I0522 10:51:56.104079 21211 net.cpp:380] label_data_1_split -> label_data_1_split_1
I0522 10:51:56.104176 21211 net.cpp:122] Setting up label_data_1_split
I0522 10:51:56.104190 21211 net.cpp:129] Top shape: 64 (64)
I0522 10:51:56.104202 21211 net.cpp:129] Top shape: 64 (64)
I0522 10:51:56.104208 21211 net.cpp:137] Memory required for data: 8258304
I0522 10:51:56.104215 21211 layer_factory.hpp:77] Creating layer conv1_1
I0522 10:51:56.104281 21211 net.cpp:84] Creating Layer conv1_1
I0522 10:51:56.104293 21211 net.cpp:406] conv1_1 <- data
I0522 10:51:56.104317 21211 net.cpp:380] conv1_1 -> conv1_1
I0522 10:51:56.162362 21257 data_layer.cpp:128] Prefetch batch: 55 ms.
I0522 10:51:56.162413 21257 data_layer.cpp:129]      Read time: 0.555 ms.
I0522 10:51:56.162423 21257 data_layer.cpp:130] Transform time: 53.803 ms.
I0522 10:51:56.241940 21257 data_layer.cpp:128] Prefetch batch: 68 ms.
I0522 10:51:56.241981 21257 data_layer.cpp:129]      Read time: 0.456 ms.
I0522 10:51:56.241998 21257 data_layer.cpp:130] Transform time: 58.254 ms.
I0522 10:51:56.309404 21257 data_layer.cpp:128] Prefetch batch: 52 ms.
I0522 10:51:56.309438 21257 data_layer.cpp:129]      Read time: 0.373 ms.
I0522 10:51:56.309456 21257 data_layer.cpp:130] Transform time: 51.016 ms.
I0522 10:51:56.377961 21257 data_layer.cpp:128] Prefetch batch: 58 ms.
I0522 10:51:56.377997 21257 data_layer.cpp:129]      Read time: 0.401 ms.
I0522 10:51:56.378015 21257 data_layer.cpp:130] Transform time: 46.435 ms.
I0522 10:51:56.617766 21211 cudnn_conv_layer.cpp:194] Reallocating workspace storage: 324
I0522 10:51:56.617817 21211 net.cpp:122] Setting up conv1_1
I0522 10:51:56.617841 21211 net.cpp:129] Top shape: 64 24 56 48 (4128768)
I0522 10:51:56.617852 21211 net.cpp:137] Memory required for data: 24773376
I0522 10:51:56.617985 21211 layer_factory.hpp:77] Creating layer relu1_1
I0522 10:51:56.618036 21211 net.cpp:84] Creating Layer relu1_1
I0522 10:51:56.618050 21211 net.cpp:406] relu1_1 <- conv1_1
I0522 10:51:56.618072 21211 net.cpp:367] relu1_1 -> conv1_1 (in-place)
I0522 10:51:56.619760 21211 net.cpp:122] Setting up relu1_1
I0522 10:51:56.619776 21211 net.cpp:129] Top shape: 64 24 56 48 (4128768)
I0522 10:51:56.619781 21211 net.cpp:137] Memory required for data: 41288448
I0522 10:51:56.619822 21211 layer_factory.hpp:77] Creating layer conv1_1_relu1_1_0_split
I0522 10:51:56.619863 21211 net.cpp:84] Creating Layer conv1_1_relu1_1_0_split
I0522 10:51:56.619874 21211 net.cpp:406] conv1_1_relu1_1_0_split <- conv1_1
I0522 10:51:56.619890 21211 net.cpp:380] conv1_1_relu1_1_0_split -> conv1_1_relu1_1_0_split_0
I0522 10:51:56.619915 21211 net.cpp:380] conv1_1_relu1_1_0_split -> conv1_1_relu1_1_0_split_1
I0522 10:51:56.619966 21211 net.cpp:122] Setting up conv1_1_relu1_1_0_split
I0522 10:51:56.619979 21211 net.cpp:129] Top shape: 64 24 56 48 (4128768)
I0522 10:51:56.619987 21211 net.cpp:129] Top shape: 64 24 56 48 (4128768)
I0522 10:51:56.619992 21211 net.cpp:137] Memory required for data: 74318592
I0522 10:51:56.619997 21211 layer_factory.hpp:77] Creating layer conv1_3
I0522 10:51:56.620031 21211 net.cpp:84] Creating Layer conv1_3
I0522 10:51:56.620040 21211 net.cpp:406] conv1_3 <- conv1_1_relu1_1_0_split_0
I0522 10:51:56.620061 21211 net.cpp:380] conv1_3 -> conv1_3
I0522 10:51:56.623543 21211 cudnn_conv_layer.cpp:194] Reallocating workspace storage: 147456
I0522 10:51:56.623891 21211 net.cpp:122] Setting up conv1_3
I0522 10:51:56.623924 21211 net.cpp:129] Top shape: 64 24 56 48 (4128768)
I0522 10:51:56.623929 21211 net.cpp:137] Memory required for data: 90833664
I0522 10:51:56.623972 21211 layer_factory.hpp:77] Creating layer relu1_3
I0522 10:51:56.624011 21211 net.cpp:84] Creating Layer relu1_3
I0522 10:51:56.624023 21211 net.cpp:406] relu1_3 <- conv1_3
I0522 10:51:56.624042 21211 net.cpp:367] relu1_3 -> conv1_3 (in-place)
I0522 10:51:56.624397 21211 net.cpp:122] Setting up relu1_3
I0522 10:51:56.624409 21211 net.cpp:129] Top shape: 64 24 56 48 (4128768)
I0522 10:51:56.624413 21211 net.cpp:137] Memory required for data: 107348736
I0522 10:51:56.624424 21211 layer_factory.hpp:77] Creating layer res1_3
I0522 10:51:56.624449 21211 net.cpp:84] Creating Layer res1_3
I0522 10:51:56.624457 21211 net.cpp:406] res1_3 <- conv1_1_relu1_1_0_split_1
I0522 10:51:56.624470 21211 net.cpp:406] res1_3 <- conv1_3
I0522 10:51:56.624483 21211 net.cpp:380] res1_3 -> res1_3
I0522 10:51:56.624563 21211 net.cpp:122] Setting up res1_3
I0522 10:51:56.624577 21211 net.cpp:129] Top shape: 64 24 56 48 (4128768)
I0522 10:51:56.624580 21211 net.cpp:137] Memory required for data: 123863808
I0522 10:51:56.624586 21211 layer_factory.hpp:77] Creating layer res1_3_res1_3_0_split
I0522 10:51:56.624603 21211 net.cpp:84] Creating Layer res1_3_res1_3_0_split
I0522 10:51:56.624610 21211 net.cpp:406] res1_3_res1_3_0_split <- res1_3
I0522 10:51:56.624625 21211 net.cpp:380] res1_3_res1_3_0_split -> res1_3_res1_3_0_split_0
I0522 10:51:56.624644 21211 net.cpp:380] res1_3_res1_3_0_split -> res1_3_res1_3_0_split_1
I0522 10:51:56.624691 21211 net.cpp:122] Setting up res1_3_res1_3_0_split
I0522 10:51:56.624701 21211 net.cpp:129] Top shape: 64 24 56 48 (4128768)
I0522 10:51:56.624707 21211 net.cpp:129] Top shape: 64 24 56 48 (4128768)
I0522 10:51:56.624711 21211 net.cpp:137] Memory required for data: 156893952
I0522 10:51:56.624716 21211 layer_factory.hpp:77] Creating layer res1_3_reduce
I0522 10:51:56.624753 21211 net.cpp:84] Creating Layer res1_3_reduce
I0522 10:51:56.624763 21211 net.cpp:406] res1_3_reduce <- res1_3_res1_3_0_split_0
I0522 10:51:56.624780 21211 net.cpp:380] res1_3_reduce -> res1_3_reduce
I0522 10:51:56.625768 21211 cudnn_conv_layer.cpp:194] Reallocating workspace storage: 288
I0522 10:51:56.625793 21211 net.cpp:122] Setting up res1_3_reduce
I0522 10:51:56.625804 21211 net.cpp:129] Top shape: 64 48 56 48 (8257536)
I0522 10:51:56.625808 21211 net.cpp:137] Memory required for data: 189924096
I0522 10:51:56.625823 21211 layer_factory.hpp:77] Creating layer pool1
I0522 10:51:56.625851 21211 net.cpp:84] Creating Layer pool1
I0522 10:51:56.625861 21211 net.cpp:406] pool1 <- res1_3_reduce
I0522 10:51:56.625880 21211 net.cpp:380] pool1 -> pool1
I0522 10:51:56.625953 21211 net.cpp:122] Setting up pool1
I0522 10:51:56.625967 21211 net.cpp:129] Top shape: 64 48 28 24 (2064384)
I0522 10:51:56.625970 21211 net.cpp:137] Memory required for data: 198181632
I0522 10:51:56.625977 21211 layer_factory.hpp:77] Creating layer conv2_1
I0522 10:51:56.625999 21211 net.cpp:84] Creating Layer conv2_1
I0522 10:51:56.626008 21211 net.cpp:406] conv2_1 <- res1_3_res1_3_0_split_1
I0522 10:51:56.626027 21211 net.cpp:380] conv2_1 -> conv2_1
I0522 10:51:56.627845 21211 cudnn_conv_layer.cpp:194] Reallocating workspace storage: 2592
I0522 10:51:56.628173 21211 net.cpp:122] Setting up conv2_1
I0522 10:51:56.628190 21211 net.cpp:129] Top shape: 64 48 28 24 (2064384)
I0522 10:51:56.628197 21211 net.cpp:137] Memory required for data: 206439168
I0522 10:51:56.628226 21211 layer_factory.hpp:77] Creating layer relu2_1
I0522 10:51:56.628244 21211 net.cpp:84] Creating Layer relu2_1
I0522 10:51:56.628254 21211 net.cpp:406] relu2_1 <- conv2_1
I0522 10:51:56.628271 21211 net.cpp:367] relu2_1 -> conv2_1 (in-place)
I0522 10:51:56.628486 21211 net.cpp:122] Setting up relu2_1
I0522 10:51:56.628499 21211 net.cpp:129] Top shape: 64 48 28 24 (2064384)
I0522 10:51:56.628502 21211 net.cpp:137] Memory required for data: 214696704
I0522 10:51:56.628513 21211 layer_factory.hpp:77] Creating layer res1_3_p
I0522 10:51:56.628527 21211 net.cpp:84] Creating Layer res1_3_p
I0522 10:51:56.628536 21211 net.cpp:406] res1_3_p <- pool1
I0522 10:51:56.628548 21211 net.cpp:406] res1_3_p <- conv2_1
I0522 10:51:56.628562 21211 net.cpp:380] res1_3_p -> res1_3_p
I0522 10:51:56.628620 21211 net.cpp:122] Setting up res1_3_p
I0522 10:51:56.628633 21211 net.cpp:129] Top shape: 64 48 28 24 (2064384)
I0522 10:51:56.628638 21211 net.cpp:137] Memory required for data: 222954240
I0522 10:51:56.628643 21211 layer_factory.hpp:77] Creating layer res1_3_p_res1_3_p_0_split
I0522 10:51:56.628655 21211 net.cpp:84] Creating Layer res1_3_p_res1_3_p_0_split
I0522 10:51:56.628662 21211 net.cpp:406] res1_3_p_res1_3_p_0_split <- res1_3_p
I0522 10:51:56.628679 21211 net.cpp:380] res1_3_p_res1_3_p_0_split -> res1_3_p_res1_3_p_0_split_0
I0522 10:51:56.628695 21211 net.cpp:380] res1_3_p_res1_3_p_0_split -> res1_3_p_res1_3_p_0_split_1
I0522 10:51:56.628746 21211 net.cpp:122] Setting up res1_3_p_res1_3_p_0_split
I0522 10:51:56.628758 21211 net.cpp:129] Top shape: 64 48 28 24 (2064384)
I0522 10:51:56.628764 21211 net.cpp:129] Top shape: 64 48 28 24 (2064384)
I0522 10:51:56.628767 21211 net.cpp:137] Memory required for data: 239469312
I0522 10:51:56.628773 21211 layer_factory.hpp:77] Creating layer conv2_3
I0522 10:51:56.628796 21211 net.cpp:84] Creating Layer conv2_3
I0522 10:51:56.628805 21211 net.cpp:406] conv2_3 <- res1_3_p_res1_3_p_0_split_0
I0522 10:51:56.628824 21211 net.cpp:380] conv2_3 -> conv2_3
I0522 10:51:56.633865 21211 cudnn_conv_layer.cpp:194] Reallocating workspace storage: 589824
I0522 10:51:56.634227 21211 net.cpp:122] Setting up conv2_3
I0522 10:51:56.634244 21211 net.cpp:129] Top shape: 64 48 28 24 (2064384)
I0522 10:51:56.634251 21211 net.cpp:137] Memory required for data: 247726848
I0522 10:51:56.634268 21211 layer_factory.hpp:77] Creating layer relu2_3
I0522 10:51:56.634292 21211 net.cpp:84] Creating Layer relu2_3
I0522 10:51:56.634302 21211 net.cpp:406] relu2_3 <- conv2_3
I0522 10:51:56.634322 21211 net.cpp:367] relu2_3 -> conv2_3 (in-place)
I0522 10:51:56.634596 21211 net.cpp:122] Setting up relu2_3
I0522 10:51:56.634609 21211 net.cpp:129] Top shape: 64 48 28 24 (2064384)
I0522 10:51:56.634613 21211 net.cpp:137] Memory required for data: 255984384
I0522 10:51:56.634625 21211 layer_factory.hpp:77] Creating layer res2_3
I0522 10:51:56.634640 21211 net.cpp:84] Creating Layer res2_3
I0522 10:51:56.634650 21211 net.cpp:406] res2_3 <- res1_3_p_res1_3_p_0_split_1
I0522 10:51:56.634663 21211 net.cpp:406] res2_3 <- conv2_3
I0522 10:51:56.634677 21211 net.cpp:380] res2_3 -> res2_3
I0522 10:51:56.634730 21211 net.cpp:122] Setting up res2_3
I0522 10:51:56.634743 21211 net.cpp:129] Top shape: 64 48 28 24 (2064384)
I0522 10:51:56.634747 21211 net.cpp:137] Memory required for data: 264241920
I0522 10:51:56.634754 21211 layer_factory.hpp:77] Creating layer res2_3_res2_3_0_split
I0522 10:51:56.634768 21211 net.cpp:84] Creating Layer res2_3_res2_3_0_split
I0522 10:51:56.634775 21211 net.cpp:406] res2_3_res2_3_0_split <- res2_3
I0522 10:51:56.634790 21211 net.cpp:380] res2_3_res2_3_0_split -> res2_3_res2_3_0_split_0
I0522 10:51:56.634809 21211 net.cpp:380] res2_3_res2_3_0_split -> res2_3_res2_3_0_split_1
I0522 10:51:56.634860 21211 net.cpp:122] Setting up res2_3_res2_3_0_split
I0522 10:51:56.634871 21211 net.cpp:129] Top shape: 64 48 28 24 (2064384)
I0522 10:51:56.634876 21211 net.cpp:129] Top shape: 64 48 28 24 (2064384)
I0522 10:51:56.634879 21211 net.cpp:137] Memory required for data: 280756992
I0522 10:51:56.634886 21211 layer_factory.hpp:77] Creating layer conv2_5
I0522 10:51:56.634909 21211 net.cpp:84] Creating Layer conv2_5
I0522 10:51:56.634927 21211 net.cpp:406] conv2_5 <- res2_3_res2_3_0_split_0
I0522 10:51:56.634948 21211 net.cpp:380] conv2_5 -> conv2_5
I0522 10:51:56.639686 21211 cudnn_conv_layer.cpp:194] Reallocating workspace storage: 589824
I0522 10:51:56.639708 21211 net.cpp:122] Setting up conv2_5
I0522 10:51:56.639734 21211 net.cpp:129] Top shape: 64 48 28 24 (2064384)
I0522 10:51:56.639740 21211 net.cpp:137] Memory required for data: 289014528
I0522 10:51:56.639755 21211 layer_factory.hpp:77] Creating layer relu2_5
I0522 10:51:56.639775 21211 net.cpp:84] Creating Layer relu2_5
I0522 10:51:56.639783 21211 net.cpp:406] relu2_5 <- conv2_5
I0522 10:51:56.639832 21211 net.cpp:367] relu2_5 -> conv2_5 (in-place)
I0522 10:51:56.640056 21211 net.cpp:122] Setting up relu2_5
I0522 10:51:56.640069 21211 net.cpp:129] Top shape: 64 48 28 24 (2064384)
I0522 10:51:56.640072 21211 net.cpp:137] Memory required for data: 297272064
I0522 10:51:56.640095 21211 layer_factory.hpp:77] Creating layer res2_5
I0522 10:51:56.640112 21211 net.cpp:84] Creating Layer res2_5
I0522 10:51:56.640121 21211 net.cpp:406] res2_5 <- res2_3_res2_3_0_split_1
I0522 10:51:56.640133 21211 net.cpp:406] res2_5 <- conv2_5
I0522 10:51:56.640146 21211 net.cpp:380] res2_5 -> res2_5
I0522 10:51:56.640221 21211 net.cpp:122] Setting up res2_5
I0522 10:51:56.640234 21211 net.cpp:129] Top shape: 64 48 28 24 (2064384)
I0522 10:51:56.640238 21211 net.cpp:137] Memory required for data: 305529600
I0522 10:51:56.640244 21211 layer_factory.hpp:77] Creating layer res2_5_res2_5_0_split
I0522 10:51:56.640255 21211 net.cpp:84] Creating Layer res2_5_res2_5_0_split
I0522 10:51:56.640261 21211 net.cpp:406] res2_5_res2_5_0_split <- res2_5
I0522 10:51:56.640275 21211 net.cpp:380] res2_5_res2_5_0_split -> res2_5_res2_5_0_split_0
I0522 10:51:56.640293 21211 net.cpp:380] res2_5_res2_5_0_split -> res2_5_res2_5_0_split_1
I0522 10:51:56.640341 21211 net.cpp:122] Setting up res2_5_res2_5_0_split
I0522 10:51:56.640352 21211 net.cpp:129] Top shape: 64 48 28 24 (2064384)
I0522 10:51:56.640357 21211 net.cpp:129] Top shape: 64 48 28 24 (2064384)
I0522 10:51:56.640359 21211 net.cpp:137] Memory required for data: 322044672
I0522 10:51:56.640365 21211 layer_factory.hpp:77] Creating layer res2_5_reduce
I0522 10:51:56.640388 21211 net.cpp:84] Creating Layer res2_5_reduce
I0522 10:51:56.640398 21211 net.cpp:406] res2_5_reduce <- res2_5_res2_5_0_split_0
I0522 10:51:56.640417 21211 net.cpp:380] res2_5_reduce -> res2_5_reduce
I0522 10:51:56.642112 21211 cudnn_conv_layer.cpp:194] Reallocating workspace storage: 576
I0522 10:51:56.642139 21211 net.cpp:122] Setting up res2_5_reduce
I0522 10:51:56.642150 21211 net.cpp:129] Top shape: 64 72 28 24 (3096576)
I0522 10:51:56.642154 21211 net.cpp:137] Memory required for data: 334430976
I0522 10:51:56.642170 21211 layer_factory.hpp:77] Creating layer pool2
I0522 10:51:56.642189 21211 net.cpp:84] Creating Layer pool2
I0522 10:51:56.642199 21211 net.cpp:406] pool2 <- res2_5_reduce
I0522 10:51:56.642216 21211 net.cpp:380] pool2 -> pool2
I0522 10:51:56.642277 21211 net.cpp:122] Setting up pool2
I0522 10:51:56.642289 21211 net.cpp:129] Top shape: 64 72 14 12 (774144)
I0522 10:51:56.642293 21211 net.cpp:137] Memory required for data: 337527552
I0522 10:51:56.642299 21211 layer_factory.hpp:77] Creating layer conv3_1
I0522 10:51:56.642324 21211 net.cpp:84] Creating Layer conv3_1
I0522 10:51:56.642333 21211 net.cpp:406] conv3_1 <- res2_5_res2_5_0_split_1
I0522 10:51:56.642352 21211 net.cpp:380] conv3_1 -> conv3_1
I0522 10:51:56.645392 21211 cudnn_conv_layer.cpp:194] Reallocating workspace storage: 5184
I0522 10:51:56.645742 21211 net.cpp:122] Setting up conv3_1
I0522 10:51:56.645759 21211 net.cpp:129] Top shape: 64 72 14 12 (774144)
I0522 10:51:56.645766 21211 net.cpp:137] Memory required for data: 340624128
I0522 10:51:56.645783 21211 layer_factory.hpp:77] Creating layer relu3_1
I0522 10:51:56.645802 21211 net.cpp:84] Creating Layer relu3_1
I0522 10:51:56.645812 21211 net.cpp:406] relu3_1 <- conv3_1
I0522 10:51:56.645831 21211 net.cpp:367] relu3_1 -> conv3_1 (in-place)
I0522 10:51:56.646008 21211 net.cpp:122] Setting up relu3_1
I0522 10:51:56.646020 21211 net.cpp:129] Top shape: 64 72 14 12 (774144)
I0522 10:51:56.646024 21211 net.cpp:137] Memory required for data: 343720704
I0522 10:51:56.646035 21211 layer_factory.hpp:77] Creating layer res2_5_p
I0522 10:51:56.646050 21211 net.cpp:84] Creating Layer res2_5_p
I0522 10:51:56.646057 21211 net.cpp:406] res2_5_p <- pool2
I0522 10:51:56.646070 21211 net.cpp:406] res2_5_p <- conv3_1
I0522 10:51:56.646083 21211 net.cpp:380] res2_5_p -> res2_5_p
I0522 10:51:56.646137 21211 net.cpp:122] Setting up res2_5_p
I0522 10:51:56.646149 21211 net.cpp:129] Top shape: 64 72 14 12 (774144)
I0522 10:51:56.646167 21211 net.cpp:137] Memory required for data: 346817280
I0522 10:51:56.646173 21211 layer_factory.hpp:77] Creating layer res2_5_p_res2_5_p_0_split
I0522 10:51:56.646186 21211 net.cpp:84] Creating Layer res2_5_p_res2_5_p_0_split
I0522 10:51:56.646193 21211 net.cpp:406] res2_5_p_res2_5_p_0_split <- res2_5_p
I0522 10:51:56.646209 21211 net.cpp:380] res2_5_p_res2_5_p_0_split -> res2_5_p_res2_5_p_0_split_0
I0522 10:51:56.646227 21211 net.cpp:380] res2_5_p_res2_5_p_0_split -> res2_5_p_res2_5_p_0_split_1
I0522 10:51:56.646277 21211 net.cpp:122] Setting up res2_5_p_res2_5_p_0_split
I0522 10:51:56.646289 21211 net.cpp:129] Top shape: 64 72 14 12 (774144)
I0522 10:51:56.646294 21211 net.cpp:129] Top shape: 64 72 14 12 (774144)
I0522 10:51:56.646297 21211 net.cpp:137] Memory required for data: 353010432
I0522 10:51:56.646303 21211 layer_factory.hpp:77] Creating layer conv3_3
I0522 10:51:56.646327 21211 net.cpp:84] Creating Layer conv3_3
I0522 10:51:56.646335 21211 net.cpp:406] conv3_3 <- res2_5_p_res2_5_p_0_split_0
I0522 10:51:56.646355 21211 net.cpp:380] conv3_3 -> conv3_3
I0522 10:51:56.655829 21211 cudnn_conv_layer.cpp:194] Reallocating workspace storage: 1327104
I0522 10:51:56.656168 21211 net.cpp:122] Setting up conv3_3
I0522 10:51:56.656186 21211 net.cpp:129] Top shape: 64 72 14 12 (774144)
I0522 10:51:56.656190 21211 net.cpp:137] Memory required for data: 356107008
I0522 10:51:56.656206 21211 layer_factory.hpp:77] Creating layer relu3_3
I0522 10:51:56.656225 21211 net.cpp:84] Creating Layer relu3_3
I0522 10:51:56.656235 21211 net.cpp:406] relu3_3 <- conv3_3
I0522 10:51:56.656255 21211 net.cpp:367] relu3_3 -> conv3_3 (in-place)
I0522 10:51:56.656430 21211 net.cpp:122] Setting up relu3_3
I0522 10:51:56.656442 21211 net.cpp:129] Top shape: 64 72 14 12 (774144)
I0522 10:51:56.656446 21211 net.cpp:137] Memory required for data: 359203584
I0522 10:51:56.656456 21211 layer_factory.hpp:77] Creating layer res3_3
I0522 10:51:56.656472 21211 net.cpp:84] Creating Layer res3_3
I0522 10:51:56.656481 21211 net.cpp:406] res3_3 <- res2_5_p_res2_5_p_0_split_1
I0522 10:51:56.656493 21211 net.cpp:406] res3_3 <- conv3_3
I0522 10:51:56.656522 21211 net.cpp:380] res3_3 -> res3_3
I0522 10:51:56.656574 21211 net.cpp:122] Setting up res3_3
I0522 10:51:56.656587 21211 net.cpp:129] Top shape: 64 72 14 12 (774144)
I0522 10:51:56.656591 21211 net.cpp:137] Memory required for data: 362300160
I0522 10:51:56.656597 21211 layer_factory.hpp:77] Creating layer res3_3_res3_3_0_split
I0522 10:51:56.656615 21211 net.cpp:84] Creating Layer res3_3_res3_3_0_split
I0522 10:51:56.656623 21211 net.cpp:406] res3_3_res3_3_0_split <- res3_3
I0522 10:51:56.656638 21211 net.cpp:380] res3_3_res3_3_0_split -> res3_3_res3_3_0_split_0
I0522 10:51:56.656656 21211 net.cpp:380] res3_3_res3_3_0_split -> res3_3_res3_3_0_split_1
I0522 10:51:56.656704 21211 net.cpp:122] Setting up res3_3_res3_3_0_split
I0522 10:51:56.656716 21211 net.cpp:129] Top shape: 64 72 14 12 (774144)
I0522 10:51:56.656721 21211 net.cpp:129] Top shape: 64 72 14 12 (774144)
I0522 10:51:56.656724 21211 net.cpp:137] Memory required for data: 368493312
I0522 10:51:56.656730 21211 layer_factory.hpp:77] Creating layer conv3_5
I0522 10:51:56.656754 21211 net.cpp:84] Creating Layer conv3_5
I0522 10:51:56.656762 21211 net.cpp:406] conv3_5 <- res3_3_res3_3_0_split_0
I0522 10:51:56.656781 21211 net.cpp:380] conv3_5 -> conv3_5
I0522 10:51:56.666179 21211 cudnn_conv_layer.cpp:194] Reallocating workspace storage: 1327104
I0522 10:51:56.666541 21211 net.cpp:122] Setting up conv3_5
I0522 10:51:56.666565 21211 net.cpp:129] Top shape: 64 72 14 12 (774144)
I0522 10:51:56.666573 21211 net.cpp:137] Memory required for data: 371589888
I0522 10:51:56.666589 21211 layer_factory.hpp:77] Creating layer relu3_5
I0522 10:51:56.666607 21211 net.cpp:84] Creating Layer relu3_5
I0522 10:51:56.666617 21211 net.cpp:406] relu3_5 <- conv3_5
I0522 10:51:56.666636 21211 net.cpp:367] relu3_5 -> conv3_5 (in-place)
I0522 10:51:56.666847 21211 net.cpp:122] Setting up relu3_5
I0522 10:51:56.666862 21211 net.cpp:129] Top shape: 64 72 14 12 (774144)
I0522 10:51:56.666878 21211 net.cpp:137] Memory required for data: 374686464
I0522 10:51:56.666891 21211 layer_factory.hpp:77] Creating layer res3_5
I0522 10:51:56.666934 21211 net.cpp:84] Creating Layer res3_5
I0522 10:51:56.666946 21211 net.cpp:406] res3_5 <- res3_3_res3_3_0_split_1
I0522 10:51:56.666960 21211 net.cpp:406] res3_5 <- conv3_5
I0522 10:51:56.666985 21211 net.cpp:380] res3_5 -> res3_5
I0522 10:51:56.667044 21211 net.cpp:122] Setting up res3_5
I0522 10:51:56.667057 21211 net.cpp:129] Top shape: 64 72 14 12 (774144)
I0522 10:51:56.667062 21211 net.cpp:137] Memory required for data: 377783040
I0522 10:51:56.667068 21211 layer_factory.hpp:77] Creating layer res3_5_res3_5_0_split
I0522 10:51:56.667079 21211 net.cpp:84] Creating Layer res3_5_res3_5_0_split
I0522 10:51:56.667088 21211 net.cpp:406] res3_5_res3_5_0_split <- res3_5
I0522 10:51:56.667104 21211 net.cpp:380] res3_5_res3_5_0_split -> res3_5_res3_5_0_split_0
I0522 10:51:56.667122 21211 net.cpp:380] res3_5_res3_5_0_split -> res3_5_res3_5_0_split_1
I0522 10:51:56.667178 21211 net.cpp:122] Setting up res3_5_res3_5_0_split
I0522 10:51:56.667191 21211 net.cpp:129] Top shape: 64 72 14 12 (774144)
I0522 10:51:56.667196 21211 net.cpp:129] Top shape: 64 72 14 12 (774144)
I0522 10:51:56.667198 21211 net.cpp:137] Memory required for data: 383976192
I0522 10:51:56.667204 21211 layer_factory.hpp:77] Creating layer res3_5_reduce
I0522 10:51:56.667228 21211 net.cpp:84] Creating Layer res3_5_reduce
I0522 10:51:56.667237 21211 net.cpp:406] res3_5_reduce <- res3_5_res3_5_0_split_0
I0522 10:51:56.667258 21211 net.cpp:380] res3_5_reduce -> res3_5_reduce
I0522 10:51:56.670408 21211 cudnn_conv_layer.cpp:194] Reallocating workspace storage: 864
I0522 10:51:56.670436 21211 net.cpp:122] Setting up res3_5_reduce
I0522 10:51:56.670449 21211 net.cpp:129] Top shape: 64 144 14 12 (1548288)
I0522 10:51:56.670454 21211 net.cpp:137] Memory required for data: 390169344
I0522 10:51:56.670471 21211 layer_factory.hpp:77] Creating layer pool3
I0522 10:51:56.670491 21211 net.cpp:84] Creating Layer pool3
I0522 10:51:56.670501 21211 net.cpp:406] pool3 <- res3_5_reduce
I0522 10:51:56.670522 21211 net.cpp:380] pool3 -> pool3
I0522 10:51:56.670588 21211 net.cpp:122] Setting up pool3
I0522 10:51:56.670601 21211 net.cpp:129] Top shape: 64 144 7 6 (387072)
I0522 10:51:56.670606 21211 net.cpp:137] Memory required for data: 391717632
I0522 10:51:56.670614 21211 layer_factory.hpp:77] Creating layer conv4_1
I0522 10:51:56.670639 21211 net.cpp:84] Creating Layer conv4_1
I0522 10:51:56.670648 21211 net.cpp:406] conv4_1 <- res3_5_res3_5_0_split_1
I0522 10:51:56.670668 21211 net.cpp:380] conv4_1 -> conv4_1
I0522 10:51:56.679520 21211 cudnn_conv_layer.cpp:194] Reallocating workspace storage: 7776
I0522 10:51:56.679553 21211 net.cpp:122] Setting up conv4_1
I0522 10:51:56.679565 21211 net.cpp:129] Top shape: 64 144 7 6 (387072)
I0522 10:51:56.679572 21211 net.cpp:137] Memory required for data: 393265920
I0522 10:51:56.679589 21211 layer_factory.hpp:77] Creating layer relu4_1
I0522 10:51:56.679610 21211 net.cpp:84] Creating Layer relu4_1
I0522 10:51:56.679620 21211 net.cpp:406] relu4_1 <- conv4_1
I0522 10:51:56.679643 21211 net.cpp:367] relu4_1 -> conv4_1 (in-place)
I0522 10:51:56.679826 21211 net.cpp:122] Setting up relu4_1
I0522 10:51:56.679838 21211 net.cpp:129] Top shape: 64 144 7 6 (387072)
I0522 10:51:56.679842 21211 net.cpp:137] Memory required for data: 394814208
I0522 10:51:56.679868 21211 layer_factory.hpp:77] Creating layer res3_5_p
I0522 10:51:56.679886 21211 net.cpp:84] Creating Layer res3_5_p
I0522 10:51:56.679895 21211 net.cpp:406] res3_5_p <- pool3
I0522 10:51:56.679908 21211 net.cpp:406] res3_5_p <- conv4_1
I0522 10:51:56.679922 21211 net.cpp:380] res3_5_p -> res3_5_p
I0522 10:51:56.679970 21211 net.cpp:122] Setting up res3_5_p
I0522 10:51:56.679982 21211 net.cpp:129] Top shape: 64 144 7 6 (387072)
I0522 10:51:56.679987 21211 net.cpp:137] Memory required for data: 396362496
I0522 10:51:56.679994 21211 layer_factory.hpp:77] Creating layer res3_5_p_res3_5_p_0_split
I0522 10:51:56.680006 21211 net.cpp:84] Creating Layer res3_5_p_res3_5_p_0_split
I0522 10:51:56.680027 21211 net.cpp:406] res3_5_p_res3_5_p_0_split <- res3_5_p
I0522 10:51:56.680047 21211 net.cpp:380] res3_5_p_res3_5_p_0_split -> res3_5_p_res3_5_p_0_split_0
I0522 10:51:56.680068 21211 net.cpp:380] res3_5_p_res3_5_p_0_split -> res3_5_p_res3_5_p_0_split_1
I0522 10:51:56.680127 21211 net.cpp:122] Setting up res3_5_p_res3_5_p_0_split
I0522 10:51:56.680140 21211 net.cpp:129] Top shape: 64 144 7 6 (387072)
I0522 10:51:56.680146 21211 net.cpp:129] Top shape: 64 144 7 6 (387072)
I0522 10:51:56.680150 21211 net.cpp:137] Memory required for data: 399459072
I0522 10:51:56.680155 21211 layer_factory.hpp:77] Creating layer conv4_3
I0522 10:51:56.680181 21211 net.cpp:84] Creating Layer conv4_3
I0522 10:51:56.680191 21211 net.cpp:406] conv4_3 <- res3_5_p_res3_5_p_0_split_0
I0522 10:51:56.680212 21211 net.cpp:380] conv4_3 -> conv4_3
I0522 10:51:56.716912 21211 cudnn_conv_layer.cpp:194] Reallocating workspace storage: 4423680
I0522 10:51:56.717267 21211 net.cpp:122] Setting up conv4_3
I0522 10:51:56.717284 21211 net.cpp:129] Top shape: 64 144 7 6 (387072)
I0522 10:51:56.717289 21211 net.cpp:137] Memory required for data: 401007360
I0522 10:51:56.717306 21211 layer_factory.hpp:77] Creating layer relu4_3
I0522 10:51:56.717325 21211 net.cpp:84] Creating Layer relu4_3
I0522 10:51:56.717334 21211 net.cpp:406] relu4_3 <- conv4_3
I0522 10:51:56.717355 21211 net.cpp:367] relu4_3 -> conv4_3 (in-place)
I0522 10:51:56.717545 21211 net.cpp:122] Setting up relu4_3
I0522 10:51:56.717557 21211 net.cpp:129] Top shape: 64 144 7 6 (387072)
I0522 10:51:56.717561 21211 net.cpp:137] Memory required for data: 402555648
I0522 10:51:56.717573 21211 layer_factory.hpp:77] Creating layer res4_3
I0522 10:51:56.717591 21211 net.cpp:84] Creating Layer res4_3
I0522 10:51:56.717599 21211 net.cpp:406] res4_3 <- res3_5_p_res3_5_p_0_split_1
I0522 10:51:56.717613 21211 net.cpp:406] res4_3 <- conv4_3
I0522 10:51:56.717628 21211 net.cpp:380] res4_3 -> res4_3
I0522 10:51:56.717676 21211 net.cpp:122] Setting up res4_3
I0522 10:51:56.717689 21211 net.cpp:129] Top shape: 64 144 7 6 (387072)
I0522 10:51:56.717692 21211 net.cpp:137] Memory required for data: 404103936
I0522 10:51:56.717700 21211 layer_factory.hpp:77] Creating layer fc5
I0522 10:51:56.717725 21211 net.cpp:84] Creating Layer fc5
I0522 10:51:56.717733 21211 net.cpp:406] fc5 <- res4_3
I0522 10:51:56.717753 21211 net.cpp:380] fc5 -> fc5
I0522 10:51:56.827282 21211 net.cpp:122] Setting up fc5
I0522 10:51:56.827322 21211 net.cpp:129] Top shape: 64 256 (16384)
I0522 10:51:56.827328 21211 net.cpp:137] Memory required for data: 404169472
I0522 10:51:56.827355 21211 layer_factory.hpp:77] Creating layer fc5_bn
I0522 10:51:56.827396 21211 net.cpp:84] Creating Layer fc5_bn
I0522 10:51:56.827414 21211 net.cpp:406] fc5_bn <- fc5
I0522 10:51:56.827442 21211 net.cpp:367] fc5_bn -> fc5 (in-place)
I0522 10:51:56.827687 21211 net.cpp:122] Setting up fc5_bn
I0522 10:51:56.827699 21211 net.cpp:129] Top shape: 64 256 (16384)
I0522 10:51:56.827703 21211 net.cpp:137] Memory required for data: 404235008
I0522 10:51:56.827728 21211 layer_factory.hpp:77] Creating layer norm1
I0522 10:51:56.827749 21211 net.cpp:84] Creating Layer norm1
I0522 10:51:56.827759 21211 net.cpp:406] norm1 <- fc5
I0522 10:51:56.827775 21211 net.cpp:380] norm1 -> norm1
I0522 10:51:56.827862 21211 net.cpp:122] Setting up norm1
I0522 10:51:56.827875 21211 net.cpp:129] Top shape: 64 256 1 1 (16384)
I0522 10:51:56.827881 21211 net.cpp:137] Memory required for data: 404300544
I0522 10:51:56.827888 21211 layer_factory.hpp:77] Creating layer fc-6_l2
I0522 10:51:56.827909 21211 net.cpp:84] Creating Layer fc-6_l2
I0522 10:51:56.827919 21211 net.cpp:406] fc-6_l2 <- norm1
I0522 10:51:56.827937 21211 net.cpp:380] fc-6_l2 -> fc-6_l2
I0522 10:51:57.193533 21211 net.cpp:122] Setting up fc-6_l2
I0522 10:51:57.193595 21211 net.cpp:129] Top shape: 64 21331 (1365184)
I0522 10:51:57.193600 21211 net.cpp:137] Memory required for data: 409761280
I0522 10:51:57.193648 21211 layer_factory.hpp:77] Creating layer fc-6_margin
I0522 10:51:57.193730 21211 net.cpp:84] Creating Layer fc-6_margin
I0522 10:51:57.193748 21211 net.cpp:406] fc-6_margin <- fc-6_l2
I0522 10:51:57.193774 21211 net.cpp:406] fc-6_margin <- label_data_1_split_0
I0522 10:51:57.193792 21211 net.cpp:380] fc-6_margin -> fc-6_margin
I0522 10:51:57.193858 21211 net.cpp:122] Setting up fc-6_margin
I0522 10:51:57.193871 21211 net.cpp:129] Top shape: 64 21331 (1365184)
I0522 10:51:57.193876 21211 net.cpp:137] Memory required for data: 415222016
I0522 10:51:57.193883 21211 layer_factory.hpp:77] Creating layer fc-6_margin_scale
I0522 10:51:57.193913 21211 net.cpp:84] Creating Layer fc-6_margin_scale
I0522 10:51:57.193922 21211 net.cpp:406] fc-6_margin_scale <- fc-6_margin
I0522 10:51:57.193941 21211 net.cpp:380] fc-6_margin_scale -> fc-6_margin_scale
I0522 10:51:57.194172 21211 net.cpp:122] Setting up fc-6_margin_scale
I0522 10:51:57.194186 21211 net.cpp:129] Top shape: 64 21331 (1365184)
I0522 10:51:57.194198 21211 net.cpp:137] Memory required for data: 420682752
I0522 10:51:57.194211 21211 layer_factory.hpp:77] Creating layer softmax_loss
I0522 10:51:57.194232 21211 net.cpp:84] Creating Layer softmax_loss
I0522 10:51:57.194242 21211 net.cpp:406] softmax_loss <- fc-6_margin_scale
I0522 10:51:57.194254 21211 net.cpp:406] softmax_loss <- label_data_1_split_1
I0522 10:51:57.194272 21211 net.cpp:380] softmax_loss -> softmax_loss
…
